IA2CC/model/rewardweight/config2/actor_1.pth (torch, 161096 bytes, 6 tensors)

network.0.weight f4 [128, 175]
00000000: c08d 383d 9200 10bd aa29 843d cbae efbc
00000010: dd97 d03d a91f 503c 237d 88bd 9ca4 363d
00000020: 3b41 75bc ed38 103d f0ab 9abd 162a a33d
00000030: 75a0 18bd d7b5 08bc 78af bcbd 56df 8c3d
00000040: 7ef3 5abd 3207 bebc bb54 3f3d 2120 d5bc
00000050: 06d1 8cbd eabb c7bc 1388 223d 68c1 87bd
00000060: 8a4b 323d 6920 e13c 71c1 88bd aeaf 893b
00000070: 69b5 b5bd 5739 63bc 99ab b3bc 8710 81bd
00000080: 0dec b6bd 8283 16bd fbda 54bd 7234 e23c
00000090: 068b e3bc 6186 15bd f081 8abd 13f8 71bd
000000a0: 65e3 d2bc f743 863c 6c57 f7bb 611d 833d
000000b0: 0878 28bd 14c7 0a3d 5e41 68bc a290 dcbc
000000c0: 8622 40bd d7af 9a3d 087f 86bd 7128 86bd
000000d0: 2c7e 923c c147 ea3c 728f 0e3d 8231 073d
000000e0: b54d 823d ec87 8e3d e5ff 73bd 7504 97bd
000000f0: dc12 8ebd f589 bdbc 90db 87bd 4039 183d
00000100: bb60 ffbc 3b7e 16bd 63c8 92bc 7e95 263d
00000110: cae4 a6bc 0d08 7abc b8ef 7abc 2b75 5abd
00000120: 4795 a2bc 1e6d 3f3c e9b0 46bb 8755 003b
00000130: a380 5e3d 5763 9a3d 76ac 053d afaa 49ba
00000140: be3f 57ba 7189 16bd a9ca 20bd 1742 b03d
00000150: 984d 9fbc 7029 c7bb 3083 23bd 7022 3cbd
00000160: 186b 50bc bcd1 ec3c 9e5b 98bd 7b74 0bbc
00000170: e50b a53b d0eb df3c 1953 983d cddb 45bd
00000180: e3e9 d63c 8134 c13b 3ffe 8cbd bb40 893c
00000190: 3ae8 5ebd f350 8f3d dbf9 aebd e85d f73c
000001a0: f04d 123d 0d81 923d 69b0 443d 25a0 95bd
000001b0: 71b7 9d3c dde6 f63c 0a84 083c ffed 63bc
000001c0: 903b f5bc aab0 223b e0ab 5ebd d40c 303d
000001d0: fb3c 2d3d c12c 51bd ad4f c23c 43af 7a3c
000001e0: dd4c bb3c 2a51 873d 0807 643a 5b69 113d
000001f0: e198 43bb c86b 7b3d 0678 5a3d efec 29bd
00000200: e5cf d33c 3350 213c a016 5d3d 49c9 4ebd
00000210: 20d3 9b3d 0c5d 5c3d e773 213d 4e0a 48bd
00000220: 3a85 1a3d cf63 f3bc b269 093b 4b74 14bd
00000230: 0653 26bd cbeb 4ebd ad81 80bb 54aa c3bc
00000240: 929a 963b bc74 013d 9845 473c 7433 803d
00000250: 3776 2fbd 7428 9ebc 2df5 693d 4309 ae3d
00000260: 9293 f43c 883d f53c ab98 3ebd bbac 88bd
00000270: b1a9 8cbd fd52 973c 71c9 01bd d468 7c3d
00000280: 1354 233d 5970 d13c ada8 7bbb 756c e83b
00000290: f2f0 57bc d244 1e3d 392a a53d afd6 003d
000002a0: 5029 143c 1499 923c 650e 87bd 075e 3fbd
000002b0: 37d9 6c3d 8472 2f3d 6381 753d d84c 10bc
000002c0: 5126 a23c f225 cebc ca1a 4e3c a04d c73d
000002d0: 9ea0 f03c 5768 30bc c975 143b 8908 353d
000002e0: 86df 843d e831 d73c 3e47 a3b9 29d1 09bd
000002f0: a41a 64bd f08e 1f3d 8f6e 63bb 959a b93c
00000300: 4f11 54bc f354 213c 4849 d83c 578e 86bd
00000310: 419e b83d dd44 c23c ce64 423d 5790 4e3d
00000320: f4f5 c13d eddd 27bd 8165 a23c 38d5 2bbd
00000330: 58a7 a63d 1603 00bd 7c2c 09bd 77ce 1bb9
00000340: 0eac b43a 80c0 603b b852 39bd 173b b73c
00000350: 25ba 0a3d 5d17 943c 822f 45bd c94b 6e3d
00000360: 2819 f83b cf7e 943d e579 c2bc 936b 273d
00000370: ffb4 8a3d 9d0d 82bd df59 ef3b 031f d33c
00000380: 0d49 c83b 3b3d 58bd 0061 5e3d 7977 8fbd
00000390: 1b1c 953b 6c28 84bc c1b4 be3c ced4 703d
000003a0: 4b72 97bc 3543 5ebd a030 30bd c67d 1f3d
000003b0: 6337 8e3d 5970 833d 111e 493c cda4 ac3c
000003c0: 1a14 563d 5309 28bd cad9 cabc 4d0b 763d
000003d0: 9334 263d ca8f afbb a7ac e9bc aa06 a33d
000003e0: aa2d 893d 635d fbbc 0bc2 923d ca52 553d
000003f0: efca 013d aeaa 77bd 7893 d23c f53d 98bd
0.04505706 -0.035156794 0.06453259 -0.029258152 0.101852156 0.012702861 -0.06664493 0.044590577
-0.014969165 0.03521054 -0.07552326 0.07967012 -0.0372624 -0.008344135 -0.092131555 0.068785354
-0.05345487 -0.02319679 0.046711665 -0.026016297 -0.068758056 -0.024381597 0.03968055 -0.06628686
0.04352907 0.027481275 -0.06677521 0.004201851 -0.08872492 -0.013868651 -0.02193241 -0.063019805
-0.08931742 -0.03674651 -0.05196665 0.027612898 -0.027776252 -0.036505107 -0.06763065 -0.059074473
-0.025743196 0.01638983 -0.0075482633 0.06402088 -0.041130096 0.033881262 -0.014175741 -0.026924435
-0.046907924 0.0755307 -0.06567198 -0.06550682 0.017882429 0.028598668 0.03480477 0.0330062
0.06362478 0.06959519 -0.059570212 -0.07373897 -0.06937191 -0.023137072 -0.06633675 0.037163973
-0.031174054 -0.036741477 -0.017917817 0.04066991 -0.020372767 -0.0152607085 -0.0153159425 -0.053334396
-0.019846572 0.01168373 -0.003031785 0.0019582228 0.054321896 0.07538479 0.032635175 -0.00076929753
-0.00082110974 -0.036752168 -0.03925577 0.08606356 -0.01944618 -0.006077938 -0.039920032 -0.04593128
-0.012720846 0.028908603 -0.074393496 -0.008511658 0.0050368183 0.027334124 0.074377246 -0.04830532
0.026234573 0.0058961515 -0.06884431 0.016754499 -0.054420687 0.06997862 -0.0854375 0.030196145
0.03571886 0.07153521 0.0480198 -0.07305936 0.01925251 0.030139381 0.008332262 -0.013911723
-0.029935628 0.0024824538 -0.05436313 0.042980984 0.042294484 -0.05106807 0.023719633 0.015300575
0.0228638 0.06607278 0.00086985575 0.035500865 -0.0029845762 0.061382085 0.05333712 -0.041485723
0.025855968 0.009845781 0.053976655 -0.05048493 0.07608628 0.053799674 0.039417174 -0.048837952
0.03772471 -0.029710678 0.002096754 -0.036243718 -0.04060652 -0.05051784 -0.0039217086 -0.02388493
0.004596063 0.031605467 0.012162589 0.06259814 -0.042837348 -0.019306399 0.057118583 0.0849786
0.029855523 0.029936567 -0.046532314 -0.06673571 -0.068683036 0.01847219 -0.03168625 0.06162341
0.0398751 0.025566267 -0.00384001 0.007093007 -0.013180004 0.03863985 0.08064694 0.03145474
0.009043053 0.017895259 -0.065945424 -0.04672053 0.05782434 0.04283382 0.059937846 -0.0088073835
0.019793661 -0.025164578 0.012579629 0.09731603 0.029373463 -0.010767064 0.0022653213 0.044197593
0.06487946 0.026268914 -0.00031142862 -0.033646736 -0.05568947 0.038954675 -0.003470335 0.022656718
-0.01294358 0.009846914 0.02640213 -0.06570118 0.090145595 0.023714477 0.047459416 0.050430622
0.0947074 -0.04098313 0.019823791 -0.041951388 0.08137387 -0.031252943 -0.03348969 -0.00014858866
0.0013784186 0.0034294426 -0.045244902 0.022367043 0.033868928 0.018077547 -0.04814101 0.058177743
0.0075713582 0.07250749 -0.023739764 0.040874075 0.067728035 -0.06350253 0.0073044146 0.025771623
0.006112224 -0.05279277 0.054291725 -0.070052095 0.0045504696 -0.016132556 0.02327955 0.058796696
-0.018487116 -0.054263312 -0.043015122 0.038938306 0.06944158 0.06417913 0.012275235 0.021074677
0.052265264 -0.041024517 -0.024762053 0.06006937 0.040577482 -0.005357717 -0.02852471 0.079602554
0.06698163 -0.030684179 0.07165917 0.052080907 0.031687673 -0.060465507 0.025705084 -0.07433692

network.0.bias f4 [128]
00000000: a7e9 9ebc f42e 7e3d 2525 683d 7a32 64bd
00000010: b2a9 913d b13b 19bd aac5 013c e531 9c3c
00000020: d9ef 10bc d3f0 de3c de97 163d e902 62bd
00000030: 6bd6 5e3d 7253 c23c ebcf 3f3d 7812 4fbd
00000040: b210 1d3d f65e 4ebd 3d76 b9bc 87ea 28bd
00000050: f728 3d3d 6c27 86bc e049 433c 10b3 f3bc
00000060: 5645 893d 5c57 053d 69e0 18bc 29b1 78bd
00000070: f2fa 74bd 0286 263c c30f 94bd a529 6a3d
00000080: 741a 1f3d a8f2 8ebb 49f5 223c 8b2f 38bc
00000090: 5cdd 7cbd 9bf3 7a3d f202 513d cbd6 ee3c
000000a0: 1943 6b3d b72d 513d 7a37 05bd ee78 773c
000000b0: 4bb8 69bb f02a 3c3c a511 5dbd 5ec4 30bd
000000c0: 99e6 c13c e910 923d 527b 19bd d4eb 7b3d
000000d0: d851 0abd b6ef 1d3b 8ca2 52bd 389e 673d
000000e0: f090 313d 7256 0d3c f74b 893c 1482 2d37
000000f0: e752 2a3d c532 beba 2ced 76bd 50a3 6dbc
00000100: 5865 613c 6032 2f3d 3ef8 ac3c c511 573c
00000110: b006 ccbc 7ee7 cabc a40b 053d 9a72 2b3d
00000120: d96e 6dbd 7606 bdbc 188e ba3b 5522 37bc
00000130: 9848 18bd dab1 30bc a0de 27bd 43a5 e6bc
00000140: 1d74 2abd 5ccc 0b3d 2507 53bd 7839 c73a
00000150: 70b2 463d 0b41 543d 91b6 6b3d 0748 f93c
00000160: 253d 9cbd 4932 79bd a22c cfbc 8aad b03d
00000170: b525 393d dd36 d63c 3cca 853d 1a64 393d
00000180: bc4f 6cbd 1d2e 11bd c006 38bd dbe6 64bd
00000190: 608c 4a3d a9e1 163d f109 f73b a41e 70bd
000001a0: 972f 903c 2d63 e73c b7d0 a2bc 9af8 cc3c
000001b0: 4066 48bd 814c 7c3d e676 5b3c 526c 393c
000001c0: f2fe cb3c 6b70 253c 6d52 82bc d7ec 67bd
000001d0: 0b94 54bd 724f df3c 8189 2abd aabd 653d
000001e0: 4960 903c 51bb 6ebd b351 3cbc 3954 be3c
000001f0: 2c12 5abc ff13 55bc 7e80 6cbd ff04 45bc
-0.019398523 0.062056497 0.05667605 -0.0557122 0.07112445 -0.03741044 0.007920662 0.01906676
-0.008846247 0.027214443 0.036765926 -0.055178557 0.054403704 0.02372143 0.046829145 -0.050554723
0.038346 -0.05038353 -0.022639388 -0.041239288 0.046181645 -0.01637622 0.011919469 -0.02974847
0.06702678 0.032554016 -0.009330847 -0.060715828 -0.059809633 0.010163786 -0.07229569 0.05716862
0.038843587 -0.004362423 0.009946176 -0.011241804 -0.061734542 0.061267477 0.0510282 0.029155156
0.057437036 0.051068988 -0.03252361 0.0151045155 -0.0035662826 0.0114848465 -0.053971905 -0.04315602
0.023669528 0.071321316 -0.037471123 0.0615042 -0.03376946 0.0024099178 -0.051424548 0.056547374
0.043351114 0.008626567 0.016759856 1.034189e-05 0.041582968 -0.001451098 -0.06028478 -0.014504269
0.013757072 0.04277265 0.021114465 0.013126795 -0.024905533 -0.024768587 0.032481804 0.04185734
-0.05796704 -0.02307437 0.0056932084 -0.011177619 -0.037178606 -0.010784591 -0.040983796 -0.028154975
-0.04161464 0.03413044 -0.051520485 0.0015199622 0.048510015 0.051819842 0.057547156 0.030429853
-0.0762885 -0.06083897 -0.025289837 0.0862685 0.045201976 0.026149208 0.06532714 0.04526148
-0.057693228 -0.035444368 -0.044928312 -0.055884223 0.04945028 0.0368363 0.007539027 -0.05862297
0.017600818 0.028245533 -0.019874914 0.025020886 -0.04892564 0.061596397 0.013395047 0.0113173295
0.02490184 0.010097603 -0.015908444 -0.056622352 -0.051898997 0.027259562 -0.04163504 0.05608908
0.017624037 -0.058284108 -0.011494088 0.02323352 -0.013309997 -0.013005256 -0.057739727 -0.012025117

network.2.weight f4 [128, 128]
00000000: 609c 153d f0ee a73d 2452 a83c f723 883b
00000010: 4266 02bd 305c 793d fa35 c2bc 8a8d 313c
00000020: 0ba0 a33c 3d22 42bc 88ab 863d 3ea4 e03b
00000030: cd09 6bbd 21f1 3d3d ac9a 0c3d a136 56bd
00000040: 0164 54bd 8c96 903d e5d8 8bbd 4f7f 3e3d
00000050: f13f 9fbc 889a 8bbc 4827 b43d e999 993c
00000060: 9572 95bc 5b9d ac3b 8929 0abd 5f79 c8bc
00000070: f629 9e3d c663 c03b 427b fe3b bd08 69bd
00000080: d60f a5bc 4e20 583d 3980 ac3d 3806 70bd
00000090: aa6d 19bd 7eb5 3ebc e089 05bd 2558 a83c
000000a0: 3e71 a1bd cec1 903d 4db5 bf3c b90d 4dbd
000000b0: f330 43bb 5fdb b7bd 950d 133d 9551 8cbc
000000c0: c066 8f3d b2aa 883d 3db4 1e3d 5a01 1dbd
000000d0: 2d46 a93d 6ec1 c1bb 7b9c a5bd 2b18 adbd
000000e0: c3dc 713b e573 7f3d 433c d13d fac7 70bd
000000f0: 90b8 9bbd 609f afbd 4112 f13c 1066 babd
00000100: fcab ae3d 74ec 673d 4313 413d d2b8 86bd
00000110: f191 993c 883f 4c3d 5842 9f3d 30c4 7dbd
00000120: b27f 4fbd 4365 c03b 085e 19bd 57ea 1bbd
00000130: 34b1 833d 5254 a2bd ddc2 363d 106c 3e3c
00000140: 8c50 0f3d 8910 903d c074 873d d074 3b3b
00000150: 3205 d0bc 73c7 973d 7402 82bd 212f edbc
00000160: 671d 38bc ad11 9fbc 6083 39bd 512e a43d
00000170: 0378 b83d 16a8 893d dbab 42bc dec3 80bd
00000180: 0418 a7bd 7cf0 a53c 6a7f fb3a a0d9 a4bd
00000190: d1c3 4dbc ac86 b13d 9a77 7d3c ba5c 92bc
000001a0: 7f61 7abd e28f 563c 8ad5 8f3c 1998 9bbc
000001b0: f29c 15bd 5916 4d3d cd58 4abc 374a 60bd
000001c0: 9942 763d 9cf1 bebc 11b9 1b3d a3aa 6a3d
000001d0: 5be6 bfbc fdd3 973d 971d dd3d 022e 65bd
000001e0: 9978 ccbc 9c79 1ebd d3e3 9bbc 30ac dc3c
000001f0: 1b7c 633d 5326 5d3d 9ba0 7f3d facd 30bd
00000200: 6060 e3bc f03a d6bc c5be 0ebd 74e3 83bd
00000210: dcbf 71bd e456 b5bc d654 8c3c 3c29 9b3d
00000220: b191 6e3d 6856 f2bc eb7b 213d ccf8 803d
00000230: f9cd 5e3c bc7a 49bc 20b0 4abd 6c9b f53b
00000240: 6d2e 123d c6c0 573c 13d9 7ebd 405d 4bbd
00000250: 4d38 a73d bdeb c13c 79fd 573d 40d2 8cbc
00000260: 1c13 67ba c20c 52bd 6259 adbd 6f7d 6e3d
00000270: 9bef 60bd ecdf 963c 6872 0cbc 1dd7 553c
00000280: a063 a4bb f1f2 693d 3f7c ad3d c448 b7bc
00000290: 8251 fcbc 2425 a23d 7a06 2f3d de94 b03a
000002a0: ad30 a2bd 0f32 55bd b1c9 c1bc efb3 b43d
000002b0: 9c97 82bd f6a7 a53d 8c74 d7bb 27fd 683c
000002c0: c5a5 98bd 3f21 9dbd c5c5 373d aff0 59bd
000002d0: c402 143d e330 ca3c 833f d1bb a6a1 0e3d
000002e0: 2051 e8bc 0b2e 523d 3f98 483d 8ee5 23bd
000002f0: ff6e 8d3d 2585 84bc df66 713d 52af 283d
00000300: 0c09 a7bd 8b99 ecbb 760f 65bc fa2d ab3d
00000310: f824 2ebc c524 c2bc 50b6 03bd 6958 a33d
00000320: c26a cbbd f7a5 bcbd 2200 533c fec0 f0bc
00000330: 444f 38bd 4da2 553d 55ae 6a3d 5e50 1b3d
00000340: 3f9e 43bc 1e9e f7bb 5dea 383b 1178 30bc
00000350: 0696 d83c 5f5f 083d f64a b63b 479e 3dbd
00000360: d485 af3c 1dcd 7c3c 832e 0e3d 9ff9 c13b
00000370: 1231 b5bc deb4 c4bc bcdc a13c ec9b 923d
00000380: d5ff bcbd d6fa 873d 05e2 073d fdbf 3ebd
00000390: 21a7 acbc e4f3 9e3d 5c59 6fbd a748 9cbd
000003a0: 07c1 7b3d 9639 15bd d5a2 1dbc 1362 673d
000003b0: 2162 aabd 423a 823d 39b2 75bd 1bfe 3e3c
000003c0: 5e9e 69bc 85c2 debc 4802 b33d ac90 57bd
000003d0: b3c6 853d 451c a8bd f5c9 2ebc f6f6 1b3b
000003e0: 0c10 653d d5bb 873d d393 7fbd 682c 7d3d
000003f0: 0de6 7f3b 32b6 0f3b 144f b5bd 0cd4 7c3d
0.036526084 0.081998706 0.02054698 0.004154678 -0.031835802 0.060878932 -0.023707379 0.010836968
0.019973775 -0.011848983 0.06575686 0.0068555167 -0.057382394 0.046372537 0.034327194 -0.052298192
-0.051853184 0.070599645 -0.06828479 0.04650813 -0.01943967 -0.01704146 0.08796555 0.018750148
-0.018243114 0.0052677817 -0.033731017 -0.024471937 0.07722847 0.005871269 0.0077661583 -0.0568931
-0.020149153 0.052765183 0.08422894 -0.05859968 -0.0374581 -0.011639951 -0.03260219 0.020549843
-0.07882927 0.07068215 0.02340188 -0.050061915 -0.0029783815 -0.089773886 0.035901625 -0.017128745
0.0700202 0.066731825 0.038746107 -0.038331367 0.08265338 -0.005912951 -0.08086487 -0.08451875
0.0036905266 0.062366385 0.10216572 -0.058784463 -0.07603562 -0.0857532 0.02942765 -0.09101498
0.08528897 0.056621984 0.04713751 -0.065782204 0.018746348 0.049865276 0.07776326 -0.061954677
-0.05065889 0.0058714463 -0.03744319 -0.03806528 0.06430283 -0.07926239 0.04461943 0.011622444
0.034988925 0.07034404 0.06614065 0.0028603561 -0.025393102 0.07411089 -0.06348124 -0.028953137
-0.011237479 -0.019417608 -0.045291305 0.08016647 0.090072654 0.06721513 -0.011881794 -0.06287359
-0.081588775 0.020256273 0.0019187753 -0.08049321 -0.012558893 0.08668265 0.01547041 -0.017866481
-0.061128136 0.013095828 0.017557878 -0.018993424 -0.036526628 0.05007014 -0.012350273 -0.054758277
0.060122106 -0.023308568 0.03801829 0.057291638 -0.023425272 0.074134804 0.107966594 -0.05595208
-0.02495985 -0.038690194 -0.019029533 0.026937574 0.055538278 0.053991627 0.062409025 -0.043165185
-0.027755916 -0.02615115 -0.0348499 -0.064398676 -0.059020862 -0.02213616 0.017130297 0.07576224
0.05824441 -0.029582217 0.039424818 0.06297454 0.013598912 -0.012297329 -0.049484372 0.0074953344
0.035688806 0.013168519 -0.062218737 -0.049649477 0.081650354 0.02367198 0.052731965 -0.017190099
-0.0008814798 -0.051281698 -0.08464314 0.05822509 -0.054916006 0.018417321 -0.008572198 0.013051775
-0.005016759 0.057116453 0.08470964 -0.022373565 -0.030800585 0.0791724 0.042730786 0.00134721
-0.079194404 -0.052049693 -0.023655744 0.08823382 -0.063765734 0.08088677 -0.0065751728 0.0142205125
-0.07453493 -0.07672357 0.044866342 -0.05320805 0.03613545 0.024681514 -0.006385745 0.03482213
-0.028358996 0.05131344 0.04897332 -0.040013842 0.069059364 -0.01617677 0.058935996 0.041182823
-0.081560224 -0.007220452 -0.013980737 0.08358379 -0.010628931 -0.023699174 -0.03215629 0.07975847
-0.09932472 -0.09211343 0.01287845 -0.0293889 -0.04499747 0.052156735 0.057295162 0.03791844
-0.011939584 -0.007556691 0.0028215863 -0.010770814 0.026438724 0.033294078 0.0055631353 -0.046293523
0.021426119 0.015429762 0.034712326 0.0059196497 -0.022118125 -0.024012025 0.019758575 0.07158646
-0.092284836 0.0663964 0.033174533 -0.046569813 -0.021075787 0.07761362 -0.05843483 -0.07631045
0.061463382 -0.03643187 -0.009621342 0.056490015 -0.08319498 0.06358768 -0.05998442 0.011657263
-0.014258949 -0.027192364 0.087406695 -0.052628204 0.065320395 -0.08208517 -0.0106682675 0.0023798323
0.055923507 0.06627623 -0.062396836 0.061809927 0.0039047033 0.0021928665 -0.088529736 0.06172566

network.2.bias f4 [128]
00000000: 0b26 903d 2c3f dbbc cedd 4f3d 1307 ba3b
00000010: c9e4 b03d c489 6bbd 6006 9d3c 5739 143c
00000020: c56c 7abd a619 4fbd 7670 8ebc 4cf1 463d
00000030: cc95 273d 796a 1c3d 39ad 603d d24f bc3c
00000040: 8c4f 90bb 7191 44bd 853b e93b 4179 813c
00000050: 3e0d bf3d 2f08 ccbb f0a8 03bc fa83 97bc
00000060: 9c7d b33d a494 91bd bfe9 943d 4796 c43d
00000070: ece3 31bd 54c6 c83b 3bb0 74bc 882c 2a3d
00000080: a159 a3bc 6e0e 6c3c eb51 babc 648a c03d
00000090: df6c 943c 42b3 873d 316e 1fbc 327d 9bbd
000000a0: 46b4 2fbd e9f8 e7bc a65b 893d c7d5 b03d
000000b0: b40d a5bd 03fa 72bb 6c1d 093d 7a2c cd3c
000000c0: 2c04 973d 8057 b83d d65d 13bc ba94 5fbd
000000d0: 8bec e53b 00f8 ab3d 745f 943c 7c1f 7ebd
000000e0: 1aed 84bd b9c0 843d 9675 acbc 3f0e 533d
000000f0: addf 403b f3b0 783d 61e8 4ebd 6534 c3bc
00000100: afb3 98bd dce5 043d d90c 0bbc e21c 5c3d
00000110: 4318 a5bd 04bd a1bd dc6d a3bd 86fb e03b
00000120: e2cb 6d3d 8675 383d 6631 633d c2cb 43b9
00000130: 375e 82bd 848d 983d 4063 f93b ca85 493a
00000140: 3b8d 313d c46a 073d 6ecc ec3c 24b3 0ebd
00000150: 9f59 45bd 16af 79bc 79c9 883c 59e1 173c
00000160: 3d59 73bd 9fa3 db3c 13be 0f3b 4e45 083d
00000170: 27b1 42bd 49cb e93c 9fe1 9cbc 01a2 8f3d
00000180: 9bd3 45bd d16e 20bd 510d a03d da4e 913d
00000190: 3bb8 82bd 5c27 9f3b 4217 a5bd 9f58 463d
000001a0: 0757 dfbc f0b3 0cbd daf3 1d3d f07d 68bb
000001b0: 6343 c13d 30fa 193d 79f9 67bd a442 1b3d
000001c0: 3ca7 873d d90a a1bd c6a9 9cbd d2aa 50bc
000001d0: 85f5 70bc 45da c0bb f2b2 0c3d 1f61 acbd
000001e0: 9875 883d a2c3 82bd ea19 3dbd a1d8 113c
000001f0: 237d 0ebc a28f 683c 065c 5e3d 1558 ec3c
0.07038506 -0.026763521 0.05074864 0.005677113 0.08637387 -0.05750443 0.019168079 0.009046874
-0.061138887 -0.05056157 -0.01738761 0.048569962 0.04091434 0.038187478 0.054852698 0.02298728
-0.004404014 -0.047990266 0.007117691 0.015804889 0.093286976 -0.0062265615 -0.008035883 -0.018495549
0.087641925 -0.07108429 0.07271146 0.09598976 -0.043430254 0.006127158 -0.014934595 0.041546375
-0.0199402 0.014407737 -0.02274414 0.09401396 0.01811832 0.066259876 -0.0097308615 -0.075922385
-0.04289653 -0.028316932 0.06706934 0.08634525 -0.08059254 -0.0037075288 0.033475325 0.025045622
0.073738426 0.09001064 -0.00899454 -0.054585196 0.0070167235 0.083969116 0.018111922 -0.062041745
-0.06490536 0.064820714 -0.021052163 0.051527258 0.0029430196 0.060715627 -0.050514583 -0.023828695
-0.07456147 0.032445773 -0.00848695 0.053738482 -0.08061268 -0.0789738 -0.079799384 0.0068659214
0.058055766 0.045033954 0.055467032 -0.00018672555 -0.06365626 0.07448867 0.0076107085 0.00076874776
0.04334758 0.033060804 0.028906073 -0.03483881 -0.048181172 -0.015239498 0.016697632 0.009270036
-0.059411276 0.026811419 0.0021933361 0.03326922 -0.047532227 0.028539317 -0.019150553 0.07013322
-0.048297506 -0.039168183 0.0781504 0.07095118 -0.063827954 0.004856987 -0.08061077 0.04842436
-0.027263178 -0.03435129 0.038562633 -0.0035475455 0.09436681 0.037592113 -0.0566344 0.03790535
0.06623694 -0.07863397 -0.07649569 -0.012736039 -0.014706974 -0.0058853948 0.034350343 -0.08416962
0.06663054 -0.0638497 -0.04616729 0.008901746 -0.008696827 0.014194401 0.05428698 0.028850595

network.4.weight f4 [5, 128]
00000000: 89c9 df3c c337 32bd 780c b03d 8acd 733d
00000010: ffc7 913d 5763 3d3d 1609 aebc c58c 2cbd
00000020: 38dc 6e3d 6298 f1bd b665 83bd c55d f5bc
00000030: 5369 38bd 1e0d 063d 9996 eabd bfc9 143d
00000040: db26 efbd ce5f c83d f00b 8ebd 4e84 c4bc
00000050: 74a7 c13a a967 9ebd a853 95bd f359 71bd
00000060: 8156 253d afc6 853d ad94 483b ed66 e4bd
00000070: afbd b8bc 0730 e83d 7942 7fbc dc14 c23c
00000080: 7b4f 22bd bf6d 0bbc b90a c63d b912 75bd
00000090: ddaf aebd b5a6 7bbd b0a6 893d 1eef 3abd
000000a0: d5f0 913c 61dc 1b3d 53a1 e2bc e980 48bc
000000b0: 0235 dabc 6a37 b03d 9642 9dbd deb2 6b3d
000000c0: 5922 a3bd e28f c03d fe42 aabd debb 9b3d
000000d0: 1d76 8a3d f139 9cbd 4e85 3dbd a369 893d
000000e0: 9bf6 ad3d 39c7 b43b 735c 0ebd d2bf a13d
000000f0: b225 2d3a cb74 5b3d e6e7 7e3d aff2 d0bd
00000100: bcb7 a43d bc2d c3bd b331 57ba 90e5 a4bd
00000110: 43ff 6dbd c12e c3bd 7f30 15bd 1644 b9bd
00000120: 022c d23d 9907 c1bd 3baa b63d ccb0 993d
00000130: 9ed6 8c3b ad46 963d 4678 9bbd a74d 8fbd
00000140: b862 1a3d 5972 f4bc 2af0 87bc a000 803d
00000150: c365 97bc a62f 753d c8a1 823d 3310 a03d
00000160: f090 8e3d 8550 42bd 4e48 80bd e08c 3c3c
00000170: e245 3bbd 4e45 afbd 53f9 393d 7153 b0bd
00000180: 542e 99bd 3212 883d e960 1d3d 364e 523d
00000190: 9f75 a63d 140c da3c 64e9 9c3b 555f 1e3d
000001a0: ff0b 95bb f301 51bd de30 f5bc 57fc babd
000001b0: f75f 13bd 4e81 0c3b da22 8abd 4df9 cc3c
000001c0: 7fcf ca3c 01b1 5cbb df28 093d a0bf d0bd
000001d0: 0ee0 69bc e440 4b3d ac9b 683d 60d6 f6bc
000001e0: f446 eb3c b177 563d 0562 913d 8e72 cdbd
000001f0: 3d18 f63c cfbb 2c3b 163d 813a d2e4 cdbd
00000200: 4f7e 00bd 48a9 5abc 8977 833d 69c9 9d3c
00000210: 3a31 9b3b e9a0 68bd 9992 a4bd 6648 71bd
00000220: b0d6 d93c 044a 9f3d 3968 b63d 69cf c9bc
00000230: 1cd6 4b3b 4189 593c dede 513d b7da ef3c
00000240: fc6c 813d 1ab4 8e39 d55f 8abd d111 02bd
00000250: c194 a3bd 6d93 4b3d 587b 253d 80ef aabd
00000260: c4cb 873d 49e7 a4bc 3b03 c3b9 198b a3bd
00000270: 327a 9d3d 5499 e63c d3d4 fc3d f696 a93c
00000280: 25bd 993a 1b25 acbd 05f8 933d 5585 a73c
00000290: bd8a 8a3d 6240 0b3b dbd9 a4bd 8254 dabc
000002a0: 01fe 4dbd bc1e 2fbb 63de 863c b227 5a3d
000002b0: 9729 933d be6a 9abd f141 9dbd a141 803d
000002c0: 0d8b 0dbd 1c00 2ebd b240 31bd 21ce 1fbb
000002d0: da2c 823d 4ced 9c3d efdb 9d3d 4e5e 9ebd
000002e0: e500 063d 2eaa 2e3d 95bc c8bc ccb3 9fbd
000002f0: 5044 2fbd e667 78bd 1d0c 133d 6804 99bd
00000300: 4bc9 46bd 4cbf d3bc e0ba 85bc a362 6f3d
00000310: 3fce 533d fe6d c83d 2206 b73d 2571 0e3c
00000320: e4ac a2bd 028c c2bd 94d6 f03c 8fe3 6dbd
00000330: 6d9a 353d 6c42 8cbd e88a 1ebd c9ea 5ebd
00000340: 5d2c 423d 9bb7 f23b 3fb4 afbd 3308 a3bb
00000350: b5f8 b6bc 8377 0f3c 3eed 84bd 1f92 0f3d
00000360: 9234 d13c fa72 7238 cdb2 913d 88ad 3f3d
00000370: 10c9 9f3c b357 acbd f284 b73d 6008 453d
00000380: 91b1 9f3d e909 21bd 033f 483d 51c3 353d
00000390: 9c37 1c3d c42c 3bbd cdc5 afbd 6038 e03b
000003a0: a6f7 d4bd 2ae6 ac3d 66c5 afbd 7e16 6e3c
000003b0: 4f76 253d d5fc 43bd dca2 a53c 8787 eebb
000003c0: 3811 6fbd 2528 4c3d cd81 bebd bcc0 6f3d
000003d0: 9835 27bd cb37 b33d d2f3 b83d b5b2 a3bd
000003e0: 2876 9d3c 586c 00bd 8814 803d 70ae ea3c
000003f0: 9a4b 08bd 9680 ef3b 3a63 4c3d 2e7f 7abd
0.02731778 -0.04351021 0.08596128 0.05952219 0.07118224 0.046237316 -0.021244567 -0.042126436
0.058315486 -0.11796643 -0.06415884 -0.02995194 -0.04502232 0.032727353 -0.114545055 0.036325213
-0.11677333 0.09783898 -0.06935871 -0.023988869 0.0014774636 -0.07734615 -0.07291347 -0.058923673
0.0403657 0.065320365 0.0030606196 -0.11152444 -0.022551386 0.113372855 -0.015579813 0.023691587
-0.03962658 -0.008510052 0.09670014 -0.05983231 -0.08529637 -0.06143828 0.06721246 -0.045638196
0.017815033 0.038051967 -0.027664816 -0.012237766 -0.026636604 0.086043194 -0.07678716 0.057543628
-0.07965536 0.094024435 -0.08313559 0.07604192 0.067608096 -0.07628239 -0.046269707 0.06709602
0.08494302 0.0055169133 -0.034756135 0.07897915 0.00066050433 0.05357818 0.062232874 -0.10202538
0.08042857 -0.095302075 -0.0008209005 -0.08051598 -0.058104765 -0.09530402 -0.036423203 -0.090461895
0.102623 -0.09425277 0.08919188 0.075044245 0.0042980453 0.07337699 -0.075913 -0.06997233
0.0376918 -0.029839681 -0.016594011 0.06250119 -0.018481141 0.059859894 0.063785136 0.0781559
0.069612384 -0.04744007 -0.06263791 0.011508197 -0.045720942 -0.08558141 0.04540379 -0.08609665
-0.074795395 0.066440955 0.0384225 0.05134412 0.08127903 0.026617087 0.0047885645 0.038665134
-0.004548549 -0.05102725 -0.029930528 -0.09130161 -0.03598019 0.0021439376 -0.06744929 0.02502122
0.024757145 -0.0033674838 0.033486243 -0.101927996 -0.01427461 0.04962243 0.056789085 -0.030131519
0.028720357 0.05236024 0.07098774 -0.10031615 0.030040855 0.002635706 0.0009860124 -0.1005341
-0.031370457 -0.013346024 0.06419284 0.019261079 0.004736093 -0.05679408 -0.08035774 -0.058906935
0.026591629 0.07777789 0.08906598 -0.024635034 0.003110296 0.013277353 0.051237933 0.029279096
0.06319615 0.00027218537 -0.0675656 -0.031755272 -0.07987357 0.049701143 0.040400833 -0.08346462
0.06630662 -0.020129817 -0.00037195705 -0.07985515 0.076893225 0.028149284 0.123452805 0.020701867
0.0011729343 -0.08405515 0.0722504 0.02044932 0.067647435 0.0021248092 -0.08049365 -0.026651625
-0.050291065 -0.00267212 0.016463464 0.053260513 0.07185667 -0.07539891 -0.07678593 0.06262518
-0.034556437 -0.042480573 -0.04327459 -0.0024384337 0.06356211 0.07662448 0.07707965 -0.07732831
0.032715697 0.042642765 -0.024503985 -0.077979654 -0.042789757 -0.06064596 0.035900224 -0.074715436
-0.04853181 -0.025848053 -0.01632446 0.058443677 0.051710363 0.09786604 0.089367166 0.008693968
-0.079431325 -0.094993606 0.029399194 -0.058078345 0.044336725 -0.068486065 -0.03870669 -0.054423127
0.04740559 0.0074071414 -0.08579301 -0.0049753427 -0.02233539 0.008756521 -0.06490563 0.03505146
0.025537763 5.7804376e-05 0.07114182 0.04679635 0.019505054 -0.08415165 0.08960904 0.04810369
0.0779754 -0.03931609 0.048888218 0.04437572 0.03813897 -0.04569699 -0.085826494 0.006842658
-0.10398798 0.08442338 -0.08582573 0.01453173 0.04039603 -0.04784854 0.020219259 -0.0072793397
-0.05836603 0.049842972 -0.09302101 0.058533415 -0.040822595 0.08750876 0.0903088 -0.0799307
0.01922138 -0.031353325 0.06253916 0.028647631 -0.033275224 0.00730903 0.049899317 -0.061156444

network.4.bias f4 [5]
00000000: f489 9d3c aa65 593b 95f1 9a3d 3070 723c
00000010: 7fe5 193d
0.01923082 0.0033172169 0.07565609 0.014797255 0.03757238
