IA2CC/model/rewardweight/config2/actor_2.pth (torch, 161096 bytes, 6 tensors)

network.0.weight f4 [128, 175]
000000 70 cc 24 bd e0 ae 74 3d 41 25 cd bc 79 1c b7 3d
       -0.04023403 0.059737086 -0.025042178 0.089409776
000010 dc b6 f2 bc a2 9f 5a 3b 25 00 6a 3d 97 04 0a 3d
       -0.02962821 0.0033359309 0.057129044 0.033695783
000020 f9 89 87 3d 77 23 98 bd 8c 0d cb bc 71 4f 19 3d
       0.06618113 -0.074286394 -0.024786733 0.037429277
000030 b1 69 a0 3d 15 20 02 3d 45 d9 d9 3b f4 1b 0e bc
       0.07832659 0.031768877 0.006648215 -0.008673657
000040 36 6c cf 3b da 6e 64 3d c6 7a f3 bc 7a 7a de bc
       0.0063300384 0.05576978 -0.029721629 -0.02715801
000050 b6 79 8d 3c 83 35 03 3d a8 05 9d 3d b8 1b 77 3d
       0.01726995 0.032033455 0.076670945 0.06032917
000060 ce ea 99 3d 96 d8 52 3d ad f8 3f 3d fc 7e 86 bc
       0.075154886 0.051476084 0.046868015 -0.016417973
000070 cf f1 c3 3c 92 68 bc bc 15 49 5b bd 3b bd 4f 3d
       0.023919014 -0.022999082 -0.053536493 0.050717574
000080 44 57 83 3d c4 dc b6 3c 9f e0 0f 3d f6 03 35 bd
       0.06413129 0.022322066 0.035126325 -0.04419323
000090 f9 41 55 bd 57 ef 32 bb 0c 79 36 3d 12 99 54 3d
       -0.05206487 -0.0027303302 0.044549033 0.05190379
0000a0 5e 6a 53 bc 28 69 57 3d 30 ea 94 3d 08 64 6c bc
       -0.012903778 0.05259052 0.0727123 -0.014428146
0000b0 01 1f df 3c 75 86 84 3d a8 6f 2d bd 0e 52 36 bd
       0.027236464 0.06470958 -0.04234281 -0.044511847
0000c0 e4 6d 42 bd fa 2d 00 3c f6 b1 c9 3d ad 3b 3b bd
       -0.04746808 0.007823462 0.098483965 -0.045711208
0000d0 b4 1a bb bc 3f 27 18 3c 03 96 a1 3d 36 78 e8 3c
       -0.022839881 0.009286701 0.078899406 0.028377634
0000e0 3d aa df 3b 2e 6e 0c bd ea 9c 8a 3d c9 01 b3 bd
       0.006825714 -0.034284763 0.0676821 -0.08740575
0000f0 a5 b4 2a 3c d3 9a 4b bc e0 00 2d 3d 63 c7 a2 bd
       0.010419046 -0.01242705 0.042237163 -0.07948186
000100 cf 0a 93 3c 9a 36 90 3c a1 b7 f0 3c 7c 93 f5 ba
       0.01794949 0.017604161 0.029384436 -0.001873597
000110 6f bb 2f 3d d0 23 bd 3c 86 6c be 3d 47 df 44 bd
       0.04290336 0.023088366 0.09298043 -0.048064496
000120 0e 7a 4e 3d a5 7d 9c bd da 28 b3 3c 8e fa c1 3c
       0.05040937 -0.07641152 0.021870065 0.023679044
000130 e4 2e 19 bd d4 97 34 bd ee 2f 8d 3d 7c fb 41 3d
       -0.037398234 -0.044090107 0.068939075 0.047358975
000140 6d 7b ed 3c fc fe 98 3a bc c8 c7 bc 9f b3 83 bc
       0.028989518 0.0011672671 -0.02438771 -0.016076861
000150 b6 6f 82 bd 4a b1 6c bd af 0e 36 3d e0 c0 87 bd
       -0.063689634 -0.057786264 0.044447597 -0.06628585
000160 b1 46 8e bd 2a b9 a4 bb 0d 32 11 bc 5c e6 de 3c
       -0.06947077 -0.005026956 -0.008862031 0.027209453
000170 7e 09 41 3d d2 2c 74 bb 55 01 61 bd b9 ce 69 3d
       0.047128193 -0.003725816 -0.05493291 0.05708191
000180 b7 6c 39 3d 36 9c 27 bd f0 9d 3c bd 40 a2 93 bb
       0.045269694 -0.04092046 -0.04604906 -0.0045054257
000190 8f 07 39 3b 75 aa 35 bd 48 cb 31 bd 69 6f a3 3d
       0.0028233265 -0.044352014 -0.043406755 0.07980234
0001a0 69 25 87 3c 11 3b 5c 3d c0 da 0f 3c 6a 00 89 3c
       0.01649733 0.053767268 0.008780181 0.01672383
0001b0 50 df 3b bd d8 de 84 3d 2c 7f 66 bd a2 4f 2c 3d
       -0.045867264 0.064878166 -0.056273624 0.04206813
0001c0 e4 05 8b bb ba a2 1b bc 98 5d 9e 3c 39 f1 84 3d
       -0.0042426456 -0.009499246 0.019331738 0.06491322
0001d0 4d c4 8c bd c0 80 6b 3d 38 a8 cf 3c 17 5e 72 3d
       -0.06873379 0.057495832 0.025348768 0.059171762
0001e0 b2 8c b6 3c 25 f7 6c bd e5 18 ad 3c f4 35 81 3d
       0.022283886 -0.057852883 0.021130035 0.06309119
0001f0 62 e6 c6 bc e0 57 47 3c 81 10 59 bd 02 18 8e 3c
       -0.024279777 0.012166947 -0.052994255 0.017345432
000200 b4 b7 3e 3d dc d7 af bb 76 74 23 3d 06 c1 d4 3a
       0.04656191 -0.0053663086 0.039905988 0.0016231842
000210 68 cc 39 3d 0a 67 ba 3c 82 05 88 bd 71 e6 83 3d
       0.045360953 0.022754211 -0.066416755 0.064404376
000220 9b ec c5 3c 6f 92 4e bd ab a8 72 3c f6 5f 01 bd
       0.024160674 -0.05043262 0.014810721 -0.031585656
000230 9f a1 56 bd 74 73 6c bc cb 58 80 3c 20 c2 d2 3c
       -0.052400228 -0.014431823 0.01566734 0.025727332
000240 e2 9f 84 bd cd 45 1a 3d 08 b1 8e 3c 33 8c 14 3d
       -0.06475808 0.037664223 0.0174184 0.036266517
000250 4c 24 b1 3c cc 89 24 3d 45 7a 81 bb b8 6c 1a 3c
       0.021623753 0.040170476 -0.0039513432 0.009425335
000260 d1 76 8c 3c 0b dd d1 bc 1d 22 fc bc 71 cb 3e bd
       0.0171465 -0.025618097 -0.030777985 -0.046580736
000270 43 2a d7 3c ac 38 f4 3c 83 9a 1f bd b0 bb 8c 3a
       0.02626527 0.02981218 -0.038965713 0.0010737088
000280 ea b3 7d bb 7c 04 9a 3d d3 58 45 bd 8c 0f 8c 3d
       -0.0038711973 0.075203866 -0.048180413 0.06838903
000290 22 4f be bc 20 ef 06 3d 8c e3 24 bd 84 47 83 bb
       -0.023231093 0.03294289 -0.040256068 -0.004006328
0002a0 3c 0d 9a 3d a6 ef 18 bd 48 12 df 3c bc ba a4 3c
       0.075220555 -0.03733792 0.027230397 0.020108573
0002b0 69 bd 89 bd 96 68 b8 3b f8 bb b8 bc db 88 9b bc
       -0.0672558 0.005627702 -0.022550568 -0.018986156
0002c0 b9 98 70 3d 86 e1 a9 bc 5c 4c fd 3d b7 0c 97 bc
       0.058739398 -0.02073742 0.1236808 -0.01843868
0002d0 9a 59 af bd d8 96 b2 3c 60 d8 22 3c 0a 1d 1a 3d
       -0.08562012 0.021800444 0.009939283 0.03762535
0002e0 0f 68 2b 3d 3d 38 a6 3c 24 31 e1 3b c7 54 7c 3a
       0.041847285 0.020290488 0.006872313 0.000962567
0002f0 a3 da 10 3c 3a be 5b 3d 4e cd 3a 3d 8f 0e 1f 3d
       0.00884119 0.05364821 0.04560595 0.038832244
000300 82 d6 23 bd db 87 90 bc 0b d8 38 3d 65 1b 20 bc
       -0.039999492 -0.017642906 0.04512791 -0.009772156
000310 31 85 dc 3b c4 5c ae bb 07 cd f6 3c 4f 0f 3f 3d
       0.006729745 -0.005321117 0.030127062 0.04664546
000320 a6 74 11 bd f2 c1 42 bd 0c cc 56 3d 92 83 7f bd
       -0.035511635 -0.047548242 0.052440688 -0.062381335
000330 06 e8 2f 3b 52 b6 41 3c 9b 1b 68 bd 1c e7 d9 bc
       0.0026841178 0.011823254 -0.05666695 -0.02659946
000340 ca 78 c3 3c 71 2d 12 bc fa ca 45 bc a0 a2 0e bd
       0.023861308 -0.008921967 -0.012072319 -0.03482306
000350 46 b0 7e 3c d0 a3 fe bb 04 49 6e 3c 4e 56 13 bd
       0.015544957 -0.007770993 0.0145437755 -0.03597098
000360 21 11 48 bd c6 fc 54 bd bd 42 1d 3b cd c5 59 3d
       -0.04884446 -0.051998876 0.0023996078 0.053167153
000370 23 bc 33 3d 68 75 82 3d 17 9e 91 bd 3e c7 9c 3d
       0.043880593 0.0637005 -0.07110231 0.0765519
000380 1c cd 6b 3d 2b b7 2d 3d 37 1a 9e bd 4c 48 f0 bc
       0.057568654 0.04241101 -0.07719844 -0.029331349
000390 8e 98 87 bd ea 62 4f 3d bc ca 1f bc 6a 59 25 bd
       -0.06620894 0.05063144 -0.0097529255 -0.040368475
0003a0 8e 13 bd bd 30 19 e5 bc f4 53 85 bd 72 2a 3a 3c
       -0.092322454 -0.027966112 -0.065101534 0.011362659
0003b0 3b 91 56 3d 26 9e 26 3d 72 c4 11 3d ce 77 43 3d
       0.052384596 0.040678166 0.035587735 0.047721677
0003c0 e1 fe 7c bd d2 9b fb 3a 71 23 4f 3d 7a c3 37 3d
       -0.06176651 0.0019196218 0.05057091 0.044864155
0003d0 87 09 00 bc 01 95 70 bc 63 6c 63 3d 7a 8c 74 3d
       -0.0078147715 -0.014683963 0.055523288 0.05970428
0003e0 79 46 5b bd da 54 89 3d 23 84 e2 3b be 10 59 bb
       -0.053534005 0.06705637 0.0069127246 -0.0033121551
0003f0 33 5c 92 bd 42 1c 57 bc 05 b3 26 bb f3 83 a5 bd
       -0.07146492 -0.013129296 -0.0025436294 -0.08081808

network.0.bias f4 [128]
000000 b8 1f 37 bd b2 56 dc bc cb 97 21 bd bb fc 69 bd
       -0.044707984 -0.026896808 -0.0394514 -0.05712579
000010 f3 06 44 bd f6 22 19 3d 6c 2d 16 3d 91 9e 73 bd
       -0.04785819 0.037386857 0.03666441 -0.059477393
000020 34 be 6d bd 5d 36 cf 3c 9c d6 47 3d 1b a4 cc bb
       -0.05804272 0.025294477 0.04878865 -0.006245149
000030 b4 71 de bc 7d 58 4a 3d ad 35 56 3d 33 68 8b 3d
       -0.027153827 0.049400795 0.052297283 0.06806984
000040 ca 65 8a 3d c1 b8 82 bd ce 65 7c 3d 78 02 54 bd
       0.06757696 -0.06382895 0.061620526 -0.051760167
000050 2b fb 39 bd 48 c2 97 3d b8 e7 29 3d 44 c9 8c bd
       -0.045405548 0.07410103 0.04148075 -0.06874326
000060 50 47 1f 3d d2 42 6f bd d6 0e f6 3c 3c de 41 3d
       0.03888637 -0.058413334 0.030036371 0.04733108
000070 61 fe 6d 3d b2 3d d4 bc c5 28 77 bc eb f5 29 3d
       0.058103923 -0.025908325 -0.015085404 0.04149429
000080 c1 77 a8 bc 5d 1f 5b bd 93 57 fd 3c be 10 91 3c
       -0.020564916 -0.053496707 0.030925548 0.017708179
000090 a4 15 27 bd 3f 0d 3b 3d bb 08 8e 3c 83 e8 25 bd
       -0.040792122 0.04566693 0.017338147 -0.040504944
0000a0 9f de da 3a b5 1c bd ba db 3d 09 bb 53 d7 e5 bc
       0.0016698426 -0.0014428111 -0.002094141 -0.028056776
0000b0 30 55 08 bd 44 23 01 3d 82 39 98 bc bd 38 9f bb
       -0.033284366 0.031527773 -0.01858211 -0.0048590587
0000c0 cb 2d 8d 3b 2f 70 5e bd b1 a1 44 3d 2f 93 da 3c
       0.0043084375 -0.054306205 0.048005763 0.02668151
0000d0 09 93 81 bd 4f b9 24 3d 23 9c 87 3d 41 af 17 bd
       -0.06326873 0.040215787 0.066215776 -0.03703237
0000e0 93 48 94 ba 0f eb 18 3d 59 ec bb bb e5 89 13 3c
       -0.0011313133 0.037333544 -0.005734962 0.009005045
0000f0 25 b9 4f bd d6 8f 76 bd f0 6a 1d 3c 42 3e 6a bd
       -0.050713677 -0.060195766 0.009608015 -0.05718828
000100 67 a5 f6 3b 32 51 90 3b af 0f af 3c bb 4c 5e 3d
       0.0075270417 0.0044042105 0.021369783 0.054272395
000110 c7 6e 79 bd 33 a2 01 bd ad f0 80 3d 71 fd 0a bd
       -0.06089666 -0.031648826 0.06295905 -0.033933107
000120 80 57 94 3d 61 37 7b 3d 53 f8 ac 3d 30 25 36 3d
       0.07243252 0.06133211 0.084458016 0.04446906
000130 e6 2c 91 3d a1 8b 27 bd 77 3b 40 bd 55 5d 2a bd
       0.07088642 -0.040904645 -0.04693171 -0.041592915
000140 92 84 5a bd 07 c0 b4 bb cd 99 75 3d 31 b7 ea bc
       -0.053349085 -0.0055160555 0.05996113 -0.028651806
000150 73 e6 7f 3d da 50 5b bd a0 ea 2a bd 54 b5 36 bd
       0.062475633 -0.053543903 -0.041727662 -0.04460652
000160 24 5f a2 3d f1 39 41 3d 67 43 31 3d 65 50 36 3d
       0.07928303 0.047174398 0.04327717 0.044510264
000170 3c 01 64 3d ed 83 c0 bc 77 4d 1f 3d 61 80 4c bd
       0.05566524 -0.023500407 0.038892236 -0.04992712
000180 b7 8d 93 bc 33 cb 84 3d 16 90 8c 3d 67 52 55 3a
       -0.01801191 0.0648407 0.0686342 0.0008137584
000190 21 40 8c bc 42 a4 07 bc e5 d7 2e bd 20 6c 51 bd
       -0.017120423 -0.008278908 -0.04268636 -0.051128507
0001a0 b0 4d a2 3d cb 42 b2 3c 8b bd 96 bd a2 ea 27 3d
       0.07924974 0.021760365 -0.07360371 0.040995248
0001b0 6b 3d 58 3d 71 5e 80 bd e2 b4 df 3c 29 7c 0b 3d
       0.052792948 -0.06268013 0.027307931 0.034053955
0001c0 ba e7 ba bb b8 16 12 3c 6c d7 97 bd ee d3 9b bc
       -0.0057038935 0.008916549 -0.07414135 -0.019021954
0001d0 e1 28 de 3a ae 74 87 3d ae de 16 3d eb e9 3d 3d
       0.0016949439 0.06614052 0.036833458 0.04636566
0001e0 cf da 85 3d 53 26 c6 3c 75 b8 59 bd 0c 16 be bc
       0.06535875 0.024188196 -0.053154428 -0.023203872
0001f0 a0 18 86 3d a8 57 76 3d 3d 48 3f bb fc 96 24 3d
       0.065476656 0.06014219 -0.0029187344 0.040183052

network.2.weight f4 [128, 128]
000000 df 13 99 3d c5 d2 16 3c 74 87 9a bd 82 14 90 bd
       0.07474493 0.009205525 -0.07545367 -0.070351616
000010 c0 f2 60 3c 0f 81 10 3d 71 32 ac 3d 34 9a b1 bd
       0.013729751 0.03527933 0.084080584 -0.0867199
000020 13 cb ab 3d ff d2 d4 3c ae db 2b 3d 3b 46 9e 3d
       0.08388343 0.025979517 0.04195755 0.07728239
000030 f1 96 88 3d 43 92 a7 bb 52 53 23 bd 84 21 c9 b9
       0.06669415 -0.0051138713 -0.039874382 -0.0003836268
000040 d5 33 dc bc 5b 50 45 3d 55 14 5e bd 6a a6 23 3d
       -0.026880184 0.048172336 -0.05421861 0.039953627
000050 90 62 8f 3d 93 bd 79 bd d3 7e 90 bd 3d d1 8a bd
       0.07001221 -0.060971808 -0.0705544 -0.0677819
000060 bc d1 48 3d 2d 51 35 bd 66 1f 1f bd c1 e6 9c bc
       0.049028143 -0.04426687 -0.038848303 -0.019153
000070 68 91 80 3d e1 d5 29 bc 1c 5a 96 bd ea ce 9c bd
       0.06277734 -0.010365934 -0.07341406 -0.07656653
000080 a6 8d 14 bd 72 ec ad bd 2d 80 4c bd 3e ac ff bc
       -0.0362679 -0.08492364 -0.049926925 -0.031210061
000090 be 8a 81 bd 20 96 b5 bd ce 3d 26 bc de fc 89 bc
       -0.06325291 -0.08866525 -0.010146571 -0.01684421
0000a0 11 b5 ad 3d ff 16 c4 3c a3 0e 93 3d fa b4 66 bd
       0.08481801 0.023936747 0.07180526 -0.056324936
0000b0 f7 53 f0 bc 1d ce 9f bd 66 72 08 bd 68 45 99 3c
       -0.029336913 -0.07802985 -0.033312224 0.018709853
0000c0 9e b2 89 bd bc 2c 63 3c b0 e6 5c 3c 10 28 3c 3d
       -0.06723522 0.013865646 0.013482735 0.045936644
0000d0 c2 05 28 3d 12 ac 05 3d 17 93 a0 3c 68 14 cb bb
       0.041021116 0.032634802 0.019601388 -0.006197501
0000e0 86 03 9c 3d c5 95 4b 3d d5 25 41 3c da a9 f4 bc
       0.076178595 0.04970338 0.011788805 -0.029866148
0000f0 51 de f9 3c af 54 79 3d 91 41 3b bd 7f 4e ad 3d
       0.030501517 0.060871776 -0.045716826 0.084622376
000100 ec 04 d5 3b 83 15 e3 bc 42 29 6b 3d b5 b5 82 bb
       0.006500831 -0.027720219 0.057412393 -0.0039889463
000110 74 8d 43 bd 05 42 4b 3d b0 ef 5b bd 9e 03 1a bd
       -0.047742322 0.049623508 -0.05369538 -0.037601106
000120 f3 41 8b bd 21 d3 5b 3d cb 5f 8d 3d 4b 70 ad bd
       -0.06799688 0.053668145 0.06903037 -0.08468684
000130 f8 05 39 bd 16 95 6a 3d 55 ef 2e 3d 44 1e 5c 3d
       -0.045171708 0.057271086 0.042708714 0.0537398
000140 2e 68 53 bd 87 c1 66 bd ba a8 86 3d 99 22 bd bb
       -0.051613025 -0.056336906 0.06575151 -0.0057719466
000150 74 df 3e bb 26 4d 61 3d 09 4a 0a bc 1c 5a 4d bd
       -0.0029124888 0.055005215 -0.008440503 -0.050134763
000160 11 f3 a8 3d 05 cb 92 bd 33 d9 1d bd b3 0c 18 bc
       0.08249486 -0.07167629 -0.038537215 -0.0092803715
000170 89 18 1c bd 18 77 a0 3d 0f db 5e bd 1e 14 88 bb
       -0.038109336 0.07835215 -0.05440813 -0.004152789
000180 4f 06 86 bc b9 fe 89 bd 5b 65 71 bc 1e df 9f bd
       -0.01636043 -0.067380376 -0.014733638 -0.07806228
000190 a4 f2 92 bd 34 d0 a0 bc 0f c8 7e bd e9 26 9f bc
       -0.07175186 -0.019630529 -0.06220251 -0.019427733
0001a0 23 3f e2 ba 6d b1 3d bd 7b 29 33 3d aa dd 96 3d
       -0.0017261248 -0.046311785 0.04374073 0.07366498
0001b0 99 f5 a8 3d 7c 72 ae bc cc ee 0c ba ec c8 69 bd
       0.08249969 -0.021294825 -0.00053761597 -0.05707638
0001c0 ed ff f5 bc 6a 07 74 bd 31 88 b7 3c c9 d5 e3 bc
       -0.030029261 -0.059577383 0.022403808 -0.027811902
0001d0 c9 d0 87 3c c7 60 11 bc 52 4e 12 3d a4 18 f5 bc
       0.016579049 -0.008873171 0.035719223 -0.029918976
0001e0 30 1b 9f bd d6 2a 71 bd e6 56 11 b9 b4 02 96 bd
       -0.077688575 -0.058878742 -0.0001386065 -0.07324734
0001f0 28 b1 59 bc a7 db 2f 3d 6b c5 c6 3b 96 d3 9f 3d
       -0.013286866 0.042934086 0.0060660145 0.07804029
000200 6e b8 ba 3d 6d 6b f9 3c f7 b7 2a bd 3b dc 33 bd
       0.091172084 0.030446732 -0.04167935 -0.0439112
000210 7f 06 3b 3d 12 d3 7e bd 11 d6 29 3c a8 a5 6f bd
       0.045660492 -0.06221301 0.010365979 -0.05850759
000220 43 d0 09 bd 47 d3 22 bd 0d a7 52 3d 07 b1 83 3b
       -0.03364588 -0.03975227 0.051428843 0.004018906
000230 36 5d b7 3c 16 d5 8a bc 22 61 39 3c 6f 6d e0 bd
       0.022383314 -0.01694731 0.011314662 -0.10958373
000240 13 d1 ff 3b fb 34 e2 3c e3 e0 9e 3d 34 ce 31 3d
       0.007806906 0.027613154 0.077577375 0.04340954
000250 98 e8 6c bd 6c 1d 38 bd e4 84 a7 bb 12 a0 85 bd
       -0.057839006 -0.044949934 -0.0051122773 -0.065246716
000260 e7 dc 92 3d 03 6d b5 3c c2 8f b1 3d 63 7d b2 bb
       0.0717104 0.022146707 0.08669998 -0.005447076
000270 69 ca 8c bd 83 3a c7 3c 18 f1 8f 3d c2 b6 9b bd
       -0.06874544 0.024319893 0.07028407 -0.07603218
000280 4a ac 16 bd 86 ac 80 bd c4 32 14 bc ac 72 8f 3d
       -0.0367854 -0.06282906 -0.009045307 0.07004294
000290 41 bc 6f bd 40 12 37 3d 40 74 a8 3d 58 0a 83 3d
       -0.058529142 0.04469514 0.08225298 0.06398457
0002a0 f3 34 4d 3d 4a 17 72 3d 0a 3f f9 3c 55 04 1b 3d
       0.050099324 0.05910424 0.030425567 0.03784593
0002b0 2d 09 83 bd 09 cc 1b bd 03 f1 24 3d c8 06 fb 3d
       -0.063982345 -0.03803638 0.04026891 0.12257153
0002c0 77 1d 44 3c a1 d5 ca bd a9 9b 26 bd 8c 86 cd bb
       0.011969916 -0.09904028 -0.040675793 -0.0062721428
0002d0 1e 0a a3 3d b4 4c 72 bd 81 28 4c bc 84 29 98 bd
       0.07960914 -0.05915518 -0.012460829 -0.074297935
0002e0 7a d6 7e 3d 69 be bd bd 47 9d 58 3d a5 46 0e bd
       0.06221626 -0.092648335 0.052884366 -0.03473534
0002f0 12 69 9f bd 08 1d b2 3d 6b 1f 4c 3c 8b 2c 97 3d
       -0.077837124 0.086969435 0.0124586625 0.07381543
000300 d2 fd 4b 3b 89 45 87 3d 9b 99 70 3d 8f 76 a5 3d
       0.003112663 0.0660506 0.05874024 0.08079254
000310 d0 03 81 bc 7a bc 4b 3d c0 b3 88 bb 93 2f 99 3c
       -0.015748888 0.049740292 -0.0041718185 0.018699443
000320 23 7f 01 bd d0 2f a5 bd 65 52 52 3d d9 d3 b2 bc
       -0.031615388 -0.0806576 0.05134811 -0.021829532
000330 48 71 3c 3d 7a e7 81 bd 17 7b 15 3d ef df 84 3c
       0.04600647 -0.06342979 0.03649434 0.016220061
000340 08 2e 19 bd 07 b4 1b bc 61 16 79 bc 99 86 b6 3c
       -0.037397414 -0.009503371 -0.015203089 0.022280978
000350 33 d7 68 3d dc 8d f5 bc b6 03 c1 bc 1d b3 30 bd
       0.056845855 -0.02997487 -0.02356134 -0.043139566
000360 2b 09 05 3a 4c 4f 8a bc 3d 8e 63 bd 33 4c c1 3d
       0.00050749135 -0.016883515 -0.05555557 0.09438362
000370 c8 d5 6d bd 0f 9e 48 bd b5 66 93 3c c2 73 16 3e
       -0.058065206 -0.04897886 0.01799331 0.14692596
000380 cb e7 84 bd 8f d3 07 3d 9f 3b bd 3d 1f 3e d6 3b
       -0.064895235 0.033160742 0.092398874 0.006538167
000390 22 9c 80 bc ab 77 ee 3c 9d e7 0c 3e 05 80 a7 3d
       -0.01569945 0.029109797 0.13760228 0.08178715
0003a0 28 b3 c5 3d 9b 05 b2 bd 71 66 7f bd c9 e0 f0 bc
       0.09653312 -0.086924754 -0.062353555 -0.02940406
0003b0 16 f8 28 bd 92 1b 14 bd 21 b5 86 3d 1a 22 07 3d
       -0.04125222 -0.036159106 0.06577516 0.032991506
0003c0 bb 86 ab bd e6 2f 86 3d d6 d3 ab bd 7b 6d 16 bd
       -0.08375307 0.06552105 -0.08390014 -0.036725502
0003d0 86 28 e4 bc 64 79 01 3d 0a d5 f8 bb 2f b4 7a bd
       -0.027851354 0.031609908 -0.0075937556 -0.061206993
0003e0 4e 0f 44 bd e7 9f d5 bc bb 86 86 bd fc 07 23 bb
       -0.04786616 -0.026077224 -0.065686665 -0.0024876585
0003f0 84 68 62 3c bc 37 74 bd 15 27 88 bb f7 03 8d bd
       0.013818864 -0.059623465 -0.0041550496 -0.06885522

network.2.bias f4 [128]
000000 06 90 8c 3d dc 86 f7 3c f4 33 b5 3a 93 1f 86 3c
       0.06863408 0.030215673 0.0013824687 0.016372478
000010 93 45 de bc 43 6c 93 3d 10 c5 8d bd 6f b1 9b bc
       -0.027132785 0.07198384 -0.06922352 -0.019005505
000020 b4 0a 4b bd 1a 5a af 3d 8b 3c e0 bc 9a 72 98 bd
       -0.049570754 0.085621074 -0.02737262 -0.074437335
000030 49 ec a0 3b d4 bf 95 bd 99 dc a3 bd a4 09 7c bd
       0.00491098 -0.07311979 -0.0800106 -0.06153263
000040 23 3a 07 bd d5 67 24 3d e7 98 6d 3d 1f f7 7b 3d
       -0.033014428 0.040138084 0.058007147 0.06151497
000050 03 3e 42 3d de 6b 48 3d 0a 74 87 3d d9 12 2a bc
       0.04742242 0.048930995 0.066139296 -0.01038047
000060 f2 74 cf bc bb dc 17 3d 76 97 88 3d 6c 86 69 3d
       -0.025324319 0.03707574 0.06669514 0.05701296
000070 0a 89 ad 3d ef a0 90 bd 43 c1 7d 3d 0f cf 9d bc
       0.08473404 -0.07061946 0.061951887 -0.019263772
000080 5a a6 dc bb 1a ff 5c bc b6 00 62 3c 5b ae 8d bd
       -0.006733698 -0.013488555 0.013794115 -0.06918021
000090 a1 b3 fb bb 31 a7 88 3c d3 36 a8 bd 63 80 a6 bd
       -0.0076813255 0.016681286 -0.08213582 -0.081299566
0000a0 5a de a6 3d 66 2e b4 3d d8 28 7e bd 4c 94 8c bd
       0.08147879 0.08797912 -0.06205067 -0.06864223
0000b0 b7 f1 3b bd 12 81 bd 3d 40 d9 dd bc 75 a2 b5 3c
       -0.045884814 0.09253134 -0.027081132 0.022172192
0000c0 43 11 b3 bd f7 a1 85 bd e3 96 8a 3d b5 bd a5 bd
       -0.08743527 -0.06525033 0.067670606 -0.08092824
0000d0 93 47 3a 3d 52 c5 1b 3d ee 3e 8a bd 68 93 15 3d
       0.045478415 0.038029976 -0.06750284 0.03651753
0000e0 88 8f 94 bd c5 cb 3b 3d 1d c2 3c bd 45 a7 b7 bd
       -0.07253939 0.045848627 -0.04608356 -0.08967451
0000f0 f4 b9 4d bd 4b ef 0c 3d 79 c0 8a bd 8a b1 9f 3d
       -0.050226167 0.034407895 -0.067749925 0.07797535
000100 82 49 63 3d 5c 4e ae bd be c4 64 bd 54 e4 78 bc
       0.055490024 -0.085110396 -0.05585169 -0.015191156
000110 76 65 bf 3d 90 76 76 3d ec df 5b bd c9 e9 20 bb
       0.09345524 0.060171664 -0.053680345 -0.002455341
000120 a6 75 1f 3d 43 90 98 3d 21 ba b1 3c 41 54 4e 3c
       0.038930558 0.07449391 0.021695198 0.01259333
000130 8e ca b8 bc 68 3d 13 bd 63 da 10 bd 36 64 c3 3d
       -0.022557523 -0.035947233 -0.03536452 0.09540598
000140 2c 27 f3 bc a1 d7 99 3d c7 5e 97 bd 5c 53 1d bd
       -0.029681765 0.07511831 -0.07391124 -0.038409576
000150 93 af 1e 3d 19 87 ad 3d 10 e3 af bd f2 2e f1 bc
       0.03874166 0.084730335 -0.085882306 -0.02944133
000160 0c 4d b4 bd 0a d2 53 bd 7e 14 d8 3c a0 ef 31 3d
       -0.08803758 -0.05171398 0.026376959 0.043441415
000170 81 d5 52 ba a6 2f f4 3c 84 68 c6 3b 06 f3 ac 3d
       -0.0008042679 0.029807877 0.0060549397 0.084447905
000180 bf 57 9f bd 33 34 d6 bc 1f 0c 67 3d dc a9 89 ba
       -0.07780408 -0.026147937 0.056408044 -0.0010502893
000190 80 6f 43 3d a6 4b f8 3b bb d5 6e bd c3 60 79 bc
       0.047713757 0.0075773774 -0.058309298 -0.015220824
0001a0 d2 5a 24 3c b3 e3 a5 bc a2 f4 ea 3a c4 98 34 3d
       0.010031419 -0.020250177 0.001792569 0.044091
0001b0 46 e6 e4 3c bf 9b 89 3d 51 21 05 bd 97 2c 88 bb
       0.027941834 0.06719159 -0.032502476 -0.004155706
0001c0 c4 6e 5a 3c 83 02 43 3d 94 4e 50 bb 1e cb d4 3a
       0.013332073 0.047609817 -0.0031785117 0.001623485
0001d0 1e 8c 41 3d db 79 d5 bc 1e 98 89 3d 07 72 47 3d
       0.047252767 -0.026059082 0.06718467 0.04869273
0001e0 fc 3c bb 3b 4c e3 98 bd 0e 0e 14 3d 9f 9c 3a bc
       0.005714057 -0.074652284 0.036146216 -0.01138988
0001f0 24 c3 87 bd 26 0f 8f 3d ab 12 3e bd db 2e aa 3d
       -0.06629017 0.06985311 -0.046404522 0.08309718

network.4.weight f4 [5, 128]
000000 bf 16 66 3d 42 50 a6 3d 7c 19 ac bd c6 a7 b6 3c
       0.056174036 0.08120777 -0.08403298 0.022296797
000010 79 e3 47 3d 9d 91 a4 3d 9e f2 99 3d a1 b2 64 3c
       0.04880092 0.08035586 0.07516979 0.013958604
000020 15 8a 1b bd 00 3d 57 bd c1 01 01 bd ac ee 83 3c
       -0.037973482 -0.05254841 -0.031495813 0.016105019
000030 79 d5 3c bd c2 31 44 3b 49 e0 9f bc d5 04 a8 bd
       -0.04610202 0.0029936885 -0.019516127 -0.08204047
000040 ae 44 db bc 2a 3b 6b 3d f2 f9 97 3d 92 97 1e bd
       -0.026766147 0.05742947 0.0742072 -0.038718767
000050 b3 5a 6a 3d 42 c4 c2 bd ec ef 2f 3d b8 91 70 bd
       0.057215404 -0.095100895 0.042953417 -0.05873272
000060 b6 63 81 3d cd 51 44 bd c5 e2 9c bd 2a 6f 8f bd
       0.063178465 -0.047929574 -0.0766044 -0.07003625
000070 25 09 38 bc cf 66 c6 bc 99 01 86 3d d6 57 9f 3d
       -0.011232649 -0.024218945 0.065432735 0.07780425
000080 ae 37 04 bc a3 00 bc bd 89 79 8c 3d 11 28 30 bd
       -0.008069916 -0.09179809 0.068591185 -0.04300696
000090 63 49 86 bd c2 e0 1b 3c 99 5b b6 bd 5e ca 70 3a
       -0.06556966 0.009514036 -0.089041896 0.00091854285
0000a0 18 c7 9f 3d 52 26 6c 3d 0d 18 21 bd 75 06 a0 3d
       0.07801646 0.057653733 -0.039329577 0.078137316
0000b0 eb 6a 18 3d bf a0 d5 39 90 5a 66 3d 9b ba aa bd
       0.03721134 0.0004074629 0.05623871 -0.083363734
0000c0 1d d5 8e 3a c2 fd ef bb a0 03 1d bd 22 fa 86 bd
       0.0010897253 -0.0073239515 -0.038333535 -0.06590678
0000d0 73 ef 10 3d bf f8 5b bd 78 7e 72 3b 9a 67 64 bc
       0.035384607 -0.05370402 0.003700165 -0.013940716
0000e0 bd 6f 89 bd 96 30 80 3a 27 18 a7 3d 58 c4 47 bd
       -0.067107655 0.0009780105 0.081589036 -0.048771232
0000f0 f1 a5 47 bc 8c 43 af bd 3a 41 aa bd ee 4a 0c bd
       -0.01218556 -0.085578054 -0.08313222 -0.034251146
000100 cd c2 30 bd 14 0b 3b bd 7b 9f 4a 3c f3 05 99 3d
       -0.043154527 -0.04566486 0.012367125 0.07471838
000110 0a 50 11 bd a4 a7 4c 3c c4 59 72 3d de 00 a7 bd
       -0.03547672 0.0124911405 0.05916764 -0.08154462
000120 bf 1a 95 bb 55 23 36 bd cd d0 e9 3a f9 2b 09 ba
       -0.0045503075 -0.04446729 0.0017838717 -0.00052326877
000130 a4 61 16 bd 2d ad 48 3d 1b aa 65 bd fa 97 2f 3d
       -0.03671421 0.04899328 -0.05607043 0.042869546
000140 a1 37 7f bd 10 6e 4c 3c 37 68 a6 3a 54 31 98 bb
       -0.06230891 0.012477413 0.0012695853 -0.0046445522
000150 74 03 e5 bb b2 4a c3 bd 86 50 3c bb b5 45 3a 3c
       -0.006988937 -0.095357314 -0.002873452 0.0113691585
000160 3e 74 67 bd ce 1d 82 bc 09 3e 34 bd 6a 08 03 3c
       -0.05650734 -0.015883353 -0.044004474 0.007997612
000170 67 b6 39 3d c1 ca 1f 3d a5 90 4b bd ca 47 98 3b
       0.045339968 0.03901172 -0.04969849 0.00464723
000180 64 b5 83 bd 80 3e 3b 3c d1 39 52 bd a4 bc 90 3d
       -0.06431082 0.011428475 -0.05132467 0.0706723
000190 c1 8e 91 bc ed 36 b1 bb 25 bd 30 bd 1f 1a 5a 3d
       -0.017768266 -0.005408159 -0.043149132 0.053247567
0001a0 11 63 8f bc 15 d8 b5 bb 27 13 cb 3b 4c 73 6d 3d
       -0.017503293 -0.0055494406 0.0061973515 0.057971284
0001b0 40 44 63 bd f8 30 35 bc 41 14 b0 bd 35 a2 72 bd
       -0.05548501 -0.011059038 -0.08597613 -0.059236724
0001c0 6a a4 a7 3c 4f 8b 38 3d 01 53 87 bd f3 79 1b 3c
       0.02046414 0.04505473 -0.066076286 0.009489524
0001d0 b9 04 78 3c 24 f3 8b bd 93 82 ba 3d d6 79 da 3d
       0.015137845 -0.06833485 0.09106936 0.106677696
0001e0 62 4a 34 bd 3e 8f 92 bd 30 09 77 3d f0 9e 5c bd
       -0.04401625 -0.071562275 0.060311496 -0.053862512
0001f0 c4 fd 37 bd ba 91 d4 3c 5f 0a 24 3d 22 e8 91 3d
       -0.044919744 0.025948394 0.040048953 0.07124354
000200 98 9e d7 bc d1 66 56 bd d1 a3 cf 3a 67 f6 3f 3d
       -0.02632074 -0.052344147 0.0015841668 0.046865847
000210 ba 72 df b8 03 21 02 bd 08 69 26 bc 1f ce 6c 3d
       -0.00010654838 -0.031769764 -0.010156877 0.05781376
000220 b6 bd 02 bd 5f c2 9b bd 4d c4 83 3d cc cc 90 3c
       -0.031919204 -0.07605433 0.06433926 0.01767578
000230 d4 c3 57 3c cc 10 0a bd 12 72 6b bc 9f c6 0f 3d
       0.013169248 -0.033707425 -0.014370458 0.03510153
000240 c6 e0 99 3c 98 41 a1 bc fb 43 bf bd c0 71 0a bb
       0.018783938 -0.019684598 -0.09339138 -0.002112493
000250 b1 32 ff bc b4 c7 bd 3d 19 84 ab bd 75 6f 95 3c
       -0.031152101 0.09266606 -0.08374805 0.018241623
000260 5b 1c 49 bd c4 3a aa bd b5 f9 72 3b 75 92 fa 3c
       -0.049099308 -0.0831199 0.0037075107 0.030587414
000270 2b 9b 6c bd 23 98 62 bd c1 f6 b7 bd dc 24 a5 3d
       -0.057765167 -0.05532087 -0.089826114 0.08063671
000280 50 9b cd 3c 25 d9 b1 3d 8d 28 00 3c 49 dc e6 3b
       0.025098473 0.08683995 0.007822168 0.007045303
000290 0d 1c d0 bc ba f8 a1 bd dd 61 83 3d 01 0b 95 bd
       -0.025404 -0.07908769 0.0641515 -0.072774895
0002a0 11 8e ad bd ae 00 5a 3c c4 84 87 bd 1f 3a c2 3b
       -0.08474363 0.013305826 -0.0661712 0.0059273387
0002b0 6e 06 ee bd cd ea 8a bd 61 90 c7 bc a3 2f bb bd
       -0.1162232 -0.06783066 -0.024360837 -0.09139945
0002c0 04 24 38 3d 7b 49 25 bd db de c5 bd ea 69 cf 3c
       0.044956222 -0.04035328 -0.09661647 0.025319058
0002d0 d6 dd 39 3d 7d b6 c6 bd b9 01 0c be af c7 c7 bc
       0.045377575 -0.097027756 -0.13672532 -0.024387209
0002e0 54 c2 11 3c 93 f5 90 bc 92 6c 93 bd 9a 7d fa 3d
       0.008896429 -0.017695224 -0.071984425 0.12230988
0002f0 62 c4 e3 bb 67 47 a3 3d 61 db a6 3d c8 bd 86 bd
       -0.006950901 0.07972603 0.08147312 -0.06579167
000300 20 e3 bd 3c f4 65 14 3d 62 40 a7 bd ac ce c3 3c
       0.02317959 0.036230043 -0.08166577 0.02390226
000310 75 5f 01 be c5 ba 5f bd 08 25 b4 3d b5 1e 98 3d
       -0.1263407 -0.054621477 0.08796126 0.07427732
000320 c2 de 95 3d 01 16 11 3d 90 da 87 bd b9 d4 a3 bc
       0.07317878 0.035421375 -0.06633484 -0.019998895
000330 d4 9a cc 3c 72 f5 47 bd ba fd ac bd e2 52 e1 bd
       0.024976172 -0.04881806 -0.08446832 -0.11002137
000340 7e 1a ab 3d 50 83 c4 3d 82 d5 be bd b9 e6 fe bc
       0.08354662 0.09595358 -0.09318067 -0.031115877
000350 8e 42 2c 3c 91 5e 73 3d 57 6d a3 3c 9d 65 9f bc
       0.010513915 0.059416357 0.019949598 -0.019457633
000360 1a ee 45 bc 24 57 dc 3c 70 51 cc 3d 56 3b 93 bd
       -0.012080694 0.02689702 0.099764705 -0.07189052
000370 82 98 71 3d cf 07 9e bd 29 ba 7c 3d 9c 6d c1 bd
       0.058983333 -0.07716333 0.061700974 -0.094447345
000380 f0 c8 87 3d 5e 20 99 3d 72 71 a1 3d 9c 94 a1 bb
       0.06630123 0.07476877 0.07882966 -0.0049310457
000390 87 23 7c bd 3a 6c 9e bd 85 d5 69 bd b6 55 03 bd
       -0.06155732 -0.07735486 -0.057088394 -0.032064162
0003a0 ce 01 9e bb f0 36 b7 3d c7 7d 87 3d 42 c2 cc bd
       -0.0048219925 0.08946025 0.06615787 -0.09997989
0003b0 05 5a ac 3c 68 c1 a8 bd c0 9c db 3d 5a 60 4e 3d
       0.021039018 -0.08240014 0.10723257 0.050384857
0003c0 e6 b6 81 3c c3 2e 32 3d b5 d3 a3 3d b1 17 ad bd
       0.015834283 0.043501627 0.07999364 -0.084517844
0003d0 e3 c0 d2 3d 7d 30 28 bc 80 58 02 3d 36 59 04 3d
       0.102906965 -0.010265467 0.03182268 0.03231164
0003e0 02 8e 0c 3d 8c 01 ba 3d 57 3a a7 bd a5 c9 93 3d
       0.034315117 0.09082326 -0.08165424 0.07216195
0003f0 42 c4 9a bc b7 05 26 3d c4 2d 9e 3b 9b 6e 69 bd
       -0.018892411 0.040532794 0.004827233 -0.056990247

network.4.bias f4 [5]
000000 27 f5 07 3d df ce 7f 3d 2c 19 a2 bd 34 57 34 bb
       0.03319278 0.062453147 -0.079149574 -0.0027517797
000010 ed a7 d6 3c
       0.02620312
