IA2CC/model/rewardweight/config2/actor_0.pth (torch, 161096 bytes, 6 tensors)

network.0.weight f4 [128, 175]
0.06872243 -0.05527596 0.07100919 0.016701482 -0.06575099 0.0015723347 0.033170596 0.003580096
0.058698315 0.07617107 -0.05830586 0.0046299384 -0.08044825 0.07028462 0.00783935 -0.046965342
0.017651185 -0.03250075 0.049780488 0.041873083 -0.09750779 -0.015225624 -0.015295475 0.025435168
-0.07118107 0.03862342 -0.046284765 0.017990464 -0.0015550535 0.050247483 -0.05859749 0.064031556
-0.027147952 0.08772105 0.0068345284 0.011771098 0.05431708 0.084516324 -0.030915411 0.0029199522
-0.013454456 -0.043915816 0.034091767 -0.04464121 0.012073374 0.04399946 -0.04162699 0.017315922
-0.058389463 -0.015082389 -0.101716585 0.07316217 -0.0018399218 0.057683863 -0.030074231 0.0035380572
0.00081858865 -0.05095573 -0.008690937 0.0894549 -0.035478413 -0.020394625 -0.039735418 0.026536789
0.0048648505 0.0618695 -0.067624524 0.07374921 0.013875253 0.007407589 0.07595501 0.0017318056
0.06087485 0.08220586 0.03127443 -0.00040176025 -0.0378633 0.029484095 -0.013490075 0.066527225
0.07996539 -0.0008654092 -0.02979073 0.056811664 0.028002586 0.05924139 -0.09044247 -0.046987373
0.029539334 0.012338776 0.037064 -0.049670752 -0.020469582 -0.012066793 -0.051324118 0.08921902
-0.094739206 0.054784905 0.0016327462 -0.015921347 -0.028923873 0.0095845815 -0.028728863 0.04182901
-0.06487262 0.00012356344 0.0027157704 0.023086814 0.070009485 -0.03593834 0.06847766 0.072859526
0.0055875834 -0.051922288 0.08480501 0.06860072 -0.05408999 0.05266151 -0.037577882 0.061573975
-0.03838312 0.079478346 -0.045358744 0.012219894 -0.012528731 0.0034737603 0.04755922 0.019204322
0.071714155 0.0006120015 0.003977296 -0.039811186 0.0017026932 -0.047524408 0.07034444 -0.009297285
-0.051587034 0.059487693 -0.072065696 0.08390166 -0.064966135 0.06885969 0.025313746 0.048080392
-0.052654024 0.021195764 0.040944297 0.081328586 -0.052237596 0.038231634 -0.016842749 0.046330236
-0.003914218 -0.0026830498 -0.071616076 0.07961564 0.04921119 0.009509624 -0.10157743 0.021921827
-0.033937052 -0.00083601347 0.01229023 0.029297376 -0.07816048 0.04058513 0.003241042 0.030091899
0.019773513 0.01714741 0.054129764 -0.017131088 -0.042138927 -0.035443146 -0.0010974687 0.017214546
0.033544984 -0.026132211 0.019767178 0.013442675 0.020164432 -0.034243897 0.018628052 0.027577471
-0.003465297 0.06640153 0.048492488 0.0007917374 -0.09080182 0.04300953 0.017760273 0.111504845
0.03988357 0.04449886 -0.03029916 0.12031924 0.019788645 0.080192484 -0.100245014 0.097610354
0.020824116 0.007600536 0.06368059 -0.06454436 0.037240397 -0.00047469253 0.033515416 -0.047744796
-0.0082270475 0.046046495 0.008823087 0.062222905 -0.0046791253 -0.029720953 -0.027842775 0.059206653
-0.07763956 0.06573136 0.0968615 0.015472745 0.064281404 -0.02587188 -0.0113788955 0.03539967
0.039075095 0.06720581 -0.06477317 -0.007849153 -0.07082067 -0.031412896 -0.0026445913 0.02272183
0.06396902 0.09830819 0.038349744 0.020559799 0.0029892698 -0.045034952 0.0992009 -0.11302802
0.09161686 -0.006175509 -0.045294672 -0.061962355 -0.028609674 -0.09030834 0.008123017 -0.007386077
-0.032296944 0.028181126 -0.04860659 -0.060621753 -0.0513858 0.06702018 -0.018127814 -0.12707405
00000000: 58be 8c3d 0c69 62bd 446d 913d 8cd1 883c
00000010: 74a8 86bd cc16 ce3a e4dd 073d 0ba0 6a3b
00000020: a56d 703d 94ff 9b3d 20d2 6ebd bdb6 973b
00000030: 0dc2 a4bd 62f1 8f3d 9e70 003c bb5e 40bd
00000040: 3899 903c 821f 05bd a0e6 4b3d 1c83 2b3d
00000050: 2ab2 c7bd e574 79bc df99 7abc 6a5d d03c
00000060: 61c7 91bd 9733 1e3d 1895 3dbd bd60 933c
00000070: f0d2 cbba 4ed0 4d3d ec03 70bd fa22 833d
00000080: 6265 debc 18a7 b33d 2ef4 df3b 90db 403c
00000090: 967b 5e3d e516 ad3d 5142 fdbc ab5c 3f3b
000000a0: 1470 5cbc 12e1 33bd cfa3 0b3d b4d9 36bd
000000b0: 67cf 453c c738 343d 1081 2abd 1fda 8d3c
000000c0: ca29 6fbd 201c 77bc c950 d0bd 0cd6 953d
000000d0: 8829 f1ba ea45 6c3d 3c5e f6bc c0de 673b
000000e0: 8e96 563a f5b6 50bd 6f64 0ebc 2134 b73d
000000f0: d051 11bd a112 a7bc 9bc1 22bd ae63 d93c
00000100: 5369 9f3b df6a 7d3d ba7e 8abd d309 973d
00000110: 0755 633c 5cbb f23b 4d8e 9b3d c1fd e23a
00000120: e857 793d 8c5b a83d 9e19 003d 59a3 d2b9
00000130: 8c16 1bbd a188 f13c 7a05 5dbc 6d3f 883d
00000140: e5c4 a33d a1dc 62ba b00b f4bc 59b3 683d
00000150: ae65 e53c 1aa7 723d e739 b9bd d575 40bd
00000160: 79fc f13c 9428 4a3c 6cd0 173d 8f73 4bbd
00000170: d3af a7bc ccb3 45bc 3d39 52bd 76b8 b63d
00000180: a106 c2bd 2366 603d df01 d63a 7c6d 82bc
00000190: c2f1 ecbc a608 1d3c cb58 ebbc e554 2b3d
000001a0: f0db 84bd cf90 0139 11fb 313b 8f20 bd3c
000001b0: 2261 8f3d 1534 13bd 043e 8c3d 6037 953d
000001c0: 0c18 b73b 77ac 54bd 40ae ad3d 897e 8c3d
000001d0: 778d 5dbd 98b3 573d 44eb 19bd fe34 7c3d
000001e0: 9e37 1dbd 8bc5 a23d 17ca 39bd f335 483c
000001f0: 4e45 4dbc 07a8 633b 75cd 423d 6252 9d3c
00000200: dfde 923d ba6e 203a fa53 823b 0e11 23bd
00000210: e72c df3a f4a8 42bd bf10 903d a453 18bc
00000220: ed4c 53bd 5ea9 733d 2e97 93bd a2d4 ab3d
00000230: f70c 85bd 4f06 8d3d c65e cf3c f2ef 443d
00000240: bfab 57bd bda2 ad3c 35b5 273d 9a8f a63d
00000250: 17f7 55bd c698 1c3d cef9 89bc c6c4 3d3d
00000260: d742 80bb 1bd6 2fbb 73ab 92bd 860d a33d
00000270: ac91 493d 41ce 1b3c d407 d0bd 6795 b33c
00000280: 9401 0bbd ea27 5bba f65c 493c 0d01 f03c
00000290: 9a12 a0bd 983c 263d a967 543b 4983 f63c
000002a0: 10fc a13c ba78 8c3c 2cb7 5d3d 7f56 8cbc
000002b0: de99 2cbd d52c 11bd f0d8 8fba 8505 8d3c
000002c0: 7766 093d 3813 d6bc c7ee a13c aa3e 5c3c
000002d0: e12f a53c 5443 0cbd db99 983c 26ea e13c
000002e0: 091a 63bb 86fd 873d 0fa0 463d 998c 4f3a
000002f0: 4ef6 b9bd c32a 303d fe7d 913c a75c e43d
00000300: f45c 233d 7044 363d f235 f8bc ef69 f63d
00000310: cc1b a23c f53b a43d 424d cdbd f0e7 c73d
00000320: 5697 aa3c eb0d f93b f86a 823d d52f 84bd
00000330: 6389 183d 27e0 f8b9 7647 093d 0c90 43bd
00000340: bdca 06bc 409b 3c3d b68e 103c 72dd 7e3d
00000350: 5953 99bb 5b79 f3bc 8816 e4bc ad82 723d
00000360: 7d01 9fbd 2a9e 863d 525f c63d 6581 7d3c
00000370: f8a5 833d 44f1 d3bc 8c6e 3abc 3fff 103d
00000380: 350d 203d 33a3 893d cca7 84bd bc99 00bc
00000390: 6d0a 91bd cfaa 00bd e150 2dbb 2223 ba3c
000003a0: 3102 833d ce55 c93d 9f14 1d3d 066d a83c
000003b0: a0e7 433b 9276 38bd d729 cb3d 3c7b e7bd
000003c0: 9fa1 bb3d ed5b cabb e886 39bd 3dcc 7dbd
000003d0: d65e eabc 94f3 b8bd 6716 053c e806 f2bb
000003e0: cd49 04bd 1bdc e63c b417 47bd 844e 78bd
000003f0: eb79 52bd e041 893d c880 94bc b31f 02be

network.0.bias f4 [128]
-0.03568225 0.07497204 -0.041090943 0.054470453 0.022649461 -0.007644149 -0.03855966 -0.0031151515
-0.028299794 -0.03469327 -0.046129454 -0.06136627 0.059352327 0.038629368 0.0493838 0.054896984
-0.06271567 0.011709758 0.044788495 -0.014881003 -0.058608778 -0.019128239 -0.04956169 -0.085242085
0.020512065 0.07970252 0.012739155 -0.06747626 0.067172 0.047128685 0.07142056 -0.0488012
0.03817929 0.027595624 0.05655333 0.033520266 -0.008906441 0.03725569 0.011560651 0.010264184
-0.063208275 0.046862938 -0.037775066 -0.020320099 -0.05089956 -0.0069418373 0.016154328 -0.0026470101
0.06309918 0.03858458 0.02515285 0.062121928 -0.030159757 0.003933205 -0.02649563 -0.040318966
-0.07309915 0.054876596 -0.05697197 -0.046349425 0.040933896 0.032639064 0.017557885 0.013568451
0.062177457 0.039902613 0.08053689 -0.05107609 0.01209421 0.021862322 -0.004960503 -0.047330104
-0.007669333 0.04071044 -0.03903409 -0.05140352 0.021214599 0.007835299 0.011445478 -0.07461253
-0.03501294 0.012426949 -0.060034662 0.0125200115 0.07199833 0.039026864 0.063198365 -0.042873062
0.05451079 0.08157289 -0.02946861 -0.01284342 -0.03971001 0.020939674 -0.022351494 -0.0633206
0.04786797 0.011120211 0.041257296 -0.032186996 0.048511323 0.074302725 0.03419408 -0.03910238
0.026717577 0.0074218283 -0.009353644 -0.007876953 -0.034063064 -0.030559685 -0.033447463 0.07540727
0.061485685 0.0017850844 -0.009145315 0.014806973 0.04648651 -0.052804388 0.07776109 -0.009516811
0.04350594 0.043354034 -0.0030510658 0.0077112336 -0.036104027 0.042034045 0.07778576 -0.050026324
00000000: 8d27 12bd f18a 993d fa4e 28bd 691c 5f3d
00000010: 5d8b b93c c57b fabb bcf0 1dbd 9227 4cbb
00000020: f8d4 e7bc 881a 0ebd 3df2 3cbd 335b 7bbd
00000030: 6d1b 733d d439 1e3d ab46 4a3d a9db 603d
00000040: 1371 80bd 49da 3f3c 2474 373d 73cf 73bc
00000050: c20f 70bd d3b2 9cbc 3301 4bbd 6793 aebd
00000060: eb08 a83c 133b a33d e4b7 503c fe30 8abd
00000070: 7991 893d 020a 413d f144 923d c4e3 47bd
00000080: e361 1c3d 3810 e23c 77a4 673d 8c4c 093d
00000090: 52ec 11bc 6c99 183d e268 3d3c 1c2b 283c
000000a0: 5773 81bd 5af3 3f3d 07ba 1abd 5676 a6bc
000000b0: 0f7c 50bd 5a78 e3bb 1556 843c 7679 2dbb
000000c0: 253a 813d dd0a 1e3d 5a0d ce3c 9073 7e3d
000000d0: 9811 f7bc 1de2 803b 5d0d d9bc 8025 25bd
000000e0: 02b5 95bd 48c6 603d 715b 69bd e5d8 3dbd
000000f0: 4daa 273d 8ab0 053d 8ed5 8f3c 354e 5e3c
00000100: caad 7e3d ec70 233d 86f0 a43d 2a35 51bd
00000110: cb26 463c 9d18 b33c b78b a2bb 36dd 41bd
00000120: 074f fbbb febf 263d 36e2 1fbd 7f8c 52bd
00000130: 3dca ad3c a05f 003c d085 3b3c 74ce 98bd
00000140: bb69 0fbd 679a 4b3c e8e6 75bd bc20 4d3c
00000150: dc73 933d a2da 1f3d 256e 813d aa9b 2fbd
00000160: b546 5f3d b00f a73d 2868 f1bc 356d 52bc
00000170: f7a6 22bd ae89 ab3c 7b1a b7bc 3bae 81bd
00000180: 3411 443d 8c31 363c 69fd 283d 83d6 03bd
00000190: cfb3 463d 072c 983d 170f 0c3d d129 20bd
000001a0: d2de da3c cf32 f33b 0740 19bc 560e 01bc
000001b0: b685 0bbd 4e58 fabc 3500 09bd 206f 9a3d
000001c0: 6ad8 7b3d 7ef9 e93a 3bd6 15bc f298 723c
000001d0: a468 3e3d 6a49 58bd 3541 9f3d 66ec 1bbc
000001e0: 4933 323d 0094 313d 64f4 47bb 84ae fc3b
000001f0: d1e1 13bd e42b 2c3d 244e 9f3d 67e8 4cbd

network.2.weight f4 [128, 128]
0.034091994 -0.06593617 -0.025452778 0.0473903 -0.062152218 0.032966368 -0.013228753 0.0631274
-0.07356277 0.056231506 -0.083261654 0.008864416 0.095143 0.025962256 -0.05698732 -0.016176939
0.080983095 -0.09379225 -0.032467633 -0.035035264 -0.023388337 -0.011620492 -0.04421931 0.06445384
-0.10933891 0.043675166 -0.10219821 -0.00060479133 0.057570957 -0.10735604 0.06813161 -0.022614978
-0.07287475 -0.042441923 -0.03423075 -0.06005965 -0.0032125579 0.083734594 0.076228134 0.0776419
0.040752925 -0.055583246 0.040557604 0.033957895 0.019022506 0.03165377 0.080484375 -0.09465893
-0.029004369 -0.0018456785 0.08399706 -0.14127292 0.023066755 -0.09370825 0.04606018 -0.03804485
0.04138719 0.02609978 -0.12029144 -0.05554392 -0.07251733 0.097246185 -0.070008576 -0.00069349096
0.059067085 -0.028547723 -0.027562615 -0.016981399 -0.028099878 0.03720701 -0.042636313 0.03153838
0.04707537 -0.100839265 0.023123126 0.06605828 0.0069898334 -0.034379818 0.07346394 -0.08689438
0.08642444 0.05700114 0.07856671 0.010617119 0.02823049 -0.02916919 0.00046721904 0.02288299
-0.016746482 -0.033077743 0.08277758 0.036600262 0.0680248 0.021582825 -0.01891054 0.05607354
-0.083616875 -0.073306225 0.029270466 -0.026661232 0.033593956 0.005609221 0.053405795 -0.033939164
0.044326626 -0.055129785 -0.044261176 0.0069248015 0.05520863 -0.008515604 0.043596555 0.031043146
0.043332405 -0.10070504 -0.025880722 -0.028781025 0.048807133 0.06867026 -0.066540726 0.0007452177
-0.034870062 -0.013826063 -0.07179491 -0.06329335 -0.031326864 0.053351805 -0.022349846 -0.04754103
0.026926944 0.0151146725 0.0073911524 0.0670447 -0.019128885 0.053231847 -0.10310405 0.016824253
0.028012617 -0.0767168 0.05272546 -0.0313045 -0.0012977241 0.121790424 0.03247849 -0.051967114
0.019412894 -0.03455365 0.095200844 -0.03586558 -0.026922846 0.03895621 0.054577008 -0.01967816
0.06872364 0.053705167 -0.033116546 -0.08135613 0.047780473 -0.03648489 0.06308555 -0.085239254
0.09640211 0.050188314 -0.07171547 0.018096128 0.026582625 0.0014888649 -0.06379155 -0.07762858
-0.040042393 0.04421574 0.0723379 -0.090519026 -0.012669097 -0.007896603 0.034970604 0.0098334225
-0.06459984 -0.06890881 -0.011787259 -0.028216891 -0.012515507 -0.07164997 -0.055154517 -0.075592816
-0.028453322 -0.03550307 0.060167268 -0.025009075 0.08782952 -0.1043505 0.04913804 0.009631725
-0.039262127 0.05816589 0.072984755 0.008931883 -0.11268518 -0.009490309 0.044410832 -0.03323843
0.06342801 0.057053436 0.029714515 -0.04342342 -0.055780772 -0.0013994522 0.04400405 0.011438814
-0.010043938 -0.06280635 -0.090884544 -0.06303893 0.03097503 -0.016966669 -0.03473983 -0.06647367
-0.052093502 -0.06320038 -0.035677414 0.07807383 0.048232358 0.05622086 0.012174366 0.07620174
0.055792782 0.020535957 -0.07567422 0.019422203 0.04195224 0.06926144 0.1034933 -0.045262594
-0.02566461 0.07146797 0.040950086 0.02080995 -0.010062404 -0.07196529 0.07914467 -0.06280975
-0.029723713 0.046744816 -0.06960209 -0.071622476 0.051010277 0.067649975 -0.05429474 -6.213011e-06
-0.085053235 -0.026532145 0.031330492 0.014361469 0.06281884 0.050248593 0.07705697 -0.024924157
00000000: 0ca4 0b3d 8b09 87bd 5882 d0bc 551c 423d
00000010: 5393 7ebd be07 073d 69bd 58bc f048 813d
00000020: 14a8 96bd 0253 663d 1685 aabd 0e3c 113c
00000030: 55da c23d ccae d43c 896b 69bd 8085 84bc
00000040: 77da a53d 2716 c0bd c8fc 04bd 2381 0fbd
00000050: e698 bfbc e063 3ebc 4f1f 35bd 6000 843d
00000060: 14ed dfbd bbe4 323d 4c4d d1bd dc8a 1eba
00000070: 86cf 6b3d 7cdd dbbd 9688 8b3d 0c43 b9bc
00000080: 5b3f 95bd 95d7 2dbd 8b35 0cbd 1c01 76bd
00000090: c789 52bb 0b7d ab3d 7f1d 9c3d b702 9f3d
000000a0: 8aec 263d 42ab 63bd bb1f 263d 6f17 0b3d
000000b0: 16d5 9b3c 62a7 013d fed4 a43d 8bdc c1bd
000000c0: 929a edbc b2ea f1ba a706 ac3d d9a9 10be
000000d0: 7ef6 bc3c 1cea bfbd 99a9 3c3d ebd4 1bbd
000000e0: 9d85 293d 35cf d53c 5c5b f6bd 0582 63bd
000000f0: f783 94bd 0229 c73d a860 8fbd 64cb 35ba
00000100: 54f0 713d eadc e9bc feca e1bc 931c 8bbc
00000110: b731 e6bc 6166 183d 6aa3 2ebd 632e 013d
00000120: 1ad2 403d d184 cebd b66c bd3c 9049 873d
00000130: f90a e53b dad1 0cbd 4374 963d aef5 b1bd
00000140: 4cff b03d 077a 693d 95e7 a03d 6df3 2d3c
00000150: a143 e73c 3af4 eebc 14f5 f439 1c75 bb3c
00000160: eb2f 89bc 877c 07bd 4b87 a93d 28ea 153d
00000170: 9650 8b3d 77ce b03c 47ea 9abc 5ead 653d
00000180: 533f abbd 9321 96bd 9ec8 ef3c a868 dabc
00000190: d199 093d 8ecd b73b 09c0 5a3d cb03 0bbd
000001a0: d68f 353d c5cf 61bd 354b 35bd 72e9 e23b
000001b0: 7222 623d 0885 0bbc 4d92 323d 324e fe3c
000001c0: 527d 313d 723e cebd cf03 d4bc 2fc6 ebbc
000001d0: fde9 473d fea2 8c3d 8146 88bd b75a 433a
000001e0: e9d3 0ebd b686 62bc 3609 93bd f29f 81bd
000001f0: 9950 00bd 6c87 5a3d 0617 b7bc 62ba 42bd
00000200: e595 dc3c 88a3 773c 7b31 f23b bb4e 893d
00000210: 2eb4 9cbc a309 5a3d 3728 d3bd 04d3 893c
00000220: b77a e53c b31d 9dbd a7f6 573d 2639 00bd
00000230: 6518 aaba 426d f93d 2a08 053d 78db 54bd
00000240: ca07 9f3c 2188 0dbd a9f8 c23d c9e7 12bd
00000250: 4d8d dcbc 8c90 1f3d 248c 5f3d 1834 a1bc
00000260: fbbe 8c3d f3f9 5b3d 37a5 07bd 0b9e a6bd
00000270: 75b5 433d 2e71 15bd ff32 813d eb91 aebd
00000280: 786e c53d 4392 4d3d 8fdf 92bd 553e 943c
00000290: cec3 d93c 0426 c33a 25a5 82bd bcfb 9ebd
000002a0: 7e03 24bd 901b 353d e525 943d 0a62 b9bd
000002b0: 0b92 4fbc c160 01bc 563d 0f3d 5d1c 213c
000002c0: ec4c 84bd 1020 8dbd 591f 41bc 1c27 e7bc
000002d0: d70d 4dbc 38bd 92bd b4e9 61bd 68d0 9abd
000002e0: f116 e9bc ab6b 11bd f471 763d d5df ccbc
000002f0: f7df b33d b7b5 d5bd f844 493d 62ce 1d3c
00000300: 53d1 20bd 5b3f 6e3d 0879 953d 0857 123c
00000310: 7dc7 e6bd 3e7d 1bbc 22e8 353d 0525 08bd
00000320: 8be6 813d ddb0 693d db6b f33c c2dc 31bd
00000330: 617a 64bd d36d b7ba 973d 343d dd69 3b3c
00000340: 548f 24bc 9ea0 80bd ad21 babd 8e1a 81bd
00000350: 59bf fd3c affd 8abc 5a4b 0ebd 5923 88bd
00000360: ff5f 55bd 336f 81bd 7b22 12bd 2ce5 9f3d
00000370: 4b8f 453d d847 663d fe76 473c a80f 9c3d
00000380: f986 643d 063b a83c 16fb 9abd 501b 9f3c
00000390: 1dd6 2b3d f1d8 8d3d 4cf4 d33d 4565 39bd
000003a0: 973e d2bc cd5d 923d 47bb 273d a179 aa3c
000003b0: c8dc 24bc 8a62 93bd 9a16 a23d 66a2 80bd
000003c0: 257f f3bc 7e77 3f3d 8a8b 8ebd ceae 92bd
000003d0: 27f0 503d 128c 8a3d 2964 5ebd 5c79 d0b6
000003e0: 6430 aebd f159 d9bc 6754 003d 5e4c 6b3c
000003f0: 2aa7 803d 78d1 4d3d 0bd0 9d3d bf2d ccbc

network.2.bias f4 [128]
0.0126990685 0.015334195 -0.023818823 -0.0020001207 0.06033481 -0.06429538 0.06330663 -0.058498975
-0.08332681 -0.011396558 0.04855882 -0.00020498148 0.034822747 0.028110404 -0.06059763 0.004104345
-0.042375043 -0.07003648 -0.06782223 0.052165866 -0.059000064 0.03342439 -0.033766024 0.011428701
-0.033657104 -0.0705252 -0.04306681 0.014980484 0.033872526 -0.03749373 0.030394854 0.04580304
0.049115747 0.010911295 -0.04070056 0.003687477 0.05260824 -0.061843082 -0.07495064 -0.022143876
-0.009018729 0.015930573 -0.015895156 0.032584243 0.07162477 0.019899216 -0.038762663 0.07585731
-0.057884283 0.051423572 -0.07109098 -0.016931007 -0.016815232 -0.06446835 0.050936244 0.07564731
-0.071887806 -0.07848017 0.06047654 -0.026789848 0.06792418 -0.074351534 0.021699239 0.065699354
0.0054403506 0.04843754 -0.09335115 0.08039019 0.07990042 -0.06917621 0.048237182 -0.018356057
-0.047156226 -0.059868198 -0.010831477 -0.04447906 0.025539966 0.04608476 0.022133095 0.02378666
0.08057572 0.05083033 -0.058732793 -0.07924081 -0.009762122 -0.075845696 0.06734022 -0.07433374
-0.022087665 0.07858355 -0.025895583 0.07579003 0.024139384 -0.041946504 0.079482175 0.026551425
0.07844229 0.0142347235 0.010639769 -0.060439486 0.006547953 -0.073496535 -0.04109775 -0.08440311
0.067596264 0.035140485 0.023239298 0.030172545 0.034234926 0.044734176 0.020939069 -0.028898438
0.0042269975 -0.013450604 0.028810287 -0.01477734 0.034452885 0.09319226 0.07171978 0.055231832
0.062793046 0.055862453 -0.037532132 0.049739808 -0.045216203 0.025926456 -0.007108448 0.048053265
00000000: c10f 503c 473c 7b3c b11f c3bc 7514 03bb
00000010: a221 773d 4cad 83bd e8a6 813d 9f9c 6fbd
00000020: 3fa7 aabd a1b8 3abc 9de5 463d 4cf0 56b9
00000030: 4ca2 0e3d ca47 e63c 3835 78bd be7d 863b
00000040: 7491 2dbd 496f 8fbd 62e6 8abd e0ab 553d
00000050: 0daa 71bd 03e8 083d 3e4e 0abd 723f 3b3c
00000060: 08dc 09bd 846f 90bd d366 30bd b470 753c
00000070: ebbd 0a3d 0793 19bd a1fe f83c f89b 3b3d
00000080: 982d 493d 4ac5 323c a1b5 26bd 99a9 713b
00000090: bd7b 573d 2c4f 7dbd b97f 99bd 1367 b5bc
000000a0: 4bc3 13bc d580 823c 8f36 82bc 0e77 053d
000000b0: 02b0 923d ae03 a33c 99c5 1ebd 145b 9b3d
000000c0: 1218 6dbd 86a1 523d 2698 91bd e5b2 8abc
000000d0: 19c0 89bc fb07 84bd 86a2 503d faec 9a3d
000000e0: ea39 93bd 36ba a0bd 40b6 773d 6276 dbbc
000000f0: d51b 8b3d 9e45 98bd 9ac2 b13c 628d 863d
00000100: f844 b23b 7166 463d e32e bfbd 9da3 a43d
00000110: d5a2 a33d 42ac 8dbd 5a94 453d 715f 96bc
00000120: e326 41bd 5b38 75bd 8276 31bc ad2f 36bd
00000130: 3139 d13c 60c3 3c3d 7750 b53c 3edc c23c
00000140: e204 a53d 7733 503d cc91 70bd 0149 a2bd
00000150: 4ff1 1fbc fd54 9bbd abe9 893d 4a3c 98bd
00000160: 31f1 b4bc 6af0 a03d f922 d4bc ce37 9b3d
00000170: f5bf c53c 19d0 2bbd 8dc7 a23d 6082 d93c
00000180: 5aa6 a03d c238 693c 6d52 2e3c 658f 77bd
00000190: 3690 d63b 5a85 96bd 1d56 28bd 8adb acbd
000001a0: e96f 8a3d 78ef 0f3d 5760 be3c 6a2c f73c
000001b0: ec39 0c3d 2f3b 373d 6988 ab3c 6bbc ecbc
000001c0: a082 8a3b ec5f 5cbc 8d03 ec3c a81c 72bc
000001d0: 781e 0d3d 95db be3d d2e1 923d c63a 623d
000001e0: a499 803d 07d0 643d 4bbb 19bd f8bb 4b3d
000001f0: a034 39bd b863 d43c fced e8bb 80d3 443d

network.4.weight f4 [5, 128]
0.09715637 -0.1434466 0.048571873 -0.08323113 -0.07040614 -0.04280211 0.015088614 0.060528785
0.083652385 0.057352666 0.003912219 -0.10024809 0.03529937 0.03908904 0.07789348 -0.081477374
0.0343587 -0.062757775 0.047167663 0.08305454 -0.07432998 0.044778254 0.0052400287 -0.07904932
-0.0577124 0.031297117 -0.043884095 -0.031232262 -0.04560144 -0.0382581 -0.054269783 -0.05015769
0.0787504 -0.0055097206 0.09439109 -0.05368019 -0.01645825 0.0675506 -0.042261098 -0.09806422
-0.13028315 0.024104904 -0.025608428 0.07797005 0.026202278 -0.030589856 -0.010216654 0.04145684
-0.08800056 0.029952914 0.026384665 0.03619064 -0.03835779 -0.04209825 0.023901002 -0.046286765
0.02477749 -0.06662928 -0.021806639 0.017166225 -0.06883307 0.09917881 0.004972548 0.06736094
-0.08185043 -0.031650025 -0.021030504 0.09200518 0.024447164 -0.08546983 -0.1266072 0.010191915
0.05387713 -0.013353785 -0.042294417 -0.10320876 0.032264467 0.023780514 0.038699884 0.06925459
0.091686785 -0.0848331 0.08097414 -0.0017755162 0.016633714 -0.101771206 -0.0035148596 -0.034582783
0.0074120723 -0.021056084 -0.06336668 0.02657523 -0.12612757 0.022240797 -0.045440413 0.03632806
-0.09710805 0.08086209 0.005293312 -0.0036451546 -0.11056436 0.08669835 -0.09428826 -0.05807129
0.03513512 0.015811246 0.011993233 0.057107925 -0.03528351 0.05838512 -0.056188766 -0.023315221
0.011489901 -0.09425842 0.037820563 -0.0384691 -0.039462015 0.052982796 0.03414054 -0.083227225
-0.04184372 0.08054368 -0.10959428 -0.024450235 -0.049636565 0.08152505 -0.005699428 0.0046438808
-0.09631555 0.122801624 0.047774613 -0.041271016 -0.039980963 -0.07466246 0.09246948 -0.010862145
0.0069305226 0.0914877 -0.094213314 0.06455253 -0.011744574 -0.006810039 -0.07368465 0.020422392
-0.023844937 -0.04017641 -0.08206018 -0.026425514 0.021905905 -0.07132837 -0.0057529896 0.107528225
-0.024729792 -0.05362627 0.09729187 -0.05902828 -0.008781923 -0.07990252 0.091417015 -0.061294388
-0.026225764 -0.03944625 -0.015821896 0.08013854 -0.09901253 0.032618478 0.11251418 -0.10798457
0.10253514 -0.066276275 0.07381893 -0.048121907 -0.072386116 0.13273402 0.07929916 0.102138296
-0.07086973 0.055558376 -0.06061625 0.094917715 0.088915184 -0.018557217 -0.038093954 0.09955155
0.10499232 0.027068729 -0.08199553 -0.024227183 0.03374303 0.07556232 -0.061686616 0.07943372
0.030615719 0.07038337 0.03853917 0.05066849 0.07132456 0.07961463 0.10160315 0.09792646
0.031479795 -0.034997802 -0.010924587 0.05195961 0.0130428765 -0.030999266 0.026592739 0.05009594
0.0088689905 0.077295065 0.053587165 -0.08411686 -0.025139978 0.09177572 -0.026480628 0.08857757
0.12925409 -0.07453395 -0.0006740553 -0.037016697 0.059715983 0.09074449 0.030115202 0.004475384
0.0072650085 -0.0024833425 0.122436345 -0.012404063 -0.021113971 0.08488149 0.05303964 -0.035069022
0.080767676 0.040557366 0.06527905 0.0067618135 0.021380844 -0.058981605 -0.047193915 -0.09374619
-0.10284511 0.09981821 -0.004286371 -0.075459085 -0.024051974 -0.076921254 -0.08181891 -0.0432899
-0.08875428 -0.019751653 -0.010952567 0.118414156 0.077249885 -0.026344327 -0.06492081 -0.059367366
00000000: ebf9 c63d aae3 12be 4df3 463d 1575 aabd
00000010: 1831 90bd 4451 2fbd 3c36 773c 08ed 773d
00000020: f151 ab3d a1ea 6a3d 1232 803b df4e cdbd
00000030: 1296 103d d41b 203d 9e86 9f3d 9cdd a6bd
00000040: b5bb 0c3d 2687 80bd e132 413d 8018 aa3d
00000050: 513a 98bd 6769 373d 8cb4 ab3b 9ce4 a1bd
00000060: d663 6cbd 6831 003d cfbf 33bd cdda ffbc
00000070: 93c8 3abd 87b4 1cbd fe49 5ebd 2672 4dbd
00000080: e447 a13d e38a b4bb 1e50 c13d c2df 5bbd
00000090: 74d3 86bc f857 8a3d f919 2dbd e5d5 c8bd
000000a0: f268 05be a677 c53c c4c8 d1bc c3ae 9f3d
000000b0: 29a6 d63c 9497 fabc c163 27bc a6ce 293d
000000c0: a339 b4bd d05f f53c a724 d83c a33c 143d
000000d0: 0f1d 1dbd 376f 2cbd 09cc c33c 3197 3dbd
000000e0: 2afa ca3c ef74 88bd d6a3 b2bc 2fa0 8c3c
000000f0: 5af8 8cbd 431e cb3d c2f0 a23b 88f4 893d
00000100: 33a1 a7bd 75a3 01bd 2a48 acbc 366d bc3d
00000110: 6b45 c83c ce0a afbd 51a5 01be fdfb 263c
00000120: 44ae 5c3d d5c9 5abc e93c 2dbd 1d5f d3bd
00000130: bf27 043d 5acf c23c c583 1e3d 5ad5 8d3d
00000140: 48c6 bb3d fabc adbd c5d5 a53d 70b8 e8ba
00000150: 6d43 883c 6c6d d0bd 8f59 66bb ada6 0dbd
00000160: f8e0 f23b cf7d acbc 64c6 81bd 4cb4 d93c
00000170: 9627 01be 5532 b63c ba1f 3abd bbcc 143d
00000180: 96e0 c6bd 069b a53d 8573 ad3b 8ce3 6ebb
00000190: 916f e2bd e88e b13d 341a c1bd 29dc 6dbd
000001a0: d8e9 0f3d 9686 813c 447f 443c 00ea 693d
000001b0: 7185 10bd 3c25 6f3d 3126 66bd 90ff bebc
000001c0: 2340 3c3c 8f0a c1bd bce9 1a3d c691 1dbd
000001d0: eca2 21bd 7d04 593d f3d6 0b3d 0973 aabd
000001e0: 5264 2bbd 16f4 a43d f772 e0bd dc4b c8bc
000001f0: b64f 4bbd 9bf6 a63d 44c2 babb b22b 983b
00000200: 1641 c5bd 6b7f fb3d 50af 433d cc0b 29bd
00000210: 14c3 23bd a2e8 98bd a460 bd3d 23f7 31bc
00000220: 7019 e33b e75d bb3d e9f2 c0bd 1e34 843d
00000230: 506c 40bc bf26 dfbb fae7 96bd dc4c a73c
00000240: 7556 c3bc 0590 24bd 2b0f a8bd 527a d8bc
00000250: 0374 b33c 9c14 92bd 9383 bcbb c237 dc3d
00000260: 2296 cabc 38a7 5bbd f640 c73d a3c7 71bd
00000270: 0ee2 0fbc efa3 a3bd d838 bb3d d30f 7bbd
00000280: 6ad7 d6bc 6492 21bd ec9c 81bc ad1f a43d
00000290: 15c7 cabd f49a 053d d66d e63d 0427 ddbd
000002a0: f2fd d13d dbbb 87bd 612e 973d 7a1b 45bd
000002b0: 2c3f 94bd 6deb 073e 9967 a23d e22d d13d
000002c0: 2624 91bd 2e91 633d bf48 78bd 3864 c23d
000002d0: 2a19 b63d 4e05 98bc 6808 1cbd afe1 cb3d
000002e0: 3706 d73d 3dbf dd3c 46ed a7bd 1678 c6bc
000002f0: 2236 0a3d 6bc0 9a3d 1bab 7cbd 25ae a23d
00000300: d1cd fa3c 2825 903d 40db 1d3d c389 4f3d
00000310: 9c12 923d ff0c a33d 5015 d03d ab8d c83d
00000320: f5f0 003d db59 0fbd 0afd 32bc 9ad3 543d
00000330: cab1 553c 2cf2 fdbc 04d9 d93c 6631 4d3d
00000340: 3e4f 113c e04c 9e3d 377e 5b3d 7645 acbd
00000350: 5bf2 cdbc e9f4 bb3d e7ed d8bc 2868 b53d
00000360: 2f5b 043e 41a5 98bd 16b3 30ba d29e 17bd
00000370: bf98 743d 3fd8 b93d 28b4 f63c 3ea6 923b
00000380: 4f0f ee3b 93bf 22bb e8bf fa3d 693a 4bbc
00000390: 35f7 acbc 59d6 ad3d 1840 593d 89a4 0fbd
000003a0: 8669 a53d 7b1f 263d 06b1 853d 3492 dd3b
000003b0: e126 af3c b296 71bd 684e 41bd 01fe bfbd
000003c0: 75a0 d2bd 7d6d cc3d b074 8cbb 4b8a 9abd
000003d0: a508 c5bc e488 9dbd ac90 a7bd c050 31bd
000003e0: cec4 b5bd 38ce a1bc 6572 33bc 1f83 f23d
000003f0: 3035 9e3d 0fd0 d7bc 34f5 84bd 322b 73bd

network.4.bias f4 [5]
0.07414558 0.06800696 -0.0063600955 -0.06709539 0.035738964
00000000: a3d9 973d 3c47 8b3d 5968 d0bb 4f69 89bd
00000010: 0563 123d
