IA2CC/model/rewardweight/config2/actor_3.pth (torch, 161096 bytes, 6 tensors)

network.0.weight f4 [128, 175]
0	0x3c2b5380	0.01045692
1	0x3c80ba45	0.01571382
2	0xbca74dd7	-0.02042286
3	0xbdd192f5	-0.10233108
4	0x3d5593ab	0.05214278
5	0x3d817fd2	0.06323208
6	0x3c94c338	0.018159494
7	0xbb4729a9	-0.0030389822
8	0xbd21e1f8	-0.03952214
9	0xbd0cb73b	-0.03435443
10	0xbdc14261	-0.09436489
11	0x3d013fbf	0.031554934
12	0x3d0439fa	0.032281853
13	0xbc55a79e	-0.013040451
14	0xbd453603	-0.048147213
15	0xbc87d499	-0.016580867
16	0xbd4b9d43	-0.049710523
17	0x3c4dd051	0.0125618735
18	0xbd95c39e	-0.07312702
19	0x3d11067b	0.03540657
20	0xbd2da590	-0.04239422
21	0xbd56cc4f	-0.052440938
22	0xbd42f456	-0.0475963
23	0xbcd4c1b3	-0.02597127
24	0x3cdfa33c	0.027299516
25	0xbc8d21dc	-0.01722806
26	0x3d031af8	0.03200814
27	0x3cd4dd17	0.02598433
28	0xbcb94200	-0.022614479
29	0x3d988744	0.07447675
30	0xbdbe7002	-0.092987075
31	0x3cd651a9	0.026161985
32	0xbddc81c3	-0.107669376
33	0xbd7f79ff	-0.062372204
34	0xbb1beb3a	-0.002379133
35	0x3ac42e6e	0.001496745
36	0xbdcfddf5	-0.10149757
37	0x3cb0210c	0.021500133
38	0xbd3dd7de	-0.046348445
39	0x3bf39e82	0.007434667
40	0xbd190f3c	-0.037368044
41	0x3ce6cbb8	0.028173313
42	0xbd2de425	-0.042453904
43	0x3c516903	0.012781384
44	0xbbfac74a	-0.0076531516
45	0x3b9f56b4	0.0048626307
46	0xbd9e145d	-0.07718728
47	0xbc060ba3	-0.008181485
48	0xbdb127da	-0.08650179
49	0x3cb008dd	0.021488601
50	0xbd5f58c3	-0.05452801
51	0x3d8d8053	0.069092415
52	0x3b94358d	0.0045229853
53	0x3cf7f361	0.03026742
54	0xbdfe46b7	-0.124158315
55	0x3ca31ab9	0.019910203
56	0xba68cc93	-0.00088805816
57	0xbd05fba8	-0.0327107
58	0x3cd4dd82	0.02598453
59	0xbcc1418f	-0.023590831
60	0xbd77c4cb	-0.06049041
61	0xbc7964a5	-0.015221749
62	0xbd943f14	-0.07238594
63	0x3c284a69	0.010271647
64	0x3cefc278	0.029267535
65	0xbd9e4c1c	-0.077293605
66	0xbdc1e9db	-0.094684325
67	0x3d244944	0.040108934
68	0x3b90c2b2	0.0044177407
69	0xbbd780e2	-0.0065766433
70	0xbd48f983	-0.049066078
71	0xbd2273dc	-0.039661273
72	0xbda84cf8	-0.082178056
73	0xbd375fa3	-0.04476894
74	0xbd8495dd	-0.06473897
75	0x3d73bc9e	0.05950605
76	0xbd8439c8	-0.064563334
77	0x3cb81f2f	0.022475807
78	0xbd65d366	-0.05610981
79	0x3c9ead3e	0.019369718
80	0xbbcaf09b	-0.006193233
81	0xbd1e553f	-0.038655516
82	0x3d6afcbd	0.057369936
83	0x3d1c0509	0.03809074
84	0xbd5d4bee	-0.05402749
85	0xbd9c1f37	-0.07623141
86	0xbcc097b9	-0.023509847
87	0x3d1f1568	0.038838774
88	0x3d2828a2	0.041054375
89	0xbda37915	-0.07982079
90	0x3caade60	0.02085799
91	0xbd396152	-0.045258828
92	0x3d2df219	0.04246721
93	0x3c88db64	0.016706176
94	0xbcc30790	-0.023807317
95	0xbd8c3fba	-0.068480924
96	0xbcea266c	-0.028582774
97	0x3cba9355	0.022775332
98	0x3c831d27	0.016005112
99	0x3d15fb7e	0.036616795
100	0x3c2a4eb4	0.010394741
101	0xbdaf215d	-0.085512854
102	0x3b0031c2	0.0019560908
103	0xbd7139a9	-0.05889288
104	0x3db3a15b	0.087710105
105	0xbd5a7ec2	-0.053343542
106	0x3d372101	0.04470921
107	0xbd1bc45b	-0.038029056
108	0x3ce62af7	0.02809666
109	0xbda712d6	-0.081578895
110	0xbcd5f36c	-0.02611705
111	0xba7e03bd	-0.0009689888
112	0xbda20e4e	-0.07912885
113	0x3d3ad328	0.04561153
114	0x3ba9da2f	0.00518348
115	0xbd65dc71	-0.056118432
116	0x3d8278d9	0.06370706
117	0x3cf3c22f	0.02975568
118	0xbb20352b	-0.0024445753
119	0xbc63fc83	-0.013915184
120	0xbcf5a857	-0.029987497
121	0xbceeb507	-0.029139055
122	0xbc34e479	-0.0110408
123	0xbc8f1ff4	-0.017471291
124	0x3d83f8f4	0.064439684
125	0xbd8794ba	-0.06620164
126	0x3c4bb4ee	0.012433274
127	0xbbcec228	-0.0063097663
128	0x3b9b052c	0.004730841
129	0x3c3eb54a	0.011639902
130	0x3bf198b0	0.007372938
131	0x3d592fa4	0.05302395
132	0x3af89a7c	0.0018966938
133	0xbbb0c8ca	-0.0053950297
134	0xbc5963d6	-0.013268432
135	0x3bccfda6	0.006255823
136	0x3d88d88f	0.0668193
137	0x39807d07	0.00024507215
138	0xbb189cca	-0.0023286813
139	0xbcf0df66	-0.0294034
140	0xbcd63bb3	-0.026151514
141	0x3ac3206f	0.0014886985
142	0xbd6be50d	-0.057591487
143	0x3c507ace	0.012724591
144	0x3d151d4b	0.03640489
145	0xbb1eac08	-0.0024211425
146	0x3bf513f5	0.0074791857
147	0xbb094372	-0.0020944742
148	0x3ccbde8e	0.024886396
149	0x3ce048b6	0.027378421
150	0xbcf0abba	-0.02937876
151	0x3d1eb089	0.038742576
152	0xbbc6b621	-0.006064192
153	0xbcc6182e	-0.024181452
154	0x3c090556	0.008363089
155	0x3d78662e	0.06064432
156	0xbd65f0ef	-0.056137975
157	0x3ce36430	0.027757734
158	0x3d7c8daa	0.06165854
159	0xbd82af82	-0.06381132
160	0x3d99d6e2	0.07511689
161	0x3d5a8e23	0.05335821
162	0xbd5bcad5	-0.053660233
163	0xbd71d361	-0.059039477
164	0xbd79dde9	-0.061002646
165	0x3d80ce3f	0.06289338
166	0xb96c2297	-0.000225196
167	0x3c4c376f	0.012464388
168	0xbd96eda5	-0.07369546
169	0x3d43d07d	0.04780625
170	0x3cf1df1b	0.02952533
171	0xbcf4d351	-0.02988592
172	0x3c8fb721	0.017543377
173	0xbb253905	-0.0025210988
174	0x3d6e2fce	0.05815106
175	0x3d40f7eb	0.047111433
176	0x3cd98090	0.026550561
177	0xbcb83e94	-0.022490777
178	0x3d7cf4fd	0.061757077
179	0x3c96cc0f	0.01840785
180	0x3bf8ca8d	0.0075925053
181	0x3c75daef	0.015005811
182	0x3d5efee5	0.054442305
183	0x3d3b8cca	0.045788564
184	0xbca17329	-0.019708233
185	0xbd0af944	-0.033929124
186	0xbd5116b7	-0.051047053
187	0x3c131a40	0.008978426
188	0xbd384ad6	-0.044993244
189	0xbb5e7541	-0.00339444
190	0x3c0de4d0	0.00866051
191	0xbd2f2551	-0.042760197
192	0xbd560868	-0.05225411
193	0xbd26259b	-0.040563207
194	0xbd75fa51	-0.060053173
195	0xbc2bf345	-0.010495012
196	0x3d4e0397	0.050296392
197	0x3d228b7f	0.039683815
198	0xbcab5ebc	-0.020919196
199	0xbcc69b99	-0.024244117
200	0x3d8221b9	0.06354088
201	0xbd84a2bc	-0.064763516
202	0xbd53a3cf	-0.051669892
203	0x3b576bef	0.003287073
204	0x3d0e0246	0.034670137
205	0xbcf36b2c	-0.02971419
206	0x3d8bdf64	0.06829718
207	0x3cab55fe	0.020915028
208	0xbd0e456e	-0.034734182
209	0x3d940cbc	0.072289914
210	0x3d688377	0.056766
211	0xbd629664	-0.055319205
212	0x3bf9300a	0.0076046037
213	0xbd7907e8	-0.060798556
214	0x3d480bae	0.048839264
215	0xbd8d4cbf	-0.06899404
216	0xbaf6c8d5	-0.0018828163
217	0xbd5db6d7	-0.054129448
218	0x3d052202	0.032503136
219	0xbd3f4d53	-0.0467046
220	0x3d93d853	0.07218995
221	0xbd09e533	-0.033665847
222	0xbbd2e8c1	-0.006436438
223	0x3d57af7c	0.05265759
224	0x3d66ed6c	0.056378767
225	0xbcaf4622	-0.021395747
226	0xbb98a69a	-0.0046585323
227	0xbbbe2cef	-0.0058036963
228	0xbc68539d	-0.014180091
229	0xbdaa508a	-0.08316143
230	0xbd221a70	-0.039575994
231	0x3d15cc2f	0.036571678
232	0xbd577507	-0.05260184
233	0xbd47cbc4	-0.04877831
234	0x3d7a4915	0.061104853
235	0x3db6d9c8	0.08928257
236	0x3d49ec3c	0.049297556
237	0xbb910db8	-0.004426684
238	0xbd5663bb	-0.052341204
239	0xbc9f0f90	-0.0194166
240	0xbd556d80	-0.05210638
241	0x3d9972b8	0.07492584
242	0xbd0c6052	-0.034271546
243	0x3d520c57	0.0512813
244	0xbd1bb983	-0.038018715
245	0x3dfb7ed3	0.12280049
246	0x3c35671b	0.011071946
247	0x3d8f9a86	0.07011895
248	0x3d14b52e	0.0363056
249	0x3d8a8f13	0.067655705
250	0x3d8df2a6	0.06931047
251	0xbc4bb7bb	-0.0124339415
252	0xbd1ccd36	-0.038281642
253	0x3d8a8faf	0.06765687
254	0x3cb7b823	0.02242667
255	0xbd6c48b2	-0.057686515

network.0.bias f4 [128]
0	0xbd89b98c	-0.067248434
1	0x3cebb407	0.028772367
2	0xbca34547	-0.019930495
3	0xbb63b3ff	-0.0034744737
4	0x3d6dd16e	0.058061056
5	0xbd4d56d1	-0.050131623
6	0x3d269252	0.040666886
7	0x3db3a824	0.08772305
8	0x3cd1d018	0.025611922
9	0x3da7741c	0.08176443
10	0x3d0183bc	0.031619772
11	0x3c4767d2	0.012170749
12	0x3bc3c84e	0.005974806
13	0xbc4982a1	-0.012299211
14	0x3c22f5ea	0.009946326
15	0x3db75b6a	0.08952983
16	0x3d2fea96	0.042948328
17	0xbd7c60ba	-0.061615683
18	0x3dae3b6b	0.08507427
19	0xbd64113f	-0.05568051
20	0x3d69a674	0.057043508
21	0xbd44a95d	-0.04801308
22	0x3d3282c9	0.043581758
23	0x3d9c4a4d	0.07631359
24	0xbd498400	-0.04919815
25	0x3d25e2b0	0.04049939
26	0xbaa099bc	-0.0012252848
27	0x3cc61b3c	0.024182908
28	0x3d950bc3	0.07277634
29	0xbc03f07c	-0.008052941
30	0xbd8cb3b2	-0.06870212
31	0x3bacac2b	0.0052695475
32	0xbcaea22e	-0.021317568
33	0xbbd5dbe8	-0.006526459
34	0x3d7a5c18	0.061122984
35	0xbc7ae86b	-0.015314202
36	0xbbf4bd62	-0.0074688653
37	0x3c6f2e1f	0.0145983985
38	0xbd9d0761	-0.07667423
39	0x3cff6d72	0.031180117
40	0xbd80103d	-0.06253097
41	0xbd379e9b	-0.044828992
42	0xbc729f05	-0.014808421
43	0x3cbf5d05	0.023359785
44	0x3d8881a5	0.06665353
45	0xbb17af20	-0.0023145154
46	0xbca9e7b8	-0.020740375
47	0xba055812	-0.0005086671
48	0x3d670e59	0.056410167
49	0x3d043e1c	0.032285795
50	0x3d8ae1df	0.06781363
51	0xbd3069f2	-0.043069787
52	0x3d1f95ab	0.038961094
53	0xbb9998a1	-0.0046873842
54	0xbc1fab08	-0.009745367
55	0xbc4cca22	-0.012499364
56	0x3cbe5050	0.023231655
57	0xbd84528b	-0.06461056
58	0x3d758d91	0.05994946
59	0x3d91ef84	0.07125762
60	0x3c4aa080	0.012367368
61	0xbd1da1d5	-0.038484413
62	0x3d321485	0.0434766
63	0x3d2918ed	0.041283537
64	0x3da41316	0.08011453
65	0x3d9a33bc	0.07529399
66	0x3cab2bf0	0.020894974
67	0xbd23be38	-0.03997633
68	0x3b3e58de	0.0029044668
69	0xbbcea3a7	-0.00630613
70	0xbd3a9303	-0.045550358
71	0x3cc9538c	0.024575971
72	0xbcf600ac	-0.030029617
73	0x3d1bf082	0.038071163
74	0xbd79b3cf	-0.060962494
75	0x3d3550e9	0.044266615
76	0xbc8a918d	-0.016915107
77	0x3d73d968	0.059533507
78	0xbd5891d2	-0.05287344
79	0xbd61d2b8	-0.055132598
80	0x3d97e78b	0.0741721
81	0x3b25485d	0.0025220134
82	0xbb8587dc	-0.0040750336
83	0x3c9bcf36	0.019019704
84	0x3c71ad10	0.014750734
85	0x3d6617d9	0.056175087
86	0x3cf3814e	0.029724743
87	0xbd38a7fa	-0.04508207
88	0x3d0e9ed5	0.034819443
89	0xbd555a9e	-0.052088372
90	0xbd59300f	-0.053024348
91	0x3d818fe4	0.06326273
92	0x3c082c57	0.008311353
93	0x3c9336a2	0.017970387
94	0xbd2e4a09	-0.042551074
95	0xbd077a6d	-0.03307574
96	0xbd115061	-0.035477046
97	0xbd93625c	-0.07196495
98	0x3d3cfb01	0.046137813
99	0x3d43c686	0.04779675
100	0xbcf39dcf	-0.029738335
101	0xbd7981be	-0.060914747
102	0xbd1268e5	-0.035744566
103	0x3d65df10	0.056120932
104	0xbd6caf2a	-0.057784237
105	0xbd38c2b3	-0.045107555
106	0xb93b21dc	-0.00017846323
107	0xbc01ce3d	-0.007922706
108	0xbaf21b02	-0.0018471184
109	0xbd357a3e	-0.044306032
110	0xbd6d079d	-0.05786859
111	0x3da53fa1	0.08068777
112	0xbcecb155	-0.028893152
113	0x3bc2b2e2	0.0059417346
114	0x3c86afae	0.016441192
115	0x3c7810e3	0.015140745
116	0x3d8a31cb	0.067477785
117	0x3d4bf618	0.04979524
118	0x3d95e16b	0.07318386
119	0x3dc34c26	0.095360085
120	0x3d84e50e	0.06489001
121	0xbd071381	-0.032977585
122	0xbd2b6757	-0.0418466
123	0x3d5b43b9	0.053531382
124	0xbc587a87	-0.013212807
125	0x3d9f45ca	0.07776983
126	0x3d556f70	0.05210823
127	0x3d1ad833	0.03780384

network.2.weight f4 [128, 128]
0	0xbd47abca	-0.048747815
1	0xbd86656a	-0.06562312
2	0x3db19e4c	0.08672771
3	0xbd8a4cb1	-0.06752909
4	0x3cb0c902	0.021580223
5	0x3bd39e1d	0.0064580576
6	0xbccf58cd	-0.025310898
7	0x3d11c5c4	0.035588995
8	0x3d13812b	0.036011856
9	0x3d83cec2	0.0643592
10	0x3d8cd29f	0.0687611
11	0x3d4ac877	0.049507584
12	0xbd1c3e3f	-0.0381453
13	0x3dbfb3bf	0.09360456
14	0xbdb30a84	-0.0874224
15	0x3dddd620	0.10831857
16	0x3d9599d0	0.07304728
17	0xbd58f52c	-0.05296819
18	0x3da9f871	0.082993396
19	0xbd567664	-0.052359
20	0x3dba5eb1	0.09100092
21	0x3b423277	0.002963213
22	0xbd0dab7a	-0.03458736
23	0xbd9949fb	-0.07484814
24	0x3ca84d83	0.020544773
25	0xbcf48a14	-0.029850997
26	0x3d89cd46	0.06728606
27	0x3d48cf12	0.049025603
28	0x3d372107	0.04470923
29	0xbca0ed3a	-0.019644368
30	0x3d2fa195	0.042878706
31	0x3d385308	0.04500106
32	0x3b8cbc23	0.0042948886
33	0xbbdc65e2	-0.0067260126
34	0x3ce6cddc	0.028174333
35	0xbd6abcc4	-0.057308927
36	0xbcc2520f	-0.02372077
37	0xbd710693	-0.05884416
38	0xbc80b041	-0.015709044
39	0x3d538bd0	0.051647007
40	0x3d3aff77	0.045653787
41	0xbd9769b2	-0.07393207
42	0x3bed5464	0.007242726
43	0x3d62c708	0.055365592
44	0xbdb0a383	-0.086249374
45	0x3d834825	0.06410245
46	0x3da45956	0.08024852
47	0xbd5e1367	-0.054217722
48	0x3c9f1f48	0.019424096
49	0x3d5022af	0.050814327
50	0xbd1e3188	-0.038621455
51	0xba65db28	-0.00087683136
52	0xbda983a3	-0.08277061
53	0xbd18bc59	-0.037288997
54	0x3da414c2	0.08011772
55	0xbd282671	-0.041052286
56	0x3aaf1f5e	0.0013360789
57	0xbd83cbd0	-0.064353585
58	0x3d9806db	0.074231826
59	0x3de2705e	0.110565886
60	0xbc9a36ad	-0.0188249
61	0x3d27418c	0.040833995
62	0xbd7c46a8	-0.06159082
63	0x3dad5a39	0.08464474
64	0x3d8c2126	0.0684226
65	0x3d8fb653	0.070171975
66	0xbc9ff724	-0.019527026
67	0x3d0353be	0.032062285
68	0xbc742bb3	-0.014902997
69	0x3d251caa	0.04031054
70	0x3dba3b13	0.09093299
71	0x3ca8f68e	0.020625379
72	0xbd64b671	-0.055838052
73	0xbd9a3dda	-0.075313285
74	0x3d86920c	0.06570825
75	0x3ce91625	0.028452942
76	0x3daca43f	0.08429765
77	0xbd44ecbc	-0.04807733
78	0xbac768f3	-0.0015213772
79	0x3df1b896	0.11802785
80	0xbd3d02ae	-0.046145134
81	0x3d8f616d	0.07001004
82	0x3d378a51	0.044809643
83	0xbd47690b	-0.04868416
84	0x3bb9db6b	0.0056719086
85	0xbd5ad004	-0.053421035
86	0x3d6f8a43	0.058481466
87	0x3cf30795	0.029666701
88	0x3d9427b0	0.07234132
89	0x3beea60b	0.0072829775
90	0xbd71b02e	-0.05900591
91	0x3d8e66d4	0.06953207
92	0x3d88be2d	0.06676898
93	0xbd971dc0	-0.07378721
94	0x3d29a39b	0.041415792
95	0x3d645f72	0.055755086
96	0xbc238b20	-0.0099819
97	0x3c5900ba	0.013244802
98	0xbc4a0616	-0.012330553
99	0x3d17abdf	0.037029143
100	0x3c7a1acf	0.015265181
101	0x3bcdaa8d	0.0062764348
102	0x3db37939	0.08763356
103	0x3b1917a3	0.0023360036
104	0x3d698cde	0.057019107
105	0x3db5ab54	0.08870569
106	0x3bf969b0	0.007611476
107	0x3d8fa552	0.07013954
108	0x3d29bbcd	0.041438866
109	0xbd13e2a5	-0.036104817
110	0xbd946ee0	-0.0724771
111	0x3da633f9	0.08115382
112	0xbcb4ae2d	-0.02205571
113	0xbda46ae6	-0.08028202
114	0xbd1c5069	-0.038162623
115	0x3dfa030c	0.122076124
116	0x3c9ca2d3	0.01912061
117	0x3dbdad46	0.09261565
118	0x3d03376b	0.032035273
119	0x3d9ed015	0.07754532
120	0x3cfb89f7	0.030705435
121	0x3cd05d4f	0.025435118
122	0xbcd5d8df	-0.026104389
123	0x3d27a64d	0.04093008
124	0x3c9fa01d	0.019485528
125	0x3c7de8c9	0.015497395
126	0x3c80af3c	0.015708558
127	0x3d932a79	0.071858354
128	0xbc539ad2	-0.01291533
129	0x3c1d7504	0.009610418
130	0xbda46fe8	-0.08029157
131	0x3d0bb65d	0.034109462
132	0x3d4d2110	0.05008036
133	0x3dc00801	0.093765266
134	0xbcebb86b	-0.02877446
135	0x3db2c5d1	0.08729137
136	0xbc0d3b90	-0.008620158
137	0xbdba5106	-0.09097485
138	0xbc59d28f	-0.01329483
139	0xbd517cb3	-0.051144313
140	0xbc08648b	-0.008324753
141	0xbcb05386	-0.021524202
142	0xbd7430f3	-0.059616994
143	0xbd39dc99	-0.045376394
144	0xbdab8f61	-0.08376957
145	0xbd1a824b	-0.037721913
146	0x3d31cdb2	0.043409057
147	0x3d73cc3f	0.059520956
148	0xbaa2b652	-0.0012413955
149	0xbd1b05fb	-0.0378475
150	0xbdc33c15	-0.09532944
151	0xbd85f766	-0.06541328
152	0x3bf88439	0.0075841215
153	0x3d60d4bb	0.054890376
154	0x3da729d6	0.081622764
155	0xbcbd4613	-0.023104703
156	0xbd56f806	-0.052482627
157	0xbd90213a	-0.070375875
158	0x3d1830c0	0.037155867
159	0x3ce81b8d	0.02833345
160	0xbdacb708	-0.08433348
161	0xbd865120	-0.06558442
162	0xbc97408e	-0.0184634
163	0x3dbb97d8	0.09159821
164	0x3d018ce2	0.031628497
165	0xbcf29ca4	-0.029615708
166	0x3d6fc0ff	0.058533665
167	0xbd07baf7	-0.033137288
168	0xbd17445a	-0.03693042
169	0x3d7cb874	0.061699346
170	0xbb600d2f	-0.0034187546
171	0x3db7df31	0.08978117
172	0x3da4a050	0.0803839
173	0x3d664c68	0.05622521
174	0x3d5e5e02	0.05428887
175	0xbcd9adbb	-0.026572099
176	0xbd73ea1a	-0.05954943
177	0x3d87220e	0.06598292
178	0x3df57aff	0.1198635
179	0xbcf5b999	-0.029995726
180	0xbd67edfd	-0.056623448
181	0xbcc591b0	-0.02411732
182	0x3daf1ab8	0.08550018
183	0xbcdae827	-0.026722027
184	0xbdb21003	-0.0869446
185	0x3b9ddd22	0.004817621
186	0x3d307497	0.04307994
187	0xbd334c10	-0.04377371
188	0x3d62a2e4	0.055331126
189	0xbd0e7dea	-0.03478805
190	0xbc74b5f7	-0.014935962
191	0x3a833cee	0.0010012665
192	0x395cb86c	0.00021049537
193	0x3de3faae	0.11131798
194	0xbd8d2740	-0.06892252
195	0x3d76ced8	0.060255855
196	0xbce54aa4	-0.027989693
197	0x3d0063c5	0.031345148
198	0xbda33c0f	-0.0797044
199	0x3cec36f8	0.028834805
200	0xbd508efb	-0.050917607
201	0x3d8e360f	0.069439046
202	0x3d86439b	0.065558635
203	0x3d1917ab	0.037376087
204	0xba992f68	-0.0011687102
205	0x3d4eb299	0.050463293
206	0xbd131645	-0.03590991
207	0x3c9a907f	0.01886773
208	0x3bcbb7b9	0.00621697
209	0xbd9c5719	-0.076338
210	0xbccc36ab	-0.024928411
211	0xbd38b6ca	-0.045096196
212	0xbd4913a4	-0.049090996
213	0xbc2e75ca	-0.0106482
214	0x3e09cbf7	0.13456713
215	0x3d725f5e	0.05917298
216	0x3ca92f94	0.02065257
217	0xbc5be05f	-0.013420193
218	0x3d4a229f	0.049349423
219	0x3ccbaade	0.02486175
220	0x3ba8d2a0	0.0051520616
221	0x3d04debd	0.032438982
222	0xbd8ec18d	-0.06970511
223	0xbc813d75	-0.015776375
224	0xbd86ac5f	-0.06575846
225	0x3d8a3302	0.0674801
226	0x3c18e9bb	0.009333069
227	0xbd6f7a31	-0.05846614
228	0x3d767c93	0.060177397
229	0xbdb5b9e9	-0.0887335
230	0x3c0721d6	0.008247813
231	0x3db6efec	0.0893248
232	0x3d973094	0.073823124
233	0x3cc8ad8c	0.024496816
234	0xbd234743	-0.039862882
235	0xbd9709ca	-0.07374914
236	0x3c8ea648	0.017413273
237	0xbba24aed	-0.0049527795
238	0x3d3291ef	0.043596204
239	0x3cad429e	0.02114993
240	0x3cb17c2b	0.021665653
241	0xbd7cfbe7	-0.06176367
242	0xbd0a8157	-0.033814754
243	0xbc57bc21	-0.013167412
244	0x3ce628b7	0.028095586
245	0x3d8642a3	0.06555679
246	0xbd1eca2a	-0.038767017
247	0x3d6717ad	0.056419063
248	0x3d103785	0.035209198
249	0x3d220bb0	0.039561927
250	0x3d658e66	0.056044005
251	0x3d90d26d	0.070713855
252	0x3d6160eb	0.05502407
253	0xbd62f079	-0.055405114
254	0xbd4ddabd	-0.050257433
255	0xbcab3ee8	-0.02090402

network.2.bias f4 [128]
0	0x3d2dba2c	0.042413875
1	0xbc924548	-0.017855301
2	0x3d996391	0.07489694
3	0xbd3aefbd	-0.04563879
4	0xbd621e75	-0.055204827
5	0xbd30ead3	-0.043192696
6	0x3cd547b2	0.026035164
7	0x3d2ee258	0.042696327
8	0x3da77807	0.0817719
9	0xbd313496	-0.04326304
10	0x3d282633	0.041052055
11	0xbd2b04ff	-0.04175281
12	0x3cabbe25	0.020964691
13	0xbd9201b4	-0.07129231
14	0x3d30aa48	0.043131143
15	0xbd4ca1c5	-0.049958963
16	0x3d93fd70	0.07226074
17	0x3d8e042e	0.06934391
18	0xbd70b08e	-0.058762126
19	0x3d56b10f	0.05241495
20	0xbd01be6f	-0.031675752
21	0xbdbbbab6	-0.09166472
22	0x3d6bbee1	0.057555083
23	0x3d44e4a2	0.048069604
24	0x3d8565b3	0.06513538
25	0xbd770dad	-0.060315777
26	0xbd5c7a64	-0.05382766
27	0x3b55ddb9	0.0032633378
28	0x3d1d3e32	0.038389392
29	0x3d9c1f79	0.076231904
30	0xbd412155	-0.04715093
31	0xbd96d7b8	-0.07365364
32	0x3cec1e70	0.028823107
33	0x3d99af1a	0.07504101
34	0xbd94b266	-0.07260589
35	0xbd9a141a	-0.07523365
36	0xbb3d6623	-0.002889999
37	0xbd67e725	-0.05661692
38	0xbd1b0d34	-0.03785439
39	0xbd5ad0b6	-0.0534217
40	0x3c35f7af	0.011106416
41	0xbc680262	-0.014160724
42	0x3d31cf57	0.043410625
43	0xbca68a58	-0.02032964
44	0xbd4ba24c	-0.049715325
45	0x3d39e623	0.04538549
46	0x3d989297	0.07449835
47	0x3c433069	0.011913397
48	0xbc95e354	-0.018296875
49	0xbd179ecc	-0.037016675
50	0x3d71b228	0.059007794
51	0x3b6b6544	0.0035918513
52	0xbd1fc418	-0.03900537
53	0x3c9af6fa	0.018916596
54	0x3d0d3573	0.0344748
55	0x3d86331d	0.06552718
56	0xbc4bfdc0	-0.012450635
57	0x3d7bf0fe	0.061509125
58	0x3dbae107	0.09124952
59	0x3d713c13	0.058895182
60	0x39003c72	0.00012229549
61	0x3d372d66	0.04472103
62	0xbdade487	-0.08490854
63	0xbbc7eab0	-0.006100975
64	0xbd9a2a13	-0.07527556
65	0x3db77f0d	0.0895978
66	0x3d438535	0.047734458
67	0x3b9120f4	0.004428977
68	0x3c6576a7	0.01400534
69	0xbca6fe2a	-0.020384867
70	0xbccf62e2	-0.025315706
71	0xbcf06621	-0.029345574
72	0x3d862de0	0.06551719
73	0xbd87d2c3	-0.066319965
74	0xbd784afd	-0.06061839
75	0x3d2047be	0.03913092
76	0x3cc2cec3	0.023780232
77	0xbd5100ff	-0.05102634
78	0xbb61e810	-0.0034470595
79	0xbd30910a	-0.04310707
80	0xbd1e63fa	-0.038669564
81	0x3dc22bca	0.09481008
82	0x3c8358eb	0.01603361
83	0x3d82b79d	0.06382678
84	0x3cfb84b0	0.030702919
85	0x3aaa2bda	0.001298304
86	0x3d0ab0ab	0.03385989
87	0xbd37993a	-0.044823863
88	0x3cfa0287	0.030518783
89	0x3c2f1b30	0.010687634
90	0xbd90246c	-0.07038197
91	0xbd6d06b5	-0.057867724
92	0xbd7477cc	-0.05968456
93	0x3d82b124	0.06381443
94	0x3d7be3ce	0.06149655
95	0x3d36aad3	0.044596504
96	0x3dc634bd	0.09678028
97	0x3dba2d17	0.090906315
98	0x3c32c4fa	0.010911221
99	0x3d12cac4	0.035837904
100	0xbd956483	-0.07294562
101	0x3d8e6eff	0.069547646
102	0x3cbca555	0.023028055
103	0x3db15f29	0.086607285
104	0xbd1e1871	-0.038597528
105	0xbc19cfbb	-0.009387906
106	0x3c86a721	0.016437115
107	0x3ca58da0	0.020209134
108	0xbcc98ec5	-0.02460421
109	0x3d445dc0	0.04794097
110	0xbd29b09a	-0.041428186
111	0xbdc0a44f	-0.094063394
112	0x3a8bfedf	0.0010680816
113	0x3d986a53	0.07442155
114	0xbbb42897	-0.0054980027
115	0xba4b8eda	-0.0007765122
116	0xbd743a41	-0.059625868
117	0xbd324e48	-0.043531686
118	0xbbef80ea	-0.007309069
119	0x3d860c79	0.06545348
120	0x3dc7c413	0.09754195
121	0xbbf2b41b	-0.007406724
122	0x3d819fe4	0.06329325
123	0x3d676aa6	0.056498192
124	0x3d8176b9	0.06321473
125	0x3d53eff7	0.05174252
126	0x3cf1f458	0.029535457
127	0xbbcc4e22	-0.0062349

network.4.weight f4 [5, 128]
0	0x3dd272e6	0.102758214
1	0x3cdcf0c6	0.026970278
2	0x3da526af	0.08064019
3	0x3cc2fa1d	0.023800904
4	0x390f9da5	0.0001369627
5	0x3d3dc47f	0.04632997
6	0x3e00975f	0.12557743
7	0x3c7c393d	0.015394506
8	0xbd416601	-0.04721642
9	0x3db5202a	0.088440254
10	0x3e03fe07	0.12889872
11	0xbcdb4a49	-0.02676882
12	0xbd01a4f6	-0.03165146
13	0xbbbf6f2f	-0.0058421115
14	0xbd8ca1d2	-0.06866802
15	0xbda5c0d8	-0.08093423
16	0x3da29f7f	0.07940578
17	0x3d91a505	0.07111553
18	0xbda3a097	-0.079896145
19	0x3dbb9759	0.09159727
20	0x3da3ea19	0.08003635
21	0xbda3bee3	-0.07995393
22	0x3d81254f	0.06305944
23	0xbc978bec	-0.018499337
24	0x3d8ed624	0.06974438
25	0xbd3f38e4	-0.046685115
26	0xb9606642	-0.00021400399
27	0x3d70c0d7	0.058777656
28	0xbd6fac39	-0.058513854
29	0x3d3789d2	0.04480917
30	0xbd8134ec	-0.06308922
31	0xbd82c1b3	-0.063846014
32	0x3c0b92fc	0.0085189305
33	0x3c0289f9	0.007967466
34	0x3dba011d	0.090822436
35	0xbceaba4f	-0.028653292
36	0x3cdb47a3	0.026767557
37	0xbd9ca3fd	-0.07648466
38	0xbd4e34ac	-0.0503432
39	0x3d971a9d	0.07378123
40	0xbdca63ca	-0.098823145
41	0x3cea6731	0.028613659
42	0x3dd0465a	0.101696685
43	0x3da0b02b	0.078461014
44	0x3cf06519	0.029345082
45	0x3dbd5536	0.09244768
46	0x3dafa64c	0.085766405
47	0x3c69542c	0.01424126
48	0x3c64063a	0.0139175
49	0x3ddc19a0	0.10747075
50	0xbcfb8b87	-0.03070618
51	0xbce0b56e	-0.027430262
52	0x3ca90206	0.020630848
53	0xbdb1d6b5	-0.0868353
54	0x3c60a452	0.013711052
55	0x3d96e7e5	0.07368449
56	0xbd817d25	-0.063226976
57	0x3d8b2da3	0.06795814
58	0x3e07f85e	0.13278338
59	0x3dc92e81	0.09823323
60	0x3bb80cf5	0.005616779
61	0x3d313470	0.0432629
62	0xbd7d47a7	-0.06183591
63	0x3b4d085b	0.0031285498
64	0xbcd01792	-0.025401864
65	0xbdb3efbe	-0.087859616
66	0x3d20afc3	0.03923012
67	0xbdb5a657	-0.088696174
68	0xbd5987be	-0.05310797
69	0xbd09d3c4	-0.03364922
70	0xbd31507f	-0.043289658
71	0xbd84de19	-0.06487674
72	0x3daa08a6	0.08302431
73	0xbceaa9bf	-0.028645394
74	0xbd8e6e19	-0.06954593
75	0x3da0a4d5	0.07843939
76	0xbbc9ab90	-0.006154485
77	0xbd1c1b2f	-0.03811186
78	0xbce2f436	-0.02770434
79	0x3d838f95	0.064238705
80	0xbd981f0d	-0.074277975
81	0x3d8ddb7d	0.0692663
82	0x3d277e18	0.040891737
83	0x3d0ce59b	0.034398656
84	0x3d257566	0.040395163
85	0xbce17f8d	-0.027526641
86	0xbd829437	-0.06375926
87	0x3dbbaa7d	0.091633774
88	0xbd347c2a	-0.044063725
89	0x3c9850d4	0.01859323
90	0xbd4c5234	-0.049883083
91	0x3d7444a2	0.059635766
92	0xbd27b3ac	-0.040942833
93	0xbd4da591	-0.050206725
94	0xbd8d8b9f	-0.06911396
95	0xbd6945e7	-0.05695143
96	0x3dda50cc	0.10659942
97	0xbdb19fb1	-0.08673037
98	0x3e1a0707	0.15041743
99	0x3dc8a36e	0.09796797
100	0xbd823224	-0.0635722
101	0x3d6323bc	0.055454
102	0xbd5620ed	-0.052277494
103	0x3dc8f661	0.09812618
104	0xbd40f31c	-0.047106847
105	0xbddb8f55	-0.10720698
106	0x3dbd89f5	0.09254829
107	0xbc70eec6	-0.0147053655
108	0xbd31cde9	-0.04340926
109	0x3d665a41	0.056238417
110	0xbcd453d2	-0.025918875
111	0xbd63fa08	-0.05565837
112	0x3d32c474	0.043644384
113	0xbd3c9706	-0.046042465
114	0x3bbf10cf	0.005830861
115	0x3de0ff41	0.10986186
116	0xbd462ed4	-0.048384503
117	0x3dc71610	0.09721005
118	0x3da96151	0.08270515
119	0x3d189cb8	0.037258834
120	0x3d1d9e61	0.03848112
121	0x3d2c70f8	0.042099923
122	0x3d8d6f13	0.06905951
123	0x3d630baf	0.055431064
124	0xbd23de49	-0.04000691
125	0x3e00c481	0.1257496
126	0x3d9a7920	0.07542634
127	0x3d82e7a0	0.06391835
128	0xbcc8a56c	-0.024492942
129	0xbd405b71	-0.046962205
130	0xbe028020	-0.12744188
131	0xbdbc6a26	-0.09199934
132	0xbccf32b6	-0.025292736
133	0xbe03fbac	-0.12888974
134	0xbdd473cb	-0.10373648
135	0x3ba7fcee	0.005126587
136	0x3cda0078	0.026611552
137	0xbdd2043e	-0.102547154
138	0xbc9d8350	-0.019227654
139	0xbd9acad0	-0.07558215
140	0x3cec527d	0.028847927
141	0xbce12a85	-0.027486095
142	0xbcd59d17	-0.026075883
143	0x3d88af5a	0.06674071
144	0xbe00257d	-0.125143
145	0x3db447de	0.0880277
146	0x3d7382eb	0.059451025
147	0xbc50f989	-0.012754806
148	0xbdb752b6	-0.08951323
149	0xb9875074	-0.0002580915
150	0x3d86afd3	0.065765046
151	0xbd7ebc75	-0.062191445
152	0x3d36f7c5	0.044669885
153	0x3cb1c1b8	0.021698818
154	0x3d01334c	0.03154306
155	0xbccb800e	-0.024841335
156	0x3db5b8fd	0.08873174
157	0xbd6167dd	-0.055030692
158	0x3d91b131	0.07113875
159	0x3d9dac25	0.076988496
160	0xbd71175f	-0.05886018
161	0xbd2e933a	-0.042620875
162	0xbce5bb85	-0.028043518
163	0x3c1f33f3	0.0097169755
164	0xbcce375a	-0.025172878
165	0x3d0b64b7	0.034031596
166	0x3c2b608b	0.010460029
167	0x3d5fe200	0.05465889
168	0xbc15673e	-0.009118853
169	0x3d8d49b1	0.06898821
170	0x3d4c20c4	0.049835935
171	0xbc8a9536	-0.016916852
172	0xbdc5fc4f	-0.09667265
173	0xbc13fdc4	-0.00903267
174	0xbdb70a3c	-0.08937499
175	0x3cb7c779	0.022433983
176	0xbd3382a9	-0.04382578
177	0xbd0bad32	-0.03410072
178	0x3d9747e3	0.07386758
179	0xbd84534e	-0.064612016
180	0x3d8c18e0	0.06840682
181	0x3b562e0e	0.003268126
182	0xbd998118	-0.07495326
183	0x3d5f8965	0.05457439
184	0x3c80266c	0.015643321
185	0x3d203025	0.039108414
186	0xbde0a8c7	-0.10969692
187	0xbb7e954d	-0.0038846314
188	0x3d1e51e0	0.0386523
189	0xbcbd4b6c	-0.023107253
190	0xbbbce9a7	-0.005765158
191	0xbd1a83b1	-0.037723247
192	0xbd9bd9a1	-0.07609869
193	0x3d59e207	0.053194072
194	0xbdbe418c	-0.09289846
195	0x3de731fd	0.112888314
196	0x3bad43bf	0.005287617
197	0xbda3d45a	-0.07999487
198	0xbd385c8a	-0.045010127
199	0xbd97e176	-0.0741605
200	0x3d964bda	0.07338686
201	0x3c9bd348	0.019021645
202	0xbdabb82d	-0.08384738
203	0xbd7f5090	-0.06233269
204	0x3da3bc75	0.0799493
205	0xbc40e5d8	-0.011773549
206	0x3c7ee0ea	0.015556553
207	0x3b8b2c8c	0.0042472538
208	0xbd6e5e3b	-0.058195334
209	0xbded935a	-0.11600371
210	0x3c60c313	0.013718384
211	0xbd1b12f7	-0.037859883
212	0xbd3988e3	-0.04529656
213	0xbc9a9f83	-0.01887489
214	0xbb1e1b5c	-0.0024125194
215	0xbd5a93bd	-0.05336355
216	0x3d338ddc	0.04383646
217	0xbcebb182	-0.028771166
218	0xbd543dc5	-0.05181672
219	0x3d9dda85	0.07707695
220	0x3c5cf4b5	0.013486077
221	0xbd918839	-0.071060605
222	0xbbe1d56c	-0.006891897
223	0xbdb1fb7a	-0.086905435
224	0xbdf112c4	-0.117711574
225	0x3d3620e0	0.044464946
226	0xbceea3b7	-0.0291308
227	0xbdc5c81b	-0.09657308
228	0x3d34db5c	0.04415451
229	0xbdc60991	-0.096697934
230	0xbc4bbb6e	-0.012434823
231	0x3d7268b9	0.059181903
232	0xbd272dce	-0.040815167
233	0x3c8fadbe	0.017538901
234	0xbcf84802	-0.030307774
235	0x3cea42aa	0.028596241
236	0x3d025e97	0.03182849
237	0xbdd2d3ee	-0.10294329
238	0x3d00160d	0.03127103
239	0xbd907ab8	-0.07054657
240	0xbd36fa80	-0.04467249
241	0x3c7bbdba	0.015365059
242	0xbd82a19f	-0.06378483
243	0xbbade139	-0.0053063896
244	0xbb1dfc93	-0.0024106845
245	0xbdcfb2cf	-0.10141527
246	0x3d92efa8	0.07174617
247	0xbdeba737	-0.11506503
248	0xbd2aac5b	-0.041668277
249	0x3d46f177	0.048570123
250	0x3d16c8fe	0.036812775
251	0x3d666864	0.0562519
252	0xbd968ceb	-0.07351097
253	0xbd604486	-0.05475285
254	0xbccdbbd8	-0.025113985
255	0xbc6317b9	-0.013860636

network.4.bias f4 [5]
0	0xbd226842	-0.03965021
1	0xbcb55aa6	-0.022137951
2	0x3d34672d	0.04404371
3	0xbad8fa43	-0.0016554076
4	0x3c7f39f2	0.01557778
