IA2CC/model/testmodel/actor_3.pth (torch, 161096 bytes, 6 tensors)

network.0.weight f4 [128, 175]
00000000: 872e 503d ed7e 333d bdea ad3d 509a d13a
00000010: 78ee b83d 1953 6cbd 7e8f 803d fe0a ba3d
00000020: 943c 5c3c d43c 27bd 84af d5bd 0ba4 7e3d
00000030: 8365 803b c0d1 95bd d505 58bc 7fcd 33bc
00000040: a4be c0bc 2508 883d d4fd b436 1ab9 2fbd
00000050: 2b0d 1c3d 9cde bebb c793 7d3c 9f91 98bd
00000060: ecf7 b03d 54d0 a7bc 7c9c 58bd a2df 08bd
00000070: 4da2 8abd f5a4 9d3d 8a8f 96bd 4b32 683d
00000080: c192 2cbd bd88 f2bc 4406 8ebd 83d6 f0bc
00000090: 9ec5 833d ba78 503d 3691 1dbd 71b1 373c
000000a0: 3c63 d63c 4e59 11bc 1dcd ac3d bd87 953d
000000b0: a517 933c b931 ad3d 38f0 0dbc f8c6 41bd
000000c0: 3243 cfbd 6088 143d 414d 733c 6a7a 5e3d
000000d0: 97a2 293b 5832 493d bcb4 34bd fadf 1bbd
000000e0: 557d 3ebd 42a9 dc3c 0992 a83d f394 2ebd
000000f0: a066 bf3c 19c8 303d ba80 70bd 4cb4 3bbc
00000100: 0e3d 6bbd f072 9abc 7add 0cbe 713f 1d3d
00000110: 0662 67bc d988 bdbc 7fed 8cbc b666 80bb
00000120: 93c7 92bc 963f a0bc 81d9 b53d 8e40 23bd
00000130: dc0d 44bc 1567 64bd 93e4 df3d 1856 893d
00000140: 3996 a9bd 18e1 093d 307b bebd 51d3 6d3d
00000150: b4f6 debd 19ab 98bd 4595 ce3c 5e97 6bbd
00000160: de0e b8ba fc3b 8c3d bf7e 4fbc dc45 80bd
00000170: b3af 943d d815 fb39 1b43 afbc 4512 3b3d
00000180: 4ef1 86bb 3d1d 71bc 9d5d 47bd dfb9 913b
00000190: 1861 a9bd 08bc 2f3d aa20 5dbd db14 82bd
000001a0: 7f36 0a3d 9111 d7bc 3180 2dbc e5c2 29bd
000001b0: 080f 493d 772f 10bd ff83 303d 9560 a3bd
000001c0: bef4 b33c d265 20bd 7b58 f6bc 6375 123d
000001d0: 0185 57bd 239d e5bc 5247 bdbc 160d 963d
000001e0: ee67 cfbd b530 073d b86a 82bd 8ce4 323d
000001f0: 95fa c6bd 3ca0 553c 489e 17ba a9d3 193b
00000200: 4652 ea3c a4fd ff3a c937 87bd 2af2 563d
00000210: 17af 5cbd ae12 dfbc c5f0 94bc 4b6b 28bd
00000220: 935d 83bd 18ae a33d 8dc5 d9bb 366b f83c
00000230: 4bb4 19bd 3d6d 9f3d e0ed 28bd bf97 f33c
00000240: 07b8 563d 128b 97bb 5106 ffbb f8c8 1f3d
00000250: bd2d 29bd 0d7f fe3b 3e7d 8dbd f658 a53d
00000260: 39c5 4bbb dc71 12bb 2da8 efbb 3ec8 17bd
00000270: 670b b2bd 0af3 0e3c 08e5 623d 1b23 b33d
00000280: febf 28ba 7a58 ae3d d82f 81bd 1fb8 9a3d
00000290: 831b 86bd cb89 2bbd 13c5 16bd a419 fc3c
000002a0: 3595 c8bc da6f 7ebd dbb9 993c 1f9c 703d
000002b0: 27c3 3a3d 7892 34bc 1a8a 2a3d 8106 3abd
000002c0: ecbb 893c c123 cbbc 0da9 57bd 7f01 94bd
000002d0: 439a 983c 59e1 d33c 4fb5 d63c c208 c9bc
000002e0: 81a7 e33b f0d2 f03d e3bc 65bd 7a53 033c
000002f0: 0d84 5a3d 6704 b33c 23ce a33d 60e4 4ebc
00000300: 3a5d 8c3d 289a 63bd 877a 24bd c102 f73c
00000310: b545 42bd ea97 1c3d 292a aa3d 0312 823c
00000320: 3e09 453d 8e36 4d3d 5655 813d 3884 ed3c
00000330: 3b60 85bc 6726 993d 4d73 6a3b cb1b 6abd
00000340: 4bc6 3a3d 3ee9 70bd 50b8 003c d805 57bd
00000350: 3533 27bd 3a59 88bd b38a 983d 7db8 7b3d
00000360: b701 dc3c 82f7 5abd fb6c 8a3d bbe1 443d
00000370: 4397 81bd 0b80 4d3d 79c9 943d a082 7c3c
00000380: 9637 9f3c 5729 57bd 8e2f cebc fea6 90bd
00000390: c021 d43a ac24 1a3d 3b37 883d ac53 a23c
000003a0: 9c5f 17bd 0277 be3c 28e8 44bd c64c 583b
000003b0: d227 083d ed3d 373d 343c 843b 3dd7 f53d
000003c0: 6f60 c73c 17b0 983c 5de2 ac3d 3244 43bd
000003d0: ac9c 7a3d d834 ba3b d782 be3d 24be 2ebd
000003e0: 785b 843b 175b a13c 7d51 c33c 53f2 03bd
000003f0: bc65 873d 7c4f 9abd 43e7 41bc 1377 48bc
0.050825622 0.043822218 0.084920384 0.0015991423 0.09029859 -0.057696436 0.06277369 0.09084128
0.013442177 -0.040829495 -0.104338676 0.062168162 0.003918351 -0.07315397 -0.013184984 -0.010974287
-0.023528405 0.066421784 5.3939675e-06 -0.042901136 0.038098495 -0.005824877 0.015477127 -0.0744965
0.08641037 -0.02048508 -0.05288361 -0.033416398 -0.06769238 0.07697479 -0.07351597 0.056688588
-0.042132143 -0.029606218 -0.06934789 -0.029399162 0.06434177 0.050896384 -0.038468562 0.011211739
0.026170366 -0.00887139 0.0843756 0.07301281 0.01795561 0.084567495 -0.00866323 -0.047308892
-0.10120238 0.03626287 0.014849962 0.054315962 0.0025884265 0.049120277 -0.044117674 -0.038055398
-0.046506245 0.026936177 0.08230979 -0.042622518 0.023364365 0.043159578 -0.058716513 -0.01145656
-0.057431273 -0.018853635 -0.13756362 0.03839058 -0.014122492 -0.023136543 -0.01720309 -0.003918494
-0.01791743 -0.01956157 0.08879376 -0.039856486 -0.011966195 -0.05576237 0.10932269 0.06705874
-0.08280606 0.03366193 -0.0930084 0.058062855 -0.10886899 -0.07454509 0.025217662 -0.057517402
-0.0014042517 0.068473786 -0.012664496 -0.062633246 0.072600745 0.00047890726 -0.021394303 0.04567172
-0.004118121 -0.014716444 -0.04867326 0.0044472064 -0.08270472 0.04290393 -0.05398623 -0.06351634
0.033743378 -0.026253494 -0.010589645 -0.04144563 0.0490866 -0.035201516 0.04309463 -0.07977406
0.021967288 -0.039159603 -0.030071488 0.03575648 -0.052617077 -0.02802903 -0.023105297 0.07326715
-0.10127245 0.033005435 -0.06368011 0.04367499 -0.097157635 0.013038691 -0.00057837786 0.0023472107
0.028603684 0.0019530547 -0.06602437 0.05247704 -0.053877916 -0.027230587 -0.018181214 -0.041117948
-0.06414332 0.0799219 -0.0066458643 0.03032456 -0.037525456 0.077845074 -0.04124248 0.029735444
0.052421596 -0.004624733 -0.0077827354 0.039010018 -0.041303385 0.0077666105 -0.06908654 0.080736086
-0.0031092896 -0.0022345698 -0.0073137493 -0.0370562 -0.08693581 0.008724937 0.055394202 0.0874693
-0.00064373005 0.08512969 -0.063079536 0.075546496 -0.06548216 -0.041879456 -0.03680904 0.030773945
-0.02448521 -0.06211839 0.01876538 0.05874264 0.045596268 -0.011021249 0.04163561 -0.04541636
0.016813241 -0.024797322 -0.052651454 -0.07226848 0.018628245 0.02586429 0.026209502 -0.024540309
0.0069474583 0.11758983 -0.05608834 0.008015508 0.05334859 0.021852685 0.07998302 -0.012627691
0.06853719 -0.055566937 -0.040155914 0.03015268 -0.04742976 0.038230814 0.08308823 0.01587773
0.048104517 0.050100856 0.06315105 0.02899371 -0.016281238 0.07478028 0.003577429 -0.05715541
0.045599263 -0.058816187 0.0078564435 -0.052495807 -0.04082032 -0.066576436 0.0744833 0.06145524
0.026856286 -0.053458698 0.067590676 0.048066836 -0.06327679 0.05017094 0.0726499 0.015412003
0.019435685 -0.05252966 -0.02516916 -0.07063101 0.0016184375 0.03763263 0.066511594 0.019815288
-0.036956415 0.023250107 -0.048072964 0.0033004745 0.0332411 0.04473679 0.004035497 0.12003944
0.024337975 0.018638654 0.08441613 -0.047672458 0.06118457 0.005682569 0.093022995 -0.0426618
0.0040392242 0.019696755 0.023842568 -0.03221352 0.06611201 -0.07534692 -0.011834922 -0.012235421

network.0.bias f4 [128]
00000000: f188 ba3c 7d93 6e3d 5841 95bc cc63 f93a
00000010: 02f3 0c3d de83 243d 252e 383c e4c3 ed3c
00000020: de1f 07bc 6482 1fbd 162c ae3c cc36 563d
00000030: f000 c43c 13dd 6d3d 244b 1f3d 3798 c83b
00000040: f596 493c 442b e03b 8463 04bd 88c9 363d
00000050: b5c8 d5bc 959a cd3c cbe3 3a3d 2cf4 013a
00000060: 628d babb 7912 8ebc d763 febc 538a 953d
00000070: 1efa 10bc c93e 1239 488e 833d de40 813d
00000080: d1b4 1a3d dc04 e0bc d6e0 19bd 325e ff39
00000090: 2be1 7abd 92cb 24bd cac7 383c 274d 34bd
000000a0: a39a 6f3b e019 853d f7ee 8dbc b10e 6c3d
000000b0: 7728 523d 8950 363d a7ab 43bd 5202 5bbd
000000c0: 2d9f d43c 061d 60bc 60ea a73d b0a0 98bc
000000d0: a4ec 773d 0e00 72bd 8922 1bbd 3f86 bf3b
000000e0: 612c aabc 70f4 61b7 739b 323d 3726 fb3c
000000f0: 324a 3cbc 79c9 053d b6a3 2abc f35c 7fbd
00000100: 5780 a83d 20b6 5e3d 2ebb 563d 9ecb 58bd
00000110: 5eda 86bd 8102 84bd 2cb6 213d c404 10bc
00000120: 728c 613d 0221 273d 3662 2f3d aacd 11bd
00000130: b60a 853c 911b 713d 5cf7 d2bc 8eb8 603d
00000140: c6f8 643c b055 6d3d d48d 8b3d 4cdc 3b3d
00000150: 56f4 42bc 20ba 2d3d e88a f83c 8926 ad3c
00000160: 8a22 ab3d 9346 5f3b 7fce 523c 1d0a a43d
00000170: a7af 6ebc 725e 923d a4fc 903c 570b 32bb
00000180: b8a8 943c 5f5f fcbc 532d 9cbc e13f a93c
00000190: b09b 173d a661 883d ac7f 5b3d 6b8c 6cbd
000001a0: f51e d13c c6ae cabc 667f c33c 910d 103d
000001b0: 6a28 a93c c833 73bc d18a 883c 812c 4dbc
000001c0: d65f 5b3d 7b76 8cbc cbe0 843c 2705 bdbc
000001d0: f3be 7f3d 186f fcbc 32bc eb3c a152 f1bc
000001e0: 5fba 7b3d 7d7a 87bc bd74 60bd fdb6 b53b
000001f0: 2edb 453c eac4 773d f50c 113d d940 96bd
0.022770377 0.058246125 -0.018219635 0.0019026934 0.034411438 0.04016482 0.01124147 0.029024072
-0.008247344 -0.03894271 0.021261256 0.052298352 0.023926228 0.05807216 0.03889002 0.006121661
0.012304057 0.006841095 -0.032321468 0.04462579 -0.026096681 0.025098125 0.045627397 0.0004957344
-0.0056931237 -0.017342793 -0.031053467 0.07301774 -0.008848695 0.00013947034 0.06423622 0.063112006
0.037770096 -0.027346067 -0.037567936 0.0004870757 -0.061249893 -0.040233202 0.011278102 -0.04401889
0.0036560677 0.06499076 -0.017325861 0.0576312 0.05130812 0.044510398 -0.047771122 -0.05346901
0.025954807 -0.013678795 0.08199 -0.01863131 0.060528412 -0.059082083 -0.037874732 0.005844861
-0.020773115 -1.3467958e-05 0.04360528 0.03065787 -0.011492299 0.032662842 -0.010415008 -0.062344503
0.08227604 0.054372907 0.052424602 -0.05292856 -0.06584619 -0.0644579 0.039480373 -0.008790199
0.05506558 0.040802963 0.04281827 -0.035596527 0.016240459 0.05886418 -0.025752716 0.054863505
0.013975328 0.057943046 0.06814161 0.04586439 -0.011899075 0.04241383 0.030339673 0.021136539
0.08356197 0.0034069165 0.012866615 0.080097415 -0.014568246 0.0714692 0.017698593 -0.0027167404
0.018146858 -0.030807195 -0.019064581 0.020660343 0.03701371 0.0665925 0.053588554 -0.0577511
0.025527457 -0.024741542 0.02386446 0.035169188 0.020649154 -0.014843889 0.016667755 -0.012522818
0.053558193 -0.01714634 0.01622047 -0.023073746 0.062437963 -0.030814692 0.028776262 -0.029458346
0.061457034 -0.0165379 -0.05479883 0.0055454955 0.012076182 0.060490526 0.035412747 -0.073365875

network.2.weight f4 [128, 128]
00000000: 36f5 9bbd 8c11 0b39 a968 9ebd 8178 9f3b
00000010: 1f35 44bb de5b aabd 04a2 cd3c dba3 51bd
00000020: 5de0 b93d bafd 833d 4555 a53d c6b5 babc
00000030: 0bad 3fbd 681a 9b3c 8b0b 11bd 8b7f 693d
00000040: b6d2 bf3d 4e0e bcbc 1dc4 8bbd 088a 90bd
00000050: a8e9 983d b709 823d ca38 163d d58f 11bc
00000060: 45a4 4bbb a159 26bd 9c85 983d 6ffe a63d
00000070: 9416 d33d ebf5 c8bc 44bb 843c eeaa 563d
00000080: 10c4 8d3d 4c6a c83d 007f afbc ba5c fd3b
00000090: d326 93bd 074d 5e3b b241 8fbd 5904 febc
000000a0: d444 823b 3bf2 a7bd 2e68 313d 7db4 05bd
000000b0: ebd9 b8bd 114d 8bbd c37c a2bc 6577 4dbd
000000c0: a0cb fe3b bedc cb3c 4018 df3d e201 593d
000000d0: c51f af3d ea8d 71bd ac64 0d3d 0636 adbc
000000e0: 1709 a83a 48dc bb3d 1bec 6a3d bf61 be3b
000000f0: faee 1c3c b0e4 dfba 7c13 8b3d 213c a0bb
00000100: 4bbb 7c3d 48f3 a03b 50c7 71bd fca4 8f3a
00000110: 32bd 96bd 1b12 d0bb 2ae3 f03c df1e 7d3d
00000120: 7bf8 0fbd d394 8e3d 4095 fc3c 76e7 623c
00000130: df22 f73b 8056 3d3d 574e b53c 06be cc3c
00000140: 38a5 693d 5072 453d 7c74 90bd 389f c63c
00000150: 29fc a9bb d5b4 a13d 733b acbc b63f f3bc
00000160: c778 213d e813 80bc ec5c 7bbd 109f 75bd
00000170: 8de1 62bd 1bec 5f3c 7e3f 1a3d dff8 99bd
00000180: 2351 d3bc 2f81 793d 73f0 ea3d 56fe 2b3d
00000190: 7578 9dbb c626 3f3d 4992 a93c c818 c33d
000001a0: ba4f 9f3d 4ffb c13c b06c 883d 8341 93bc
000001b0: e132 d13d a7e7 4bbd 4d9a 8e3d afc1 9e3d
000001c0: d9d6 9a3d 09d2 82bd 601a b93c 84fd acbc
000001d0: f1b5 27bc 6a69 7f3d 9477 cebc 3b3b 4bbd
000001e0: 3d4a c8bc 2782 30bd a14b d23b e87e a93c
000001f0: 8187 c03d ffa7 a53d 1be4 413d 33cb c83d
00000200: 08c6 213a 887c 77bd 5649 efbc b0ba 92bd
00000210: d6b3 7cbc 3f32 9c3d 56c7 073c 841b 5fbd
00000220: e84b e03c 49d1 12bd 92a9 d8bc 27cd 90bd
00000230: 97b8 abbd bf9e 9abc 02cc 443b fa39 3dbc
00000240: f39b b63d 2875 a23d e384 8d3c a37a 4bbc
00000250: 699b b63d 8a24 1f3d e48a 46bd 4278 6a3d
00000260: e939 3bbd 037a 773d 9140 193c 0de0 5b3d
00000270: 9cf0 11bc 4703 e53c c082 3e3b 64dc af3b
00000280: b14d 8b3b fa09 a6bd 6f8b 473d 7508 a03d
00000290: 9316 9b3d f748 4d3b 3ef4 aa3d 3efb 863d
000002a0: 7384 22bd b2f8 ddbc 384d 14bd 0d64 123d
000002b0: 9e26 913c 0db2 28bd 7dc4 2d3d 35cf 213d
000002c0: f297 7d3d d447 353d da8f 5c3b e839 b5bd
000002d0: ebf3 9ebd 9860 363d b329 66bc 3ce3 133d
000002e0: 04cb 9f3d 5ab2 52bc 9ca4 d43a 987f 6cbd
000002f0: 0b7b bb3d 1781 babc 28d5 773d 7623 113d
00000300: bff0 9cbc 27bb 4cbd 96ae 1abd 89ba 2c3d
00000310: 8fb3 b53d de04 a43d 387a 55bc c682 1fbd
00000320: 4d04 f23c 6eeb efbc 7159 9dbd 18e5 413d
00000330: fb3c 69bd a01c a2bd 70fb 76bc 1ac7 7e3d
00000340: 454a 78bd b5e7 0b3d 2991 803c 123b adbd
00000350: 3a9f 753c 1ae4 6ebd ea6c 58bd 215e 23bd
00000360: 2e29 663d c3de f6bc 9660 673c 1903 623d
00000370: c2a5 21bd b370 9e3d 2c67 bdbb 2a7a 97bd
00000380: d880 593c 7f28 93bd b33f 083d 606a 83bd
00000390: e0ad e13c 62ac b63d 066e 73bd 65f3 48bc
000003a0: 147e 943d d545 d3bc 8ab2 6d3d 75b8 1d3d
000003b0: 0595 63bc cb19 4d3d 604c dc3d 8db7 a93d
000003c0: 0f0c b6bc 89c9 64bd 1e17 99bc 2d89 a2bd
000003d0: b82c 22bc f34a a93c f865 813d 03fd 33bd
000003e0: cff5 ae3d af84 91bd 9e74 463b 5797 dc3d
000003f0: e9e7 2c3d a59a d4bb b148 a9bd f221 c53d
-0.0761513 0.0001326261 -0.07734806 0.00486666 -0.002993889 -0.083183035 0.02510167 -0.051181655
0.09075997 0.06444879 0.080729045 -0.022791754 -0.046795886 0.01893349 -0.0354114 0.0570064
0.09366362 -0.02295604 -0.06824515 -0.07057577 0.074664414 0.06349509 0.036675252 -0.00888439
-0.0031073254 -0.04061282 0.07447359 0.08153998 0.10307041 -0.024531325 0.016202576 0.052409105
0.069221616 0.097858995 -0.021422863 0.007732001 -0.071851395 0.0033920424 -0.06994952 -0.031007932
0.00397549 -0.08200499 0.043312244 -0.03264283 -0.090259396 -0.068018086 -0.019834882 -0.05016269
0.007775739 0.024885532 0.10893297 0.05298031 0.085509814 -0.05897323 0.034519836 -0.021143924
0.0012820092 0.09172875 0.057354074 0.005809992 0.009578461 -0.0017081704 0.06790826 -0.0048899804
0.061702054 0.004911814 -0.05902797 0.0010959203 -0.07360305 -0.0063498146 0.029405195 0.06179702
-0.03514908 0.0696198 0.030832887 0.01384913 0.0075419988 0.04622507 0.022132082 0.024992954
0.05704233 0.04820472 -0.07053468 0.024245843 -0.0051875305 0.07895819 -0.021024441 -0.029693466
0.039421823 -0.015634492 -0.061367914 -0.059966147 -0.055390883 0.013667132 0.037658207 -0.075181715
-0.025795525 0.060914215 0.11471643 0.0419906 -0.0048056194 0.046667837 0.020699637 0.09526211
0.077788785 0.023679404 0.066613555 -0.017975574 0.102147825 -0.049781468 0.06963024 0.07751786
0.0756051 -0.06387717 0.022595584 -0.02111698 -0.010236249 0.06235639 -0.025203504 -0.049617033
-0.024449462 -0.043092873 0.006417707 0.020690396 0.09400845 0.08088683 0.04733668 0.09804382
0.00061711716 -0.060421497 -0.029209774 -0.07164514 -0.015423736 0.07626771 0.0082872715 -0.0544696
0.027379945 -0.03584412 -0.026448045 -0.0707038 -0.08384817 -0.018874524 0.0030028825 -0.011549467
0.08916464 0.07932502 0.01727528 -0.012419376 0.08916361 0.038853206 -0.0484723 0.057243593
-0.045709524 0.060419094 0.009353773 0.05368047 -0.008907463 0.027955664 0.0029069632 0.005366849
0.004251205 -0.08107372 0.04871696 0.07814113 0.07572665 0.0031324008 0.08347367 0.065908894
-0.039677095 -0.027096126 -0.036206454 0.035739947 0.01771861 -0.041185427 0.042423714 0.03950425
0.061912484 0.044257954 0.0033655078 -0.08848935 -0.077613674 0.044525713 -0.014048028 0.03610538
0.07802394 -0.012859905 0.0016223374 -0.05773887 0.09154328 -0.022766633 0.060506016 0.03543421
-0.019157765 -0.04998317 -0.037764154 0.04217008 0.08872139 0.08008741 -0.0130296275 -0.038943075
0.029543066 -0.029287066 -0.07683075 0.04733762 -0.05694292 -0.07915616 -0.015074596 0.062201597
-0.060617704 0.03415652 0.015694218 -0.084585324 0.014991576 -0.058323003 -0.052838244 -0.03988469
0.056191616 -0.030135518 0.014122149 0.055178735 -0.03946472 0.077363394 -0.0057801213 -0.07396348
0.013275348 -0.071854584 0.033263873 -0.06416774 0.02754873 0.08919598 -0.0594311 -0.012265061
0.0725061 -0.025790134 0.058031596 0.03850599 -0.0138905095 0.050073426 0.10756755 0.08286963
-0.022222547 -0.05585626 -0.018687781 -0.079363205 -0.009898357 0.020665621 0.06318277 -0.043942463
0.08542978 -0.071053855 0.0030281912 0.10771053 0.042213354 -0.0064881616 -0.08265818 0.09625615

network.2.bias f4 [128]
00000000: 0cca bd3d 16f7 c03d 9e55 d13c 649f 9bbc
00000010: 4056 173d 6806 b8bc cb3e 81bd 0178 163d
00000020: 7ee3 acbc 39f5 45bb 4c48 5abd 907c 50ba
00000030: 9097 383d 3955 263d 2abc a13c dc5f 843d
00000040: 5c8e 71bd a83c 87bd e68f fabc 8f15 423d
00000050: 306c bc3c 5dcd 93bd 1474 83bd 342a 9c3d
00000060: 8d0e 053d 7761 d53a b23f f43c f1c2 b2bd
00000070: c5cf 26bd 7248 7ebd bd26 27bd f251 3f3d
00000080: 4c5f 3bbd da49 803d 86a8 693d 2ee6 753d
00000090: 254b 54bd 154b 843d e505 c13d 4f26 aabc
000000a0: d3f6 923c 7a4c 46bd adb9 993c 293f 013d
000000b0: f465 8fbd b53e afbb 960b 92bd 9ea2 a0b9
000000c0: 191f abbb f775 9e3d b1f4 f33b cdff 763d
000000d0: ab85 1f3d 0d39 1dbd 7249 3ebd ddd9 31bd
000000e0: 1764 ddbc cb77 4bbc 837e 7abd 3312 dd3b
000000f0: 4b46 80bd 8acc 733d 5fd1 f2bc a275 fa3c
00000100: 6af5 16bc 2275 783d 1586 23bd db3f 683d
00000110: 81e8 57bd bdad 843c 05cc f03c 2600 e93b
00000120: 71e8 06bd ae7c d7bc 85c6 eabc 6495 58bd
00000130: 3fcd 9b3c 4999 c13c bc32 d2bc 5ed6 cdbc
00000140: 05f4 983b 7c60 a53d b6f2 9abd 9306 9dbd
00000150: f036 82bd ca1c ad3c 2651 ae3d 1402 5f3d
00000160: a348 01bd e612 413d 6a84 5a3d 8f49 9a3d
00000170: 056c 943b 0c47 65bd 8c39 38bc 7b9f b03d
00000180: f497 2ebd 9d5f 38bd f35e acbc fe93 193d
00000190: 3514 333d 6f3c 893c f122 5dbd a534 b23d
000001a0: f30a ef3c fed2 4d3d 1aa0 543d 1408 043d
000001b0: 7a35 ac3d 0870 453d b598 22bd e1a0 91bc
000001c0: 237f 89bd 514c 2c3d 7aab 88bd a9f3 31bd
000001d0: 8645 f4bb 5170 8ebd 0c28 49bd 498a 32bd
000001e0: 0e34 89bc 588b d53d 87e1 65bd 33db e03c
000001f0: 3cdf ccba 0c6f 9ebc e5f4 c13c 4204 ad3d
0.09267053 0.09422128 0.02555352 -0.018996902 0.03694749 -0.022463992 -0.06310805 0.03673554
-0.02110457 -0.0030205979 -0.053291604 -0.00079531316 0.045066416 0.04060862 0.019743044 0.06463596
-0.058973655 -0.06603366 -0.030586194 0.04738384 0.023000807 -0.07216904 -0.064186245 0.07625237
0.03248458 0.0016279657 0.029815529 -0.08728588 -0.04072549 -0.062080808 -0.040808428 0.04670901
-0.04574518 0.06264086 0.057045482 0.06003397 -0.051829476 0.06459633 0.094249524 -0.02077022
0.01793996 -0.048412777 0.018765295 0.031554375 -0.07001868 -0.0053480514 -0.07131116 -0.00030638737
-0.005222213 0.07737344 0.007444941 0.060302544 0.038945835 -0.038384486 -0.04645676 -0.04342066
-0.027025266 -0.012418698 -0.061155807 0.0067465543 -0.06263407 0.059521236 -0.029640852 0.03057367
-0.009213785 0.06065858 -0.039922792 0.056701522 -0.052711967 0.016196126 0.02939416 0.0071106134
-0.032936517 -0.02630457 -0.028659115 -0.052876845 0.019018767 0.023632662 -0.025658958 -0.025126632
0.0046677613 0.080750436 -0.07565825 -0.076672696 -0.06358135 0.021131892 0.085115716 0.05444534
-0.031563412 0.047137164 0.053348936 0.075335614 0.0045294785 -0.05597596 -0.011244189 0.086241685
-0.042625383 -0.04501306 -0.021041369 0.037494652 0.043720443 0.01675245 -0.0539884 0.087014474
0.029180026 0.050250046 0.051910497 0.032234266 0.08408637 0.048202544 -0.039696414 -0.017776908
-0.067137025 0.04206497 -0.066733316 -0.043445263 -0.007454577 -0.069550164 -0.049110457 -0.04358891
-0.016748454 0.10426968 -0.056123283 0.027448272 -0.0015630494 -0.01934006 0.023676345 0.08448078

network.4.weight f4 [5, 128]
00000000: 7dbd 5cbc 9b1f 3d3d 6112 283d 301e 99bd
00000010: aea1 85ba 8400 b4bd 83dd d43c b0aa 853c
00000020: 96ed 33bd feaf 2a3d 0792 00be 1099 abbd
00000030: dd09 34bc 687e cf3b 259f f6bc a7b6 173d
00000040: 9429 9dbd b575 18bd 336a 8abd f9a8 853d
00000050: df72 87bd 8cc1 afbd d163 9bbc cc5e b33d
00000060: f337 fabc b73a fe3d 9b87 bf3d 57b2 773d
00000070: 4ffb cabd ded9 b43c 7cc7 fbbd 6816 95bd
00000080: ba53 1e3d 72da 993d a8d1 fc3c df68 4bbd
00000090: 361c cabd 8ffe ad39 1148 dc3c 426e 59bc
000000a0: 14aa ffbd ac95 ef3c 35ac 6d3d b828 953d
000000b0: fedf a3bd efda 2f3d dd36 92bc 7d7b c3bd
000000c0: 2e10 273d d071 cfbd e2de de3d 5fbc 06bd
000000d0: 5c27 253b 1939 5bbd 41ad 95bd e508 883c
000000e0: 6d4b bcbc 56b3 dc3b 6c35 cd3c c67c ddbd
000000f0: 68fe cb3d ac28 5e3d a2a3 073d 3295 3a3d
00000100: d6d4 75bc 4912 5bbd fa7f adbd ba2a a4bd
00000110: 7c4d a33d a162 663d 1427 953c 3df9 ab3d
00000120: 7f7d a33d 671e c33c 6806 c73d b6fd f0bd
00000130: 31c8 33bd 897d d73c c6e6 003d f788 6cbd
00000140: 7ea5 af3c c8bc 3fbd 3c39 d83d 4d75 323d
00000150: d1ed 81bd 4f5a f03a 7529 f1bd bac2 e4bd
00000160: 6242 f53c b57a 2e3d 31f5 0e3d 1799 2a3d
00000170: 35fd 92bd 0fd2 ebbd b9b1 e43d a659 51bd
00000180: 34e2 09bd 87a9 7e3b 2d95 8ebc c0dc 373c
00000190: 7017 1d3d c2ee 963c f2ff 62bd 0ed3 61bd
000001a0: 9804 e53d 0a31 0d3c 417c c3bd f442 213d
000001b0: cf90 b5bd 08d5 883d 68f8 dbbb 3be1 73bd
000001c0: 3bfd a2bd 79e8 b03c dbf0 963c 746e 1ebd
000001d0: e978 8c3d d52d 1d3d f951 363d d725 91bd
000001e0: dda5 d13b 8343 193d 7df9 70bd e8a8 8d3d
000001f0: 12e9 02bc e0ce 81bd c2e2 bd3b 89f5 de3d
00000200: 2f8c 80bd 5f53 a4bb a2d7 31bd d25c b6bd
00000210: 0863 2abd 964e 27bc 5d45 3e3d 52e2 663d
00000220: bb7c 69bd d835 dbbd 0975 dfbc b74a 24bd
00000230: 362b d2bc 65ac aa3d f45c f73c a3e0 e73b
00000240: 836d 97bd 43a7 a9bd 0b51 6a3d df85 e9bd
00000250: ac26 bdbb 7fdf ac3d bd7e 65bd e831 aebd
00000260: 148f 4bbd 2cb0 21bd 8f7f 6abd 9c13 64bd
00000270: 447d 9bbc 642c 8cbd 10e4 893d 7901 3ebd
00000280: 4e0b 733d 3a78 953c 5bb0 11bd b3ee ae3d
00000290: 465b 1dbd d0f6 853d a540 a8bd 5b84 343d
000002a0: b0e7 b33d 3c91 c53c 9149 b03c b292 a73d
000002b0: 7d36 163d 73f3 f03b 1114 9d3d 3f85 a7bd
000002c0: 352e 8bbd 0b02 323d 9839 39bd a369 11bc
000002d0: 99c5 743d d400 c03b 7549 7dbd d5d8 1a3c
000002e0: 532a 253d b375 e6bd c61c 493b 25ad 893c
000002f0: 8fe7 ac3b eafc 813c d92d 66bc f90b 4b3d
00000300: f2f1 9fbc c4f6 22bd 8ab7 b53d 9d83 a7bc
00000310: 2208 d83c 89f7 a2bd cd86 88bc 6204 ddbd
00000320: 63a3 01bd a537 943d 5ef7 a7bd f0c5 5a3d
00000330: d843 98bd 9b83 5ebc 9cf2 0e3c 898a a5bd
00000340: c843 9a3d 62c2 89bd 1cb9 2abd 0744 23bd
00000350: 2348 38bc aad9 03bd f722 263c b0e9 32bc
00000360: 28b2 6ebd aabb 533d 96f9 fd3c dc65 92bd
00000370: c1dd 33bd 5c66 6dbd dcda 0e3c be42 25bd
00000380: cd35 a2bd 744e babd 5e48 c33c 6747 c3bd
00000390: 3015 58bd af10 f6bc 8454 f3bc 64cc 3dbc
000003a0: 3799 3b3d 48b1 1b3d 8b85 5cba 64e9 89bd
000003b0: 3483 a5bd 78b2 9abd 51a8 793d 8309 7c3c
000003c0: b32c 933d ac3a 893d 1447 10bc 7f6b 503d
000003d0: a8ce a03d ca48 303d e7b6 85bd 0483 b73c
000003e0: beca 5dbd 3af7 7ebd 3ab2 993d e3d8 4f3d
000003f0: 3213 c5bc 1bad 633d 15db fdbc 7ced 67bd
-0.013472912 0.04617272 0.041033152 -0.07476461 -0.0010195279 -0.08789161 0.025984531 0.016316742
-0.04392775 0.041671745 -0.12555705 -0.08378804 -0.01098868 0.0063322075 -0.030105183 0.037039425
-0.07673946 -0.03722163 -0.06758537 0.065263696 -0.06613707 -0.08581838 -0.018968495 0.087583154
-0.030544257 0.12413543 0.093520366 0.060472813 -0.099112146 0.022076543 -0.12293908 -0.07279664
0.038654067 0.07512368 0.03086169 -0.04966056 -0.09868662 0.00033186792 0.026889833 -0.013270916
-0.12483612 0.029246174 0.058025558 0.07283157 -0.080017075 0.0429334 -0.017848426 -0.09545038
0.040786915 -0.1012913 0.10882355 -0.03289449 0.0025200462 -0.05352125 -0.07308436 0.016605804
-0.022985185 0.0067352457 0.025049888 -0.10814814 0.099606335 0.054238006 0.033115037 0.04555244
-0.015004357 -0.053484235 -0.08471675 -0.08015962 0.07973763 0.056246404 0.01820711 0.08397148
0.07982921 0.023818208 0.09718019 -0.117671415 -0.04389209 0.026304977 0.031470083 -0.057747807
0.021441218 -0.046810895 0.105577916 0.043568898 -0.06344188 0.0018337461 -0.117754854 -0.11169954
0.02993888 0.04259749 0.0349018 0.041649904 -0.07177202 -0.11514675 0.111667104 -0.051110886
-0.03366299 0.003885837 -0.017405117 0.0112220645 0.03835243 0.018424395 -0.05541987 -0.055132918
0.11182517 0.008617649 -0.09545184 0.039370492 -0.08865511 0.066812575 -0.006712962 -0.05954097
-0.07958456 0.021595227 0.018425396 -0.038679555 0.06858999 0.038373787 0.04451177 -0.070872955
0.0063979463 0.0374179 -0.05883168 0.06916982 -0.007990139 -0.063382864 0.005794854 0.10886676
-0.06276738 -0.0050148214 -0.043418534 -0.08904423 -0.04159835 -0.010211607 0.04645287 0.05636818
-0.057003718 -0.10703629 -0.027277486 -0.040110316 -0.02565537 0.08333663 0.03019569 0.0070763393
-0.073939346 -0.08283856 0.057206195 -0.11402487 -0.0057724323 0.08441066 -0.05602907 -0.085056126
-0.049696997 -0.03947465 -0.057250556 -0.055682763 -0.01898063 -0.06844404 0.067329526 -0.046388123
0.059336953 0.018245805 -0.035568576 0.08541622 -0.038417123 0.065412164 -0.08215455 0.044071537
0.08784425 0.024117105 0.021519454 0.08182277 0.036673058 0.00735324 0.07669843 -0.081797116
-0.06795923 0.04345898 -0.04522094 -0.008875283 0.059758756 0.0058594737 -0.061837632 0.009451111
0.040323567 -0.11252918 0.0030687316 0.016806195 0.0052766274 0.01586767 -0.014049017 0.049571965
-0.019524548 -0.039786115 0.08872898 -0.0204485 0.026371066 -0.0795737 -0.01666584 -0.107918516
-0.03164996 0.07237176 -0.082014784 0.053411424 -0.07434815 -0.013581182 0.008724835 -0.08083064
0.075324595 -0.06726529 -0.04168044 -0.039859798 -0.0112476675 -0.032190003 0.010140172 -0.010919973
-0.05827537 0.051692642 0.0310028 -0.071483344 -0.043912653 -0.057958946 0.008719172 -0.040346853
-0.07920418 -0.09096995 0.023838218 -0.09535103 -0.05275458 -0.030037252 -0.029703386 -0.011584375
0.045800414 0.038010865 -0.00084122334 -0.06733969 -0.08081666 -0.075535715 0.060951535 0.015383127
0.0718626 0.06700644 -0.008806009 0.050883766 0.078519166 0.043038167 -0.065290265 0.02240134
-0.05414843 -0.062247492 0.07504697 0.05074395 -0.024057005 0.055585008 -0.030988256 -0.056622967

network.4.bias f4 [5]
00000000: 1ae5 6b3d 4332 773d b506 94bd 5952 a0bd
00000010: 3887 b03c
0.057591535 0.060350668 -0.07227842 -0.078282066 0.021548852
