IA2CC/model/testmodel/actor_0.pth (torch, 161096 bytes, 6 tensors)

network.0.weight f4 [128, 175]
00000000: 9236 bfbc b849 b23d 2a8b 87bc b67c a93c
00000010: 5564 b13b 3b48 d23d a628 a8bd 7b5f 58bd
00000020: 2680 843d e234 c1bc e278 2c3d 9a04 b0bd
00000030: 6cfe fb3d b422 9f3c 1ee9 9c3d 6d69 14bd
00000040: 928c 423d b6a0 b1bd 968a e53d 09d2 e0bc
00000050: e2db 833a 1178 edbb 964d 013e 764d c3bd
00000060: 6a09 903d 7ee4 18bd f479 5d3d 8f24 c63c
00000070: ef20 a23c 0ad6 8abc a1b3 303c 372b 213c
00000080: 6f06 01ba d8d6 8bbd c8be 623d b439 2abd
00000090: eb74 8abc 4079 2fbc 5fb3 de3c ea85 593d
000000a0: 22a2 b13d c9c9 66bd 3db5 d9bc c456 783b
000000b0: 2fa7 2cbd f1e9 993c 8c9f 9bbc 4dc8 57bd
000000c0: f818 d93c 93f2 a2bd 7b02 103e 34c0 393c
000000d0: abe3 d63d 6a88 01bc e26b 013d edbc 393b
000000e0: b4bd 5ebc 4d86 c23c 6544 7a3d 3edd 0ebd
000000f0: 8d5b 02bd c2be 933d 101e e2bd 4139 71bd
00000100: 63fe 75bc de8f 933d cc66 a7bd 88cc 8cbd
00000110: 5ddf 0f3d c07d 5cbd 084f fbb9 09b2 80bd
00000120: 04c4 983d c02b 9b3d 6505 463c c795 713d
00000130: edd8 5b3d 733a 013c 55ea aabd 3f35 ba3c
00000140: bcbc 71bc 0bfc 2e3d 01bf 61bc 949c 80bd
00000150: 57e0 a2bd c0b5 033c 0cf2 963d 36c7 263d
00000160: e55d 973d a635 46bd d580 c93a 9bd1 93bc
00000170: 6d72 8f3b 063b 6abd eb97 343d 96a2 143d
00000180: f06e 7bbc eb69 693c 09b3 813c f934 5a3d
00000190: 2423 5dbb 292d 593d d14e d4bb f5d8 20bd
000001a0: ecac aabc 9247 ddbc 03c3 94bd 183a 0abd
000001b0: 5ce9 b9bc df22 493b 4af0 85bd 66d9 0f3d
000001c0: c22a 543d c70a 8f3d 89eb 043d fa3d d13c
000001d0: c782 adbd 1fa8 ad3d 24c5 e73c 9807 6ebd
000001e0: e833 7cbd f8ea 8cbb 3a98 a2bc d447 5cbd
000001f0: e719 4f3d efa0 883a 87a8 3a3d fef7 eb3b
00000200: b152 33bd e289 6e3d ebfe 9abb 4912 773c
00000210: 8f25 023d 2890 c03d a80c 9ebc 2844 acbc
00000220: 9cf3 d5bd 0cda a5bc 7f1c c4bc 4438 963c
00000230: 7639 823d 71c4 68bc f112 c3bd cd8e 373c
00000240: 52f6 0e3d d007 bf39 20d2 0c3d 7ac3 a53c
00000250: e70c 99bd aa8b 2fbd c53b db3b 87f4 bc3d
00000260: a80b 30bc 1c92 143c 877c ca3b 21e6 833d
00000270: a6a6 46bd 8c8f 8f3d 2469 67bd ef08 a93c
00000280: 259f acbd 443b 15bd 60a9 cfbd 45e6 ff3c
00000290: ddca bfbd a40f 23bc 94fa d93c e34f 50bd
000002a0: 9f4c 16bd fda2 4fbc 1b24 cd3a 4e42 a03c
000002b0: d382 5b3c d03e 993d b34e b83c 26d5 0dbd
000002c0: 0c04 c93d 2a2e a1bc c710 943c 40b8 8e3d
000002d0: 4e57 05bd 9d6a cf3c 302d 4c3b a6e2 40bd
000002e0: 40e5 9abb e849 df3c 39b3 c13c 639e 85bc
000002f0: 4c30 91bd 196a cf3d ba74 03bd 8e4f bc3d
00000300: 2e55 d4bd 7f02 b3bc a9ae 0dbc c10c 143c
00000310: a5be dbbc 1719 14bc 2c62 41bd 020c ea3d
00000320: 1064 07bd a61a edbc ab2a 203d 3763 1bbd
00000330: 0b56 d83c dc92 853d bf16 81bc 9a34 15bc
00000340: f8a1 2e3c e232 b03c b7aa 4a3d ce81 8d3d
00000350: 198e 0d3d 6d9b 863d 3155 09bd a2f6 e1bc
00000360: 45e7 223d 62e2 cf3d 94c0 1bbd b79d c6bd
00000370: 24c3 913d a82e ea3c 38e4 943c 922d 8cbc
00000380: 84ba 673d 816b 6a3c b3f5 42bc 0b89 9d3d
00000390: dc4f 8ebb 2b06 0abc e1b0 94bd 25c7 a23c
000003a0: 66ba aabd 299f bfbb dfd0 9a3b d8a1 133e
000003b0: 97ae 473d aaeb 3dbd fc58 b6bc 002b 0cbd
000003c0: a8d4 0abd 6a3c b4bd 882c b3bc c512 a6bd
000003d0: f329 303d efc1 b8bc ce9b 7d3d 3c91 aabd
000003e0: 100c eebc 7f59 edbc 1589 543d 1830 18bd
000003f0: 0ab2 243d 5080 323d fdf5 ba3d a901 10bd
-0.02334145 0.08705467 -0.01654585 0.02068935 0.005413572 0.10267683 -0.08210878 -0.052825432
0.06469755 -0.023584787 0.04210747 -0.08594628 0.123043865 0.019425727 0.07661651 -0.036233354
0.04749734 -0.08673231 0.11208074 -0.027443903 0.0010060037 -0.007246979 0.12627253 -0.09536259
0.070330456 -0.037327282 0.05407138 0.024187354 0.019791095 -0.016947765 0.010785014 0.009836963
-0.0004921918 -0.068280876 0.055357724 -0.041558936 -0.016901454 -0.010710061 0.02718514 0.053106226
0.086735025 -0.05634478 -0.026575679 0.0037893513 -0.042151626 0.01878831 -0.018996976 -0.052681256
0.026501164 -0.079564236 0.14063446 0.011337329 0.10492643 -0.007906059 0.031597026 0.0028341368
-0.013595033 0.02374568 0.061100382 -0.03487896 -0.03182559 0.072141185 -0.1104089 -0.058892492
-0.015014264 0.07205175 -0.08173904 -0.06874949 0.035125125 -0.053830862 -0.00047933334 -0.062839575
0.07459262 0.07576704 0.012086247 0.05898073 0.053673673 0.007887471 -0.083454765 0.022730468
-0.01475447 0.042720836 -0.013778449 -0.06279865 -0.07952946 0.008038938 0.073703855 0.040717326
0.07390956 -0.048391007 0.0015373478 -0.018044284 0.0043776543 -0.057185195 0.044090193 0.036287867
-0.015346274 0.014246444 0.01583244 0.053273175 -0.003374287 0.053021584 -0.006479122 -0.039269406
-0.020834409 -0.027011666 -0.07263758 -0.03374681 -0.022694282 0.003069095 -0.06539972 0.035119437
0.05179859 0.069844775 0.032451186 0.025542248 -0.084722094 0.08479332 0.028292246 -0.05811271
-0.06157294 -0.0043004714 -0.019847978 -0.05377944 0.05056181 0.0010423939 0.045570876 0.007201194
-0.043780033 0.058236964 -0.0047300956 0.015080043 0.0317741 0.094024956 -0.019293144 -0.021028593
-0.104468554 -0.020245574 -0.02393937 0.018337376 0.06358616 -0.0142069915 -0.09525097 0.01120348
0.034902878 0.0003643618 0.03438008 0.020234812 -0.07473164 -0.042857803 0.0066904747 0.092263274
-0.010744967 0.009068038 0.0061793956 0.06440378 -0.048498772 0.07009801 -0.056496754 0.020634143
-0.08428792 -0.036433473 -0.101397276 0.03123773 -0.09364865 -0.0099524595 0.026608743 -0.050857436
-0.036694165 -0.012673137 0.0015651019 0.019562867 0.01339789 0.07482684 0.022498464 -0.034627102
0.09815225 -0.019675333 0.018074406 0.06968737 -0.032553963 0.025319392 0.0031154864 -0.04709115
-0.0047270358 0.027256921 0.02364503 -0.016310876 -0.0708929 0.101276584 -0.03209374 0.09194861
-0.10367809 -0.021851776 -0.008647599 0.009036244 -0.026824305 -0.009039185 -0.047212765 0.114280716
-0.03305441 -0.028943371 0.03910319 -0.037936416 0.026408216 0.06522152 -0.015757916 -0.0091067795
0.010658734 0.021508638 0.049479213 0.06909524 0.034559343 0.06572614 -0.03352851 -0.027583424
0.039771337 0.10150601 -0.038025454 -0.096980505 0.07117298 0.0285867 0.01817523 -0.017111573
0.05657436 0.0143078575 -0.0118994 0.076921545 -0.004343016 -0.008424322 -0.072602995 0.01987035
-0.08336334 -0.005847831 0.0047246064 0.14417207 0.048750486 -0.046367325 -0.022259228 -0.034220695
-0.03389421 -0.088005856 -0.02187182 -0.08109049 0.043008756 -0.022553412 0.061916165 -0.083284825
-0.029058486 -0.02897334 0.051888544 -0.03715524 0.040208854 0.0435794 0.0912895 -0.035157833

network.0.bias f4 [128]
00000000: a041 7c3b 9064 bdbc dcd9 90bd f8f6 8c3d
00000010: 6814 843d c001 47bc d366 9a3d 2021 f1bc
00000020: ce1d 8bbd a05b ac3c 6867 dc3c 238e 2ebc
00000030: f571 4c3d 81a6 0e3d 80d7 59bd 3391 5dbd
00000040: 04de b7bc 1ad5 17bd db04 033d ea36 593d
00000050: f018 113c 5186 273d 4f54 e93c be1d 32bd
00000060: 26a3 433d 7c29 4b3d 184b 03bd b5a1 6f3d
00000070: c10e 8fbd 9498 9d3d b12a 303d f0e1 963d
00000080: f7f7 353d 684e a43c 4603 a83b a6aa 5d3d
00000090: 0b4e 19bd d0eb f2bc e600 0f3c ac23 873a
000000a0: abc6 873d cf2e 573d b9b5 893b a822 1fbd
000000b0: e28a e33c 48fa 4ebd e51c 253c 5499 c53c
000000c0: 436d 6b3d 39a1 0ebd dd90 8abd c310 663d
000000d0: 973d 893d f6cf 503c b3c0 44bc b553 533d
000000e0: 2f9b edbb 0721 d33c 11cb 443d 2ef0 43bb
000000f0: df11 5cbd d9e5 4d3d 1926 983d 7340 833c
00000100: 16cd 753d e9e2 fdbc dfc1 9c3d 2864 d33b
00000110: a0a5 d63b a394 993d 4654 cbbb bfc0 4cbb
00000120: e41a 88bd 2a6a d3bc 8691 32bd 1d80 50bd
00000130: ba8e 31bd fd9c 5fbd dfba 863d 7eb1 5dbd
00000140: 7cf4 9fba f281 4cbd 2839 4aba 2426 16bd
00000150: 8cc8 bfbc eb6c 80bd 0128 8f3d 815b 523d
00000160: ae40 e13c d844 873d d457 05bd 47b4 873d
00000170: 262d 483c cd5f 093d e00a 1b3d 377a 86bd
00000180: 3959 40bd 11f9 6b3d c615 523d e634 fcbc
00000190: 82c8 5e3d cc33 763d e37c af3c f298 6cbd
000001a0: de79 dc3a cd55 873d 4cad 493d 5bcc 1fbd
000001b0: adc9 a9bc e8ae 973d 4d5f 79bd 26cd 11bd
000001c0: 6127 163d b790 043d d63c 72bd 0bd9 923d
000001d0: 69d5 8abd 796a 83bb 806b 213d cb61 303d
000001e0: 0d67 1a3d b48e 63bd 65e2 2fbc 6521 78bd
000001f0: 2f6a 9a3b e1c2 3fbd 098b 1fbd 98ef d6bc
0.0038491264 -0.023119241 -0.070728034 0.06883043 0.06449205 -0.012146413 0.075391434 -0.02943474
-0.06792794 0.021039784 0.026904777 -0.010654005 0.049913365 0.03482676 -0.053184032 -0.05409355
-0.022444732 -0.037068464 0.031987052 0.053030886 0.008856043 0.04089958 0.028482584 -0.043485396
0.047763012 0.04960011 -0.032054037 0.058503825 -0.06985236 0.076951176 0.043009464 0.07367313
0.04442593 0.020056918 0.0051273433 0.05411782 -0.037427943 -0.02965346 0.008728242 0.0010310314
0.0662969 0.052534875 0.004202571 -0.03885141 0.027776185 -0.050531656 0.01007769 0.024120964
0.057477247 -0.034821723 -0.06765912 0.05616833 0.067012005 0.012744894 -0.012008834 0.0515935
-0.0072511653 0.025772585 0.04804522 -0.0029897797 -0.05372798 0.050268028 0.074291416 0.016021943
0.06001004 -0.030991988 0.076541655 0.0064511485 0.0065505058 0.07499053 -0.0062051145 -0.0031242815
-0.06645754 -0.025807459 -0.043595813 -0.05090343 -0.043349005 -0.054593075 0.065786116 -0.054124348
-0.0012203599 -0.049928613 -0.00077142054 -0.036657467 -0.023411058 -0.062707745 0.06990052 0.051356796
0.027496662 0.06604928 -0.032554463 0.06626182 0.0122177955 0.03353863 0.037852168 -0.065662794
-0.04696009 0.057610575 0.051290296 -0.030786943 0.054390438 0.06010799 0.021421855 -0.057763048
0.0016820987 0.06608162 0.049237534 -0.039013248 -0.02072605 0.074064076 -0.0608819 -0.035596035
0.03665865 0.032364573 -0.05914005 0.07170304 -0.06778986 -0.0040104953 0.03940916 0.043062013
0.037695933 -0.055556014 -0.010735129 -0.060578723 0.004712365 -0.04681671 -0.038950954 -0.026237294

network.2.weight f4 [128, 128]
00000000: a48d 0e3d fa40 6c3c 6bd5 a23d db21 a73c
00000010: 84ab bebd 397e eebc b939 ef3c 3e9a a93d
00000020: 27ec 4e3d 1f2e bb3d c018 44bd 4c2d b0bd
00000030: 4318 f23c d3ae a63d 6cbc 1fbd 4ea4 d93c
00000040: 11b4 9e3b 745a 0d3d e8f6 a0bd 269e b53d
00000050: c4e2 cc3d a1be 163d 04a8 99bd e485 9abc
00000060: b53f afbd f299 69b9 f1d4 fd3d 35ee 783b
00000070: c717 5d3d a669 61bd d617 993c ee90 83bd
00000080: 5716 e4bd 30a7 963d 9a0c 2ebd 326a 273c
00000090: 8a98 bdbd f0ab 3ebd fdff f9bc 5fc4 3ebc
000000a0: 5c3d 793d 8d08 813d 0980 0c3e 4601 b43c
000000b0: f504 8e3d 5b60 a53d 9377 f4bc 4cec 8d3c
000000c0: f79f f53c 9280 17bd 609a b13d bd5c a03d
000000d0: 5f48 3b3c 84d9 61bc 98c6 943d 9549 003d
000000e0: fd49 2a3d 5df6 b0bd ae4c ba3a 6c2e 8cbd
000000f0: f935 57bd 731e 9abd cc23 c9bb 8429 30bd
00000100: d783 a23c 6be0 b4bd d6f0 de3b 3632 16bb
00000110: caaf cc3b 01b3 59bd 0d3e b83d c245 e13d
00000120: 8735 2a3d d9a3 31bd bc27 0f3d 6f8c edbc
00000130: b873 0c3d 73e9 373d 889d c2bc 38ee 61bd
00000140: 2fae f03a 099c 58bd ba5e e03c ea78 ec3c
00000150: bdfb 13bc becb a23c ff19 ef3b 525f c0bd
00000160: b81f 523d 10cd ec3d e9fd debd 78a8 47bb
00000170: 400f b63d 4c2f 07bd 0b23 823d 3781 e1bc
00000180: a607 82bc f592 b9bd ad74 f93b 435e 5abd
00000190: e899 b43d 90c5 373d 74c4 1ebd 1003 2a3d
000001a0: 6711 2dbd 5f27 913d 5126 083c d4db 1abd
000001b0: ce7b 2e3d 7271 b33d e425 033d 8e39 703d
000001c0: 2cdc 9f3d 47fa a13d 83a0 6abd 714c e53d
000001d0: 719c cdbd afa6 103d 5e9e 893c 17e2 063d
000001e0: 5a30 bcbd 9c1b 8a3d 482d f3b9 db55 55bd
000001f0: 8dd1 bcbd 9ce1 873c 415e 95bd c912 333d
00000200: c967 e33d bd23 21bd 989a 56bd f73d 51bd
00000210: 0f84 8b3d 065c f23b 0e52 db3b 7c95 a5ba
00000220: 6854 a83b 9ab1 bebc 21a2 033c 9453 a6bd
00000230: 0030 013d 65ab 56bd 29c8 8ebd 61d7 aabc
00000240: 0593 cbbc 651e 37bc 2275 473c cb70 a53d
00000250: e495 8f3d 3319 f23c bab3 4c3d 167e 8c3d
00000260: 9e7d a43d d08b 2dbd 2470 433d 242c cfbd
00000270: 8678 a7bc 9cc4 23bd 56c4 433d 09a8 40bd
00000280: 527e 6f3d 21eb 983d 5615 2f3d 0211 91bd
00000290: 2881 6fbc 3100 abbd f72f 523d 9061 c13b
000002a0: cdc4 403d a198 1ebc ff5d ccbd 4b3b b33d
000002b0: dbc6 843d a2e5 2c3d 71d9 8bbd 568c 903b
000002c0: 48fa 03bd 2d9c 0d3e 0788 e6bc 0cf5 f03b
000002d0: 914f c63c b08f d13c 683e 3bbc 0fb0 463d
000002e0: ea4d 8c3c fef8 45bd 5d00 2b3d f92b e4bc
000002f0: d0e6 863c f908 20bd 5c85 83bd 8df1 bd3c
00000300: 323a d3bd 7c3b c73d f06c 30bc 8e4a 783d
00000310: 9fb1 78bd 9218 55bc 7edb a039 657e e03d
00000320: 2822 8c3d e210 863b ab78 2abc 3c1e eabc
00000330: 2f10 82ba 427c fe3d 453f 40bd e829 313d
00000340: 7a23 aebd 3355 fa3d 52db a3bc d9d1 043e
00000350: 49bd 2abc 9e4e a63d 65b3 a03c 5b38 243d
00000360: dd54 973d c109 d23d cb52 a33d 670a cc3d
00000370: 8814 b6bc 3614 963d 592b db3c c09d 07bd
00000380: 9a30 44bc cdc1 a33d f6fe 8d3d 8bbb c3bd
00000390: cbfe a53d aea4 22bc c908 fb3d 0d16 ee3c
000003a0: 5988 f5bb 8a79 6d3c 232b 723d e0e9 0f3d
000003b0: 49f7 8c38 cc8c 473d 01b2 a83d d48a dcbd
000003c0: fbc4 52ba b5a9 983c 565a 4abc 3f4b 0b3d
000003d0: f17a 53bd c53c 063d 550f e0bc ef2f 75bd
000003e0: 5479 57bd d011 b93b 06ef 8dbc cda7 7abd
000003f0: 5727 883c cb23 80bd 5531 b9bc 06b1 cf3c
0.034803048 0.0144197885 0.079508625 0.020401886 -0.09310058 -0.029112922 0.029202329 0.082813725
0.05051818 0.09139656 -0.047875166 -0.0860239 0.029552585 0.08138814 -0.038998052 0.026567604
0.004843243 0.03451009 -0.07859594 0.08868055 0.100041896 0.03680289 -0.075027496 -0.018862672
-0.08557073 -0.0002227796 0.12394131 0.003798378 0.053977754 -0.055032395 0.018688124 -0.064241275
-0.111370735 0.07356107 -0.042492487 0.01021819 -0.0925761 -0.04655069 -0.030517573 -0.011643498
0.060849532 0.06300459 0.13720717 0.021973263 0.06934539 0.08075019 -0.029842174 0.01732459
0.029983504 -0.03698785 0.08672023 0.078301884 0.011430829 -0.01378477 0.07264441 0.031320173
0.041574467 -0.0864074 0.0014213526 -0.06844792 -0.052541707 -0.07525339 -0.0061383005 -0.043008342
0.019838257 -0.08831867 0.006803612 -0.0022918112 0.0062465416 -0.053149227 0.0899621 0.10999633
0.041554954 -0.043369148 0.034950003 -0.028997628 0.034290045 0.04490037 -0.023756757 -0.055158824
0.0018362458 -0.05288318 0.02738892 0.02886625 -0.009032187 0.019872542 0.0072968 -0.09393181
0.05129978 0.1156255 -0.10888273 -0.0030465405 0.088896275 -0.03300409 0.0635434 -0.027527435
-0.015872788 -0.09061233 0.007612786 -0.05331255 0.08818418 0.044866145 -0.03876157 0.041506827
-0.042252924 0.070875876 0.008309917 -0.0378073 0.042598538 0.08761872 0.032018557 0.05864864
0.07805666 0.07909065 -0.057281982 0.11196221 -0.100396045 0.03531521 0.016799148 0.03293046
-0.0918891 0.06743547 -0.0004638231 -0.05208383 -0.09219656 0.016587071 -0.07293368 0.043719087
0.1110378 -0.039340723 -0.052393526 -0.051084485 0.068122976 0.007396224 0.0066931313 -0.0012633051
0.005137015 -0.023278046 0.00803426 -0.0812141 0.031539917 -0.05240955 -0.06971771 -0.020854654
-0.024850378 -0.01117668 0.012173923 0.08078154 0.07011011 0.029553032 0.049976088 0.068599865
0.08031772 -0.042369664 0.047714368 -0.10115841 -0.020443212 -0.039982423 0.047794662 -0.04703525
0.058470078 0.07466722 0.042744957 -0.07083322 -0.014618196 -0.08349646 0.051315274 0.005901523
0.047062684 -0.009679944 -0.09978866 0.087515436 0.06483241 0.042211182 -0.06828583 0.0044112606
-0.03222111 0.13829108 -0.028141035 0.0073534306 0.024207862 0.02558121 -0.011428453 0.048507746
0.017126996 -0.04833316 0.041748393 -0.027852999 0.016467482 -0.039071057 -0.06421921 0.02318647
-0.10313834 0.097281426 -0.01076816 0.060617976 -0.060716268 -0.013006346 0.00030681113 0.10961608
0.06842452 0.004091368 -0.010404746 -0.02857887 -0.0009923036 0.12426044 -0.04693534 0.043252856
-0.0850286 0.12223282 -0.020002041 0.12970676 -0.010421106 0.08120464 0.019616792 0.040092807
0.07389233 0.10255767 0.07974776 0.099629216 -0.022226587 0.07328074 0.026754068 -0.033109426
-0.011974478 0.07995949 0.069333956 -0.09557255 0.081052385 -0.009926958 0.12257535 0.029063249
-0.0074930605 0.014494309 0.05912317 0.03513515 6.721781e-05 0.04871826 0.082370766 -0.10768667
-0.00080402166 0.01863561 -0.012350639 0.034007307 -0.051630918 0.032772798 -0.02735106 -0.059860166
-0.052605942 0.0056478754 -0.01732589 -0.061195184 0.016620321 -0.06256827 -0.022606531 0.025352966

network.2.bias f4 [128]
00000000: 9e0b 0bbd 54f3 f9bc 3a1e 0a3c 1c05 473d
00000010: 54c7 9cbd 9b0a b6bc 183e 20bd 6e53 a13d
00000020: e190 763d e839 6c3c e6a9 19bd 0425 7e3c
00000030: d269 5e3d d9eb a4bd a70d 253d 8ab3 94bd
00000040: 0fd3 9b3d b4f9 11bd 810f 28bb 81ac 3a3d
00000050: 0d7b 873d 32d7 8a3a 786b 33bd f53f 213d
00000060: 9263 883c be12 a03d a479 c33d d8e5 89bd
00000070: 9454 d5bc e01c 0fbd 691e 713d 0590 0e3d
00000080: 9d1b 5cbd da6a b93c 086a 833d 04bd a5bd
00000090: 2fc0 8a3c 25bc 2a3d 17d2 9cbd d46d 49bd
000000a0: c82a 833d 5b14 7cbd 2a70 41bc 14bc aabb
000000b0: 632e 553d cc33 32bd 2713 a1bd 170d 83bd
000000c0: a84f ac3d 2950 923d ad78 9b3d 6061 04bd
000000d0: c979 9c3d 8eb0 c8bc 5594 033c dde7 babd
000000e0: c71d 81bd c2f3 e53c 81fd da3c e840 093c
000000f0: 895c 263d bedd c63d 2462 a33d 9a8c 903d
00000100: 9512 913d 1274 483c fa89 0cbc eacf 193d
00000110: 05c4 88bd fca7 4cbc 8f16 923d f470 c73b
00000120: 2b4c b93d 39bf de3b 8b31 9c3b 7c6b 0dbc
00000130: beaa a33d 9025 743d 6360 2ebd 72e8 c3bb
00000140: 287c 383d 82f3 4ebd 72c9 4fbb 1227 a1bd
00000150: 0d7c d9bc a841 ae3d 7e3e 90bc 3d6a aa3d
00000160: 7d31 29bd 24d4 22bd c4c7 7f3d 7e0b 26bd
00000170: 0009 c83a bf6e 8a3d 5f82 89bb 62cd 583d
00000180: cfe9 5cbc 4fd6 6d3d 7d25 8b3c b765 e53c
00000190: 3a8f a43d 2b60 bf3c 2097 86bd 5e7c 84bd
000001a0: b61d 16bd c399 823d 046f bd3d 3e4f 21bd
000001b0: cfbc ffbc b26f 513d 5f8a 00bc fc95 19bc
000001c0: 86b7 7f3d 3fc6 18bd e712 18bd 28ed fcbc
000001d0: aac6 6a3d d266 983c de62 f1bc 64cc 9d3d
000001e0: 718c 8fbd bfcc b2bd 6117 0fbd 8c14 c8bc
000001f0: e040 ba3d 75a8 893d 2faa 883d aab8 693d
-0.033946626 -0.030511536 0.008430058 0.048588857 -0.07655206 -0.022221854 -0.039121717 0.07877241
0.06019676 0.014418103 -0.037515543 0.015511755 0.054300137 -0.08052797 0.040296223 -0.07260807
0.076086156 -0.035638526 -0.0025644007 0.04557467 0.06615267 0.0010592698 -0.043803662 0.039367635
0.016649041 0.07816075 0.095446855 -0.06733292 -0.026041307 -0.034939647 0.058866892 0.034805316
-0.05373727 0.022633959 0.06416708 -0.080926925 0.016937343 0.041683335 -0.07657259 -0.049177006
0.06404644 -0.06154285 -0.011806527 -0.005210409 0.05204619 -0.04350643 -0.07864981 -0.06398981
0.08413631 0.071441956 0.075913765 -0.032319427 0.07640416 -0.02449825 0.008030971 -0.09126256
-0.06304508 0.028070334 0.026732208 0.008377291 0.040615592 0.09710263 0.07977703 0.070580676
0.07083622 0.012234705 -0.008577818 0.037551798 -0.06678013 -0.0124912225 0.07133209 0.006086463
0.09047731 0.006797698 0.004766648 -0.008631583 0.07991551 0.059606135 -0.04257239 -0.0059786374
0.04504028 -0.050525196 -0.0031705764 -0.0786878 -0.02654841 0.08508617 -0.017607924 0.083210446
-0.04130696 -0.039753094 0.06244637 -0.040538304 0.0015261471 0.067594044 -0.0041964496 0.052930243
-0.013483479 0.05806571 0.01698565 0.028002603 0.08035131 0.023361286 -0.065717936 -0.06469034
-0.03664943 0.06376984 0.0924969 -0.039382212 -0.03121796 0.05113191 -0.00784549 -0.009374138
0.06243088 -0.037298437 -0.0371274 -0.030874804 0.057318367 0.018603716 -0.029466089 0.07705
-0.07009209 -0.087304585 -0.034934405 -0.02442386 0.09094405 0.06721584 0.06673085 0.057060875

network.4.weight f4 [5, 128]
00000000: 6eac 6fbd 0ab6 a3bd 3962 6f3d 26e4 45bd
00000010: 331f b1bd 1365 b53d d307 d2ba 827c af3d
00000020: befe 0e3d 8fa1 89bd 969c 3abd dfde 09bc
00000030: a139 853d bac1 ec3c 0e61 c8bc 1195 d33c
00000040: 4056 a7bd 4d40 04bc 5dfc bebd 4cf6 393d
00000050: 9b94 c3bd 3de2 b33c 988d ae3d e6b3 903d
00000060: 6fdd 253d db01 77bd 9f52 b6bd 5ff6 3fbd
00000070: edb4 99bd 5119 3cbd 073f 4cbd 3c73 5a3d
00000080: 3360 b6bd e722 21bd a831 07bc 3315 f93c
00000090: 7925 6cbd e143 bebc a310 583c 76e6 5dbd
000000a0: 3def f33a 9a1d 8dbd 9027 1dbc 95ad 233c
000000b0: b50f 943d 0e95 abbd 095d 813a 2830 373d
000000c0: 620a 8b3d dc67 8d3d 5b2a 473d fbba 2ebd
000000d0: 8d40 35bc 5444 bb3c c77f a83d 5a08 98bd
000000e0: 814b 093d a221 12ba 871b bfbc 5356 8cbc
000000f0: e332 8f3c dc21 59bb 36af 97bc 4b21 463d
00000100: 4fc7 39bd 3d57 8e3d 7b10 65bd 7c76 91bd
00000110: 7ab0 75bc 00a5 0ebd 56d7 f5bc d00d 913d
00000120: 3363 643d 4002 a43b 2392 093d 509e d7bd
00000130: f1f6 a0bd 86e3 ce3b 86ab 29bd d61f 5a3b
00000140: 806f 68bb 4aaa 4cbd e152 06bc 48b4 4d3c
00000150: fd48 523d 841d 87bd 03f0 05bc c827 1fbd
00000160: e65a 283d 0ed5 093d b4e8 d4bc 2b19 093d
00000170: 8014 39bb eda4 0ebd c3e0 5d3d 9c0c 493d
00000180: 1933 59bd 1bb0 a73d 794b 97bb f29c 24bc
00000190: d717 d13c 6249 bd3d ddfe ee3c 2658 b9bd
000001a0: 4d50 1d3d 86eb 17bd a6da 413d f1f9 663d
000001b0: 97af e5bd 91b7 b23c f28c 96bd 6b7e d2bd
000001c0: 429d 943d f1a6 d7bc a91f 793d 5150 25bd
000001d0: 4131 9b3d 07f2 2a3c dfb7 363d 7574 49bd
000001e0: bbe6 b03d 1a8a 923d 561d 58bb 865a 103d
000001f0: 1e25 3a3d e417 9cbd 0fb2 0bbd 3d7f 2d3d
00000200: c754 dd3d d4c8 93bd c770 123e d24f 64bc
00000210: 810c ce3d 55d7 e6bd 6658 bbbd 4013 953b
00000220: 05e8 68bd 5c8e b6bd 7d2a 37bd 6291 833c
00000230: 591d 373d 1929 3d3d c4de f53c 21f0 a4bd
00000240: d7fb b1bc dd91 05bd 6513 dc3c ac11 5fbd
00000250: cc1f 133d 0982 7abd 0967 573d 628d 14bd
00000260: d5a7 2fbd 92bb 19bd 25d8 65bd cbf6 6cbd
00000270: e137 3a3c ee11 73bb 316a 4f3d c6ba a43d
00000280: 482d 65bd c290 6e3d e756 983d dcc5 70bb
00000290: 68b5 5b3d 782f 243d 1eff bb3d 6b72 31bc
000002a0: 8178 c4bd bb05 38bc 1972 ca3d 8834 9b3d
000002b0: 0f3b 133b b1e6 1f3d 8050 903d e7da 71bd
000002c0: 0842 94bd 63d8 9fbd ffd6 72bd 7557 c63d
000002d0: bc2a 823d 60d1 cd3d 82d3 903d cdf1 313d
000002e0: 1dd8 83bc c1a8 0ebe 648b 91bc a7a0 523d
000002f0: ebe8 e2bc de31 45bc 09f7 ebbc 16ce cbbd
00000300: 5340 383d b8f0 94bd 7b41 813d 3e96 363d
00000310: 40fa 883c 2508 083d 10b5 6a3d 2873 dabd
00000320: 9559 853d 84d0 36bc 9808 ddbd fdc4 3fbd
00000330: e9e5 7bbd d2d0 683d 72ce 47bc 2c3c 923d
00000340: e7fa 46bd 9058 0ebd 2d91 97bd b2f4 a3bd
00000350: 6bb9 d93d 5503 6dbd 6cfa af3d 92b6 40bd
00000360: b8c8 71bd e2c5 353d d7fe 80bd e8d2 67bd
00000370: cbbe 983d e801 bdbd 801d 15bc 181a 37bd
00000380: 8284 623d 1c0d 4a3d f6a7 993d 6150 72bd
00000390: dd44 83bd cdc9 fabd 5fdd 61bd 7d4e 62bc
000003a0: dcfd 753d 8e22 90bd 2f80 94bd 5181 9ebd
000003b0: 6529 da3d f773 07be 54e4 aabc 9857 063c
000003c0: fae3 5fbd a71d c03d fc42 01be 5300 863c
000003d0: 4620 7d3d a56c b93b a25e e8bd c34a 6e3c
000003e0: 0f61 873d e17b c53b 7769 cf3d 8f92 fa3c
000003f0: 95bd b8bd b0f5 66bd 8000 8e3d d4e7 fc3d
-0.05851405 -0.079937056 0.05844328 -0.048313282 -0.08648529 0.08857169 -0.001602406 0.0856867
0.03491091 -0.06720268 -0.04555949 -0.008414953 0.065051325 0.02890097 -0.024460342 0.025827916
-0.08170748 -0.008071971 -0.09325478 0.045400903 -0.095498286 0.021958465 0.085231006 0.07065563
0.04049438 -0.060304504 -0.089024775 -0.046865817 -0.07505212 -0.04592258 -0.049864795 0.053332552
-0.08905067 -0.039339926 -0.008251585 0.030405616 -0.057652924 -0.023225727 0.01318756 -0.054174863
0.0018610727 -0.06890412 -0.009591952 0.009990116 0.072295584 -0.08378039 0.0009869646 0.04472366
0.0678909 0.06904575 0.048624378 -0.042658787 -0.011062753 0.02285973 0.082274966 -0.07423468
0.03351927 -0.00055744697 -0.023328556 -0.017131006 0.01748032 -0.0033131754 -0.018516164 0.048371594
-0.04535609 0.06950233 -0.05592392 -0.07102677 -0.014995689 -0.034825325 -0.030009907 0.07082713
0.055758666 0.005005151 0.033586632 -0.105282426 -0.078596 0.006313744 -0.041423343 0.0033283136
-0.003546685 -0.049967088 -0.008198471 0.012555189 0.05133914 -0.065974265 -0.008174899 -0.038856298
0.041102313 0.03365045 -0.025989868 0.033471268 -0.0028240979 -0.034825254 0.054169428 0.04908429
-0.053027246 0.08187886 -0.0046171513 -0.010047184 0.025524063 0.09242512 0.029174263 -0.09050016
0.03840666 -0.037089847 0.04732766 0.056390706 -0.11215132 0.021816047 -0.07351102 -0.102780186
0.07256557 -0.026324721 0.06082121 -0.0403598 0.07577754 0.01043368 0.044608947 -0.049183328
0.08637758 0.07155247 -0.003297647 0.03524258 0.045445554 -0.07621744 -0.034105357 0.042357672
0.108071856 -0.07216039 0.14300834 -0.013935046 0.10060979 -0.1127154 -0.0914772 0.004549414
-0.056861896 -0.08913872 -0.044718254 0.016060535 0.044705722 0.046181772 0.03001345 -0.080536135
-0.021726532 -0.03260981 0.026864717 -0.054460213 0.035918996 -0.061159167 0.052588496 -0.036267646
-0.042884666 -0.037532397 -0.056114335 -0.057852548 0.011365862 -0.0037089544 0.05063838 0.08043437
-0.055951387 0.05824352 0.0743845 -0.0036739027 0.0536398 0.040084332 0.09179519 -0.010830502
-0.09593297 -0.011231835 0.09885044 0.07578379 0.0022465622 0.039038364 0.07046604 -0.059046652
-0.07239157 -0.07804944 -0.059287068 0.0968465 0.06355807 0.10049701 0.07071592 0.04344349
-0.016094262 -0.13931562 -0.017766662 0.05142274 -0.027698955 -0.012035815 -0.028804319 -0.09951417
0.04498322 -0.07272476 0.063113175 0.044576876 0.016720891 0.033210892 0.05730158 -0.106664956
0.06511227 -0.011158112 -0.10792655 -0.046818722 -0.061498556 0.05683977 -0.0121952165 0.07140383
-0.048579123 -0.03475243 -0.07400737 -0.08005656 0.10631069 -0.057864506 0.08592686 -0.047049113
-0.05902931 0.04437817 -0.06298607 -0.05659762 0.07458266 -0.09228879 -0.009101272 -0.04470262
0.05530215 0.04932891 0.07502739 -0.059158687 -0.06409619 -0.12245522 -0.055142757 -0.013812658
0.060056552 -0.07037841 -0.072510116 -0.07739509 0.10652427 -0.13227831 -0.020860828 0.008199595
-0.054660775 0.09380656 -0.12623209 0.016357576 0.061798356 0.0056587034 -0.11346175 0.014544192
0.06610309 0.0060267304 0.10127538 0.030587463 -0.09020535 -0.05638665 0.06933689 0.12348905

network.4.bias f4 [5]
00000000: 4893 9fbd 3751 533d 8cae 9e3d 0641 b83d
00000010: 0221 283d
-0.077917635 0.051591124 0.07748136 0.08996777 0.041047104
