IA2CC/model/testmodel/actor_1.pth (torch, 161096 bytes, 6 tensors)

network.0.weight f4 [128, 175]
0	0x3cb01be6	0.021497678
1	0xbbc32c2d	-0.005956194
2	0x3d03de17	0.032194223
3	0xbdcb9220	-0.099399805
4	0x3ca1c075	0.019745091
5	0xbc385a23	-0.011251959
6	0x3db31ac5	0.0874534
7	0xbda684c9	-0.081307955
8	0xbb756257	-0.0037442648
9	0xbd3bbd66	-0.04583492
10	0x3c401af0	0.011725172
11	0xbd621295	-0.055193502
12	0xbd92fcc4	-0.071771175
13	0x3cb19c74	0.021681048
14	0x3cab3ad5	0.020902077
15	0x3d046137	0.032319274
16	0x3c262111	0.01013972
17	0xbc24c389	-0.010056385
18	0x3c0cd168	0.008594848
19	0xbda21b88	-0.079154074
20	0xbd6290e9	-0.05531398
21	0xbd96d7b3	-0.0736536
22	0x3c9af07e	0.018913504
23	0xbcb327f5	-0.021869639
24	0xbc896d58	-0.016775772
25	0xbc31bedf	-0.01084873
26	0x3d573762	0.05254305
27	0xbd8a7d41	-0.067621715
28	0xbc388af5	-0.011263599
29	0x3cebf11b	0.028801491
30	0xbb9437fe	-0.0045232764
31	0x3c8b3943	0.016995078
32	0xbd9503da	-0.07276125
33	0x3d8ff775	0.070296206
34	0x3d3abd81	0.04559088
35	0x3d06a33d	0.03287052
36	0xbd22294b	-0.03959016
37	0xbc9db7d1	-0.01925269
38	0x3caa39da	0.020779539
39	0x3d7b7113	0.061387133
40	0x3d6c5df7	0.0577068
41	0xbd836edc	-0.06417629
42	0xbd76cf22	-0.06025613
43	0x3d80d5b6	0.06290762
44	0xbd01570a	-0.031577148
45	0x3d18f0ce	0.037339024
46	0xbd385df2	-0.04501147
47	0xbd5d72ee	-0.054064684
48	0xbc371590	-0.0111745745
49	0x3d711236	0.058855258
50	0xbdd79397	-0.105261974
51	0xbd591850	-0.0530017
52	0x3d109116	0.035294615
53	0xbaa6d7ee	-0.0012729147
54	0xbd63c4db	-0.055607658
55	0xbd909615	-0.07059876
56	0x3d5d71ee	0.05406373
57	0xbd256464	-0.040378943
58	0x3d4be509	0.04977897
59	0xbcc980dc	-0.024597578
60	0x3c85fbd4	0.016355433
61	0x3d83b57d	0.064311005
62	0x3da43756	0.08018367
63	0x3d38c75d	0.045112003
64	0x3c9a0a22	0.01880366
65	0xbcc5e8a7	-0.024158789
66	0xbdabf751	-0.08396781
67	0x3aefdd22	0.0018300156
68	0xbdcf14c6	-0.10111384
69	0x3d537f6a	0.051635183
70	0xbd8ef0a5	-0.06979493
71	0x3bc2d9c3	0.0059463694
72	0xbdd435e1	-0.10361839
73	0x3c080ee4	0.008304331
74	0xbda38e90	-0.07986176
75	0x3d987a7b	0.07445236
76	0xbc3aa5e5	-0.011392091
77	0x3da98b17	0.082784824
78	0xbc46713c	-0.012111958
79	0xbd1ec415	-0.038761217
80	0xbc268afe	-0.010164974
81	0xbb12701e	-0.002234466
82	0xbcee51b9	-0.029091703
83	0x3c3b90c9	0.011448094
84	0xbdb328b3	-0.08747997
85	0x3d8e031d	0.069341876
86	0xb9f3ba8e	-0.00046487566
87	0x3d2cd376	0.042193852
88	0x3d7a065c	0.06104122
89	0x3c808e4b	0.01569285
90	0xbc77b105	-0.015117888
91	0x3d33d599	0.043904874
92	0xbc9fff13	-0.019530809
93	0xbd2cc1bc	-0.042176947
94	0x3da4e281	0.08051015
95	0x3d8942d3	0.06702199
96	0xbbab067e	-0.00521928
97	0x3c409d0a	0.011756191
98	0xbd2709a5	-0.040780682
99	0x3d70afe3	0.05876149
100	0xbd617343	-0.055041563
101	0xbc9ac708	-0.018893734
102	0xbd7e3c1c	-0.062069044
103	0x3cfe9f6b	0.031081876
104	0x3d9c4a3d	0.07631347
105	0xbd48eea2	-0.049055703
106	0x3dc3fdaf	0.09569871
107	0xbc08f305	-0.008358722
108	0x3d908b4f	0.07057821
109	0x3c3fb5b8	0.01170104
110	0x3b74f4ee	0.0037377435
111	0x3cae842b	0.021303257
112	0xbb9bcba6	-0.0047545014
113	0xbbf47d94	-0.007461259
114	0x3ccefa54	0.02526585
115	0x3c678c08	0.014132507
116	0x3d93e545	0.07221464
117	0x3d54d034	0.05195637
118	0x3c91492f	0.017735092
119	0xbc90e8d6	-0.01768915
120	0x3d873b31	0.06603087
121	0xbd2cdc21	-0.04220212
122	0x3d9d6d1b	0.07686826
123	0xbd946e35	-0.07247583
124	0x3dce63ff	0.100776665
125	0xbcf2ed32	-0.02965412
126	0xbb5cc341	-0.0033685716
127	0xbced7874	-0.0289881
128	0xbcccae39	-0.02498542
129	0x3d255dc2	0.040372618
130	0x3d08ffe0	0.033447146
131	0xbd44776c	-0.047965452
132	0xbd11b5f6	-0.035573922
133	0xbc19f32a	-0.009396354
134	0x3b4da5f0	0.0031379424
135	0x3d657668	0.056021124
136	0xbc6a7f10	-0.014312521
137	0x3d159e49	0.036527906
138	0x3bf0c607	0.0073478254
139	0xbd8bc696	-0.06824987
140	0xbcc6fe2d	-0.024291122
141	0x3d78c1ed	0.060731817
142	0x3d99f01a	0.07516499
143	0x3c15a905	0.009134536
144	0x3d5a0226	0.053224705
145	0xbb940f1d	-0.004518403
146	0x3d40c1cc	0.04705982
147	0x3d65386e	0.05596202
148	0xbd095708	-0.033530265
149	0x3bd28837	0.0064249295
150	0x3db9011b	0.09033414
151	0xbda7da5a	-0.08195944
152	0xbcd4c9bb	-0.025975099
153	0xbc8e443e	-0.017366525
154	0xbc2a0d9e	-0.010379223
155	0xbd1affa4	-0.037841454
156	0xbd13e44f	-0.036106404
157	0xbc4b9007	-0.0124244755
158	0x3ce555df	0.027995048
159	0xbbca0baf	-0.0061659436
160	0x3d210d5d	0.039319385
161	0xbd69c21f	-0.057069894
162	0xbd3d32b3	-0.04619093
163	0x39a0781e	0.00030607072
164	0x3d7f87ff	0.062385555
165	0xbbcb8008	-0.006210331
166	0x3d9cc971	0.076556094
167	0xbd8bb6d5	-0.06821982
168	0xbb9236dd	-0.0044621066
169	0xbb133395	-0.0022461165
170	0xbc39d2d0	-0.0113417655
171	0x3d0032dd	0.031298507
172	0xbc7fa9a1	-0.0156044075
173	0x3cf32aa6	0.029683422
174	0x3d34e704	0.044165626
175	0x3d41f688	0.04735425
176	0x3d8c1b4f	0.06841146
177	0xbcc87611	-0.024470361
178	0xbd16a266	-0.03677597
179	0x3cc2978f	0.02375391
180	0xbd773827	-0.060356285
181	0xbd21007d	-0.039307106
182	0x3db420c5	0.08795313
183	0xbd207914	-0.03917797
184	0x3d62c483	0.05536319
185	0x3b93d4cc	0.0045114513
186	0xbd3e53fe	-0.04646682
187	0x3bb97636	0.005659844
188	0xbc3e33ed	-0.01160906
189	0x3c6b854c	0.014375042
190	0xbb0fec4c	-0.0021960912
191	0x3c93fee0	0.01806587
192	0x39d532f5	0.00040664492
193	0x3d0fd31b	0.035113435
194	0x3d55388e	0.052055888
195	0x3d8172f8	0.06320757
196	0xbd92d386	-0.07169251
197	0xbd5a3c3f	-0.05328011
198	0x3d2fb00e	0.04289251
199	0xbd96738b	-0.07346257
200	0x3cebcfd0	0.028785616
201	0xbdbaf20d	-0.09128199
202	0xbd7af1ce	-0.06126576
203	0x3c86f61b	0.016474774
204	0x3c6cefd9	0.014461481
205	0xbd81e9d9	-0.06343431
206	0xbd94cc21	-0.07265497
207	0xbbc5a817	-0.0060320008
208	0x3ca8c5ef	0.020602195
209	0x3d0f06b8	0.034918517
210	0x3d83d15b	0.06436416
211	0xbbc1e1ed	-0.005916825
212	0xbd05d3a3	-0.032672536
213	0xbd1a1027	-0.03761306
214	0x3cbb0ebb	0.022834172
215	0x3ca1b291	0.019738467
216	0xbd655c86	-0.05599644
217	0xbdac7682	-0.08421041
218	0x3d2676a2	0.04064048
219	0xbc733ae2	-0.014845582
220	0xbbd21573	-0.0064112484
221	0xbdc86e02	-0.09786607
222	0xbcfb53d0	-0.030679613
223	0xbdb0aea4	-0.0862706
224	0xbc01e642	-0.007928433
225	0x3d299ac8	0.041407377
226	0x3cfc1523	0.030771798
227	0xbd0a94fa	-0.03383348
228	0xbd26cd88	-0.040723354
229	0x3cc89aa9	0.02448781
230	0x3d823022	0.06356837
231	0x3d11dc6d	0.035610605
232	0xbcab1646	-0.020884644
233	0x3c033832	0.0080090035
234	0x3d83933f	0.06424569
235	0x3d303dab	0.04302756
236	0x3cb332b1	0.021874757
237	0xbb299b98	-0.0025880095
238	0xbd237fbc	-0.03991674
239	0x3b13cb05	0.002255143
240	0xbd11439a	-0.03546486
241	0x3bdf7864	0.0068197716
242	0xbcd64424	-0.026155539
243	0x3d2cda33	0.04220028
244	0x3d3455b2	0.044027038
245	0xbc7c20d1	-0.015388683
246	0xbd9a2705	-0.07526974
247	0xbcb97b78	-0.022641882
248	0xbd4b8750	-0.04968959
249	0x3c2f96d2	0.010717111
250	0x3d3ad7a7	0.04561582
251	0xbc818b79	-0.015813576
252	0x3d11133e	0.03541874
253	0xbda81423	-0.08206966
254	0x3d51ded2	0.05123789
255	0xbd4ad2c7	-0.04951742

network.0.bias f4 [128]
0	0x3d163f64	0.036681548
1	0xbd92ed62	-0.071741834
2	0x3d83e180	0.06439495
3	0x3c837748	0.016048089
4	0x37b24ad5	2.12541e-05
5	0xbb9af581	-0.0047289734
6	0x3d4c6dc2	0.04990936
7	0x3d98289f	0.07429623
8	0xbd58981f	-0.05287945
9	0xbd4d7d9f	-0.05016863
10	0xbbc0c7d2	-0.0058831954
11	0x3d21fd52	0.039548226
12	0xbd7f9dd3	-0.062406372
13	0xbc68391d	-0.014173773
14	0xbcac4c9d	-0.021032626
15	0x3cd2fc33	0.025755024
16	0xbd2bc212	-0.041933127
17	0x3d81d6e4	0.06339815
18	0xbce5763a	-0.028010476
19	0xbbcfee8e	-0.0063455766
20	0xbd48e0e0	-0.049042583
21	0x3c0b139d	0.008488563
22	0xbc3a216e	-0.011360509
23	0xbc55c4b2	-0.013047384
24	0x3d4ed47a	0.050495602
25	0xbd072056	-0.032989822
26	0xbce215ec	-0.027598344
27	0xbce07903	-0.027401453
28	0x3b5c326a	0.0033599385
29	0xbd82fe8e	-0.06396209
30	0x3d662ce9	0.056195173
31	0xbcc55fd6	-0.02409355
32	0x3db21e84	0.08697227
33	0x3cd3bd1b	0.025847008
34	0x3d527bab	0.05138747
35	0xbc2e5956	-0.010641417
36	0x3d8a4bd5	0.06752745
37	0xbd089c62	-0.033352263
38	0x3d1180ee	0.035523348
39	0xbd51a5b1	-0.051183406
40	0x3d32db49	0.043666158
41	0x3d329314	0.043597296
42	0x3d486555	0.048924763
43	0x3c3e1284	0.011601094
44	0x39b610fe	0.00034726405
45	0xbc8b30aa	-0.016990978
46	0x3bb3dd90	0.005489059
47	0x3d3bab97	0.045817938
48	0xbd73f73d	-0.059561957
49	0x3d4bf263	0.049791705
50	0x3bd5c3a1	0.006523565
51	0xbd6cebbd	-0.057842005
52	0x3da06828	0.07832366
53	0x3d9eae1f	0.07748055
54	0xbc0c980a	-0.008581171
55	0xbd0eb585	-0.03484108
56	0x3d8d290d	0.068925954
57	0x3d360b7a	0.04444454
58	0xbd4152ec	-0.04719822
59	0x3b9f4b77	0.004861291
60	0xbd49e618	-0.0492917
61	0x3d76c392	0.060245104
62	0xbd4f441b	-0.05060206
63	0xbbab9f7e	-0.005237519
64	0x3d2bbf8b	0.041930716
65	0x3d10d1fe	0.035356514
66	0x3d247efb	0.04016016
67	0x3d6e0408	0.058109313
68	0xbd64f71d	-0.055899728
69	0xbcecca9d	-0.028905207
70	0xbd569004	-0.052383438
71	0x3b445e15	0.0029963304
72	0xbcf68ba5	-0.030095885
73	0x3d676773	0.05649514
74	0x3d03664d	0.032079984
75	0x3cd9559c	0.02653008
76	0x3b965d1b	0.0045887358
77	0x3d858c65	0.06520919
78	0xbd3aa284	-0.045565143
79	0xbd1073a1	-0.035266522
80	0x3d5232e5	0.051318068
81	0x3d90ca0b	0.07069787
82	0xbd5bceb3	-0.05366392
83	0xbd70f944	-0.05883147
84	0xbd2f9fc1	-0.042876963
85	0xbcbc0b49	-0.0229546
86	0xbd2ae773	-0.041724633
87	0x3ccb1f04	0.024795063
88	0x3c8f788f	0.017513542
89	0xbd41a7f5	-0.047279317
90	0xbd081799	-0.03322563
91	0xbc2df797	-0.010618112
92	0xbd86e8f8	-0.06587404
93	0xbd5be32f	-0.053683456
94	0xbd499633	-0.049215507
95	0x3cba47c2	0.022739295
96	0xbd2f47e0	-0.042793155
97	0xbd61d1d7	-0.05513176
98	0xbcacb71b	-0.021083405
99	0x3d99cc91	0.07509721
100	0xbd87c6ce	-0.06629716
101	0xbd2ae8b9	-0.041725848
102	0x3d2d14df	0.042256232
103	0x3d832d01	0.06405068
104	0xbda06b24	-0.078329355
105	0xbd2a4a8c	-0.041575
106	0xbd738ada	-0.05945859
107	0xbd60319d	-0.054734815
108	0x3bd4bc5e	0.0064921817
109	0x3cda3de2	0.026640836
110	0x3dbdc083	0.09265234
111	0xbce94466	-0.028474998
112	0xbbdb297d	-0.0066882954
113	0xbc93ddaa	-0.018050034
114	0x3d8d7786	0.06907563
115	0x3ae866aa	0.0017730792
116	0x3d5e4611	0.05426604
117	0xbccf5131	-0.02530727
118	0xbcb32ec8	-0.021872893
119	0xbcfbed11	-0.03075269
120	0x3d88e9ab	0.06685194
121	0x3c6ee96d	0.01458202
122	0x3cc57072	0.02410147
123	0x3cb30c59	0.021856474
124	0xbce548d1	-0.027988823
125	0xbc8a36bc	-0.016871803
126	0xbd3cb8d4	-0.046074703
127	0xbc55bff0	-0.01304625

network.2.weight f4 [128, 128]
0	0x3d754372	0.059878774
1	0x3d457e97	0.04821643
2	0x3d6f5e20	0.058439374
3	0x3cecd020	0.028907835
4	0xbd674ba0	-0.056468606
5	0x3b87b43d	0.004141359
6	0xbd9470fd	-0.07248113
7	0x3cd4e034	0.025985815
8	0x3b770e29	0.003769765
9	0xbd8fff50	-0.07031119
10	0x3cf51811	0.029918702
11	0x3daea953	0.0852839
12	0xbcce4ddc	-0.02518361
13	0x3da1e3c0	0.07904768
14	0x3d1e1d0d	0.038601924
15	0xbb0f300a	-0.0021848702
16	0x3d36427b	0.044496994
17	0x3d8d2174	0.06891146
18	0xbc6fd94b	-0.014639209
19	0x3d93b472	0.072121516
20	0x3d1951d7	0.037431564
21	0xbce86c1e	-0.028371867
22	0xbcf85ac0	-0.03031671
23	0x3c5ea37e	0.013588784
24	0x3d86f1a0	0.06589055
25	0x3ce3785b	0.02776735
26	0xbaa376ff	-0.0012471377
27	0x3cf80774	0.030276991
28	0x3d192978	0.037393063
29	0x3cd99b40	0.026563287
30	0x3dadc7d1	0.084853776
31	0xbd981d57	-0.07427471
32	0xbd601a98	-0.05471286
33	0xbaae077e	-0.0013277379
34	0x3de5c785	0.11219696
35	0x3d8a922d	0.06766162
36	0xbcbed8cc	-0.023296736
37	0x3d497f79	0.049193833
38	0xbc4960c6	-0.012291139
39	0x3d508f91	0.050918166
40	0x3d0445bf	0.032293078
41	0xbc83c9b4	-0.01608739
42	0xbd3d4bf2	-0.046215005
43	0x3d38c7bf	0.045112368
44	0x3a53fad4	0.00080863875
45	0xbc00f0fc	-0.007869955
46	0xbd9e225b	-0.077213965
47	0x3e042e62	0.12908319
48	0xbd8623b3	-0.06549778
49	0xbd8d5a95	-0.06902043
50	0x3cdc6503	0.026903635
51	0x3d02b5a6	0.031911515
52	0x3d5761a2	0.052583344
53	0x3df659ab	0.120288216
54	0x3cecf4a2	0.028925244
55	0x3ce1237f	0.027482746
56	0xbca455b8	-0.020060405
57	0x3e20f75b	0.15719359
58	0x3ccd629e	0.025071438
59	0x3d8675ef	0.06565463
60	0x3cfdb094	0.030967988
61	0x3ce12f61	0.027488412
62	0x3d06d898	0.032921404
63	0xbcd537f3	-0.026027655
64	0xbd5c0634	-0.053716853
65	0xbda59a62	-0.08086087
66	0x3d8f1988	0.069872916
67	0x3d98023d	0.07422302
68	0xbd2ca7c2	-0.042152174
69	0xbcc71964	-0.0243041
70	0x3d1a8472	0.037723966
71	0x3dcfdc9d	0.101495005
72	0x3c4fcb89	0.012682804
73	0xbd66ecaa	-0.056378044
74	0xbcafe31f	-0.021470604
75	0x3d96c99c	0.07362673
76	0xbd21d5d3	-0.03951056
77	0xbd781692	-0.0605684
78	0xbbd6441e	-0.006538882
79	0x3da7b264	0.08188322
80	0x3d94b40b	0.07260903
81	0x3de16df2	0.110072985
82	0xbdab8014	-0.08374038
83	0xbd95d740	-0.07316446
84	0x3c6ccc78	0.014453046
85	0x3d955937	0.07292407
86	0x3cdf56df	0.027263103
87	0x3d8e92dd	0.06961606
88	0xbdb42917	-0.087969
89	0x3cf7ec01	0.030263903
90	0x3da8733e	0.08225106
91	0x3bb3dd94	0.0054890607
92	0x3d5c6d2f	0.053815063
93	0xbcdafda0	-0.026732266
94	0x3d3eebd3	0.04661162
95	0xbd7e18a5	-0.06203522
96	0x3d840e1c	0.06448004
97	0xbd288c3b	-0.04114936
98	0xbd40b15a	-0.047044136
99	0xbc41740e	-0.011807455
100	0x3da5ac9c	0.08089563
101	0xbdb7402b	-0.08947786
102	0x3d8d541f	0.069008105
103	0xbd822ddb	-0.063564025
104	0xbd857d1b	-0.065180026
105	0xbd3a630c	-0.045504615
106	0x3cc30f05	0.023810873
107	0xbd852b81	-0.06502438
108	0xbd7e0b0e	-0.06202226
109	0x3de05abb	0.109548055
110	0xbd251f3f	-0.040313
111	0xbcbd2825	-0.023090431
112	0xbced9afe	-0.02900457
113	0xbc2b4a6f	-0.010454758
114	0x3d09e606	0.033666633
115	0xbd4c7175	-0.04991289
116	0x3dbec642	0.093151584
117	0xbcf5c29a	-0.03000002
118	0xbc656416	-0.014000913
119	0xbd826199	-0.063662715
120	0x3cfcddf1	0.030867549
121	0xbd336b46	-0.043803476
122	0x3d9eb7c4	0.07749894
123	0x3d65aec7	0.056074884
124	0xbc9c5f4f	-0.019088415
125	0x3bf36403	0.007427694
126	0xbcfd597f	-0.030926464
127	0x3c99bd4f	0.018767027
128	0x3d73ef8c	0.05955462
129	0x3db18600	0.086681366
130	0x3d8d747a	0.06906982
131	0xbc140073	-0.00903331
132	0xbadce205	-0.0016852027
133	0xbadb78fa	-0.0016744428
134	0xbb44757d	-0.0029977255
135	0x3cf53fd5	0.029937664
136	0x3bae6d57	0.005323093
137	0xbcfa2b26	-0.030538153
138	0x3d02b21a	0.031908132
139	0x3d200c41	0.039074186
140	0x3c521580	0.012822509
141	0x3b094360	0.00209447
142	0xbda3882e	-0.079849586
143	0x3dcb3d26	0.099237725
144	0x3d89498a	0.067034796
145	0x3bcfbd26	0.006339687
146	0x3dacbe22	0.084347025
147	0x3d98972f	0.07450711
148	0xbdbc0346	-0.09180312
149	0xbd1648fb	-0.036690693
150	0xbda5efae	-0.08102356
151	0x3d15c880	0.036568165
152	0xbd35593d	-0.044274557
153	0x3d8ac4a5	0.06775788
154	0x3cc66306	0.02421714
155	0x3c196979	0.009363526
156	0xbb550229	-0.0032502508
157	0xbcb4cf51	-0.022071512
158	0xb9460993	-0.00018886318
159	0x3d9e5457	0.0773093
160	0x3be2a97a	0.006917176
161	0x3cbdee1f	0.023184834
162	0xbd76e95c	-0.060281143
163	0xbd13574a	-0.035971917
164	0xbd16b620	-0.03679478
165	0xbd9a2963	-0.07527425
166	0x3d85d532	0.065348044
167	0xbd7831f1	-0.060594503
168	0x3db33405	0.08750156
169	0xbd9082be	-0.07056187
170	0xbd0daf8e	-0.03459125
171	0xbc8d90c9	-0.017280953
172	0xbd0aa5cd	-0.033849526
173	0xbd790bcd	-0.06080227
174	0x3d63b1a6	0.05558934
175	0xbddc1442	-0.10746051
176	0xbd51a917	-0.051186647
177	0x3da66034	0.08123818
178	0x3d7a3187	0.06108239
179	0xbd912f38	-0.070890844
180	0xbd83a720	-0.06428361
181	0xbd059891	-0.0326162
182	0xbc101122	-0.008793147
183	0xbd076b03	-0.03306104
184	0x3d2901c4	0.04126145
185	0xbdaa67c5	-0.08320574
186	0xbda02db8	-0.0782122
187	0x3b906217	0.0044062245
188	0x3da3af51	0.07992423
189	0x3dacecc5	0.08443598
190	0xbb4449be	-0.002995118
191	0x3ce3a92d	0.02779063
192	0xbd847333	-0.06467285
193	0xbcd69360	-0.02619332
194	0x3c9bc9d4	0.019017138
195	0x3da07140	0.07834101
196	0x3d8373ea	0.06418593
197	0x3d8870c5	0.06662134
198	0xbd1b6dd6	-0.037946545
199	0x3c857e24	0.0162955
200	0xbd31d35f	-0.04341447
201	0x3d97c764	0.074110776
202	0xbd1adb2a	-0.037806667
203	0xbdb90bb0	-0.09035432
204	0x3be3751c	0.0069414508
205	0xbc9bded9	-0.01902716
206	0x3dbaec4b	0.091271006
207	0xbd37e103	-0.044892322
208	0xbcf0db01	-0.029401304
209	0x3c605253	0.013691503
210	0x3dbfba6b	0.09361728
211	0x3d21a652	0.039465256
212	0x3d453d7f	0.04815435
213	0x3d1b45b5	0.037908275
214	0xbd4b22c8	-0.049593717
215	0x3d77da3c	0.06051086
216	0x3d82cdf2	0.06386937
217	0x3cac17aa	0.021007378
218	0xbd8a7169	-0.067599125
219	0x3dbac143	0.09118893
220	0x3cfbd1fc	0.030739777
221	0x3da9cac4	0.082906276
222	0xbd34addc	-0.044111118
223	0x3d9215f2	0.07133092
224	0xbd788a9a	-0.060679056
225	0x3ae633f0	0.0017563086
226	0xbd0d8df9	-0.034559224
227	0x3d1d6279	0.03842399
228	0xbcb85741	-0.022502543
229	0xbd08d6db	-0.033408027
230	0x3d579e5b	0.052641254
231	0xbd1fa23d	-0.03897308
232	0xbd557c53	-0.052120518
233	0x38912723	6.9214286e-05
234	0x3d507c8d	0.05090003
235	0xbc88900d	-0.016670251
236	0xbcb34f7b	-0.021888485
237	0xbdb7bc52	-0.08971466
238	0xbdc5db85	-0.09661011
239	0x3d000a8b	0.031260055
240	0x3c1684b7	0.009186915
241	0xbd545d44	-0.051846758
242	0xbd21fc57	-0.03954729
243	0x3caf667b	0.021411171
244	0xbd5997a3	-0.053123128
245	0xbceab3f8	-0.028650269
246	0xbd27172c	-0.040793583
247	0xbcadfaef	-0.021237819
248	0xbcda6137	-0.026657684
249	0xbc06b374	-0.008221496
250	0x3d615395	0.05501135
251	0x3dbac3f1	0.09119404
252	0x3ca2be50	0.019866139
253	0x3d9fbb65	0.077994145
254	0xbd8f1320	-0.0698607
255	0xbd990ce6	-0.07473163

network.2.bias f4 [128]
0	0xbb96be97	-0.004600357
1	0x3d34853f	0.044072386
2	0xbdaccb51	-0.08437217
3	0x3d906fcb	0.07052573
4	0xbd2ae5ae	-0.041722946
5	0xbbc5e818	-0.0060396306
6	0xbdc204f4	-0.09473601
7	0xbcf92b6f	-0.030416219
8	0xbd9d274d	-0.07673512
9	0xbd964625	-0.07337598
10	0x3d90b61b	0.07065984
11	0x3d42358a	0.04741434
12	0x3cc5fa91	0.024167331
13	0x3d33848f	0.04382759
14	0xbb888dbc	-0.0041672867
15	0x3d4b87ce	0.04969006
16	0x3cb99884	0.022655733
17	0xbadd81f3	-0.001689969
18	0xbb332f45	-0.0027341407
19	0x39ae53d4	0.00033250323
20	0x3d08750c	0.03331475
21	0xbd9e98c6	-0.07743983
22	0xbcf09c7d	-0.029371494
23	0xbda22703	-0.07917597
24	0x3c3eee41	0.011653484
25	0x3c88737a	0.016656626
26	0x3d4cadb6	0.04997035
27	0x3dace074	0.084412485
28	0x3a5755ac	0.0008214365
29	0x3d5f41c6	0.054506086
30	0xbd9a857e	-0.07544993
31	0x3ab372c6	0.0013690821
32	0xbceb9784	-0.028758772
33	0x3b4c4b08	0.0031172652
34	0x3d069e16	0.032865606
35	0x3ce73e0b	0.028227827
36	0x3d968a5e	0.0735061
37	0x3cb2a8e3	0.021809047
38	0x3d8e2c65	0.06942061
39	0x3d5033bf	0.0508306
40	0xbc0b3d1b	-0.008498455
41	0xbccdb8ca	-0.025112528
42	0x3d6c62a8	0.057711273
43	0xbd536cc4	-0.0516174
44	0x3d85e770	0.06538284
45	0xbced9828	-0.029003218
46	0xbd1c2f54	-0.038131073
47	0x3b8818cb	0.004153346
48	0xbd7a56cf	-0.061117943
49	0x3dbdbd48	0.09264618
50	0x3d9f400c	0.07775888
51	0x3d7c4328	0.061587483
52	0x3d307620	0.043081403
53	0x3dab310e	0.08358966
54	0x3c35b7f7	0.011091224
55	0x3d7466d9	0.059668396
56	0xbd985db7	-0.0743975
57	0x3d1f82c8	0.038943082
58	0x3d4f027b	0.050539475
59	0xbd8a304b	-0.067474924
60	0x3d2186a4	0.039435044
61	0xbcfad331	-0.030618282
62	0xbd8422e7	-0.064519696
63	0xbda4e344	-0.0805116
64	0x3cd6956d	0.026194299
65	0x3db716b5	0.08939878
66	0xbdac932d	-0.08426509
67	0xbd15b8fe	-0.036553375
68	0xbce4ac5e	-0.027914222
69	0x3b356d95	0.0027683724
70	0x3d77b84b	0.06047849
71	0x3d419574	0.04726167
72	0x3d0e5b2b	0.034754913
73	0x3c7b4b34	0.015337754
74	0x3d9cd613	0.07658019
75	0x3d8e2ca0	0.06942105
76	0xbd2f4b51	-0.042796437
77	0xbc12b905	-0.008955245
78	0xbccbe66c	-0.024890147
79	0x3cbc291e	0.022968825
80	0xbc1ac997	-0.009447477
81	0xbd8d5c61	-0.069023855
82	0xbd16290c	-0.03666024
83	0x3cee91b8	0.029122218
84	0x3bad0111	0.005279668
85	0xbd33fe25	-0.043943543
86	0xbcfabf5d	-0.030608827
87	0x3bc1a0b4	0.00590905
88	0x3d53ff30	0.051757038
89	0xbd9aeeb3	-0.075650595
90	0x3913b63b	0.00014086899
91	0xbd58c61a	-0.0529233
92	0x3ca0573e	0.01957285
93	0x3da7a4e2	0.08185746
94	0x3d25699d	0.040383924
95	0x3da41efb	0.080137216
96	0x3cb61c14	0.022230186
97	0xbd2865c6	-0.041112684
98	0x3cecc4df	0.02890247
99	0x3d68b702	0.056815155
100	0x3d9744e9	0.073861904
101	0xbd74cd43	-0.059766065
102	0x3c5c022b	0.013428251
103	0x3c95970d	0.018260503
104	0xbd6e76f3	-0.058218908
105	0xbc8d88e8	-0.017277196
106	0x3d36d395	0.044635374
107	0x3d238a72	0.039926954
108	0x3d1ad31e	0.037798993
109	0x3d64731f	0.05577385
110	0x3d3d5746	0.04622581
111	0x3d5e172f	0.05422133
112	0xbcbb8fb5	-0.022895673
113	0xbca9be4b	-0.020720622
114	0x3d032c80	0.03202486
115	0x3d1d49b1	0.038400356
116	0xbd9ad601	-0.07560349
117	0x3db88fe2	0.090118185
118	0x3db40653	0.08790269
119	0xbc5b5f27	-0.013389385
120	0x3bb45cf0	0.005504243
121	0xbcc090ca	-0.02350654
122	0x3ca1e4f5	0.019762496
123	0x3c0a2952	0.008432703
124	0xbc554b44	-0.013018433
125	0x3daf3c95	0.08556477
126	0xbc36a3ab	-0.01114742
127	0x3caea6aa	0.021319706

network.4.weight f4 [5, 128]
0	0x3d6845d9	0.056707237
1	0x3d051c50	0.032497704
2	0x3d2a40b6	0.04156562
3	0xbd20e1ed	-0.03927796
4	0xbcfc6365	-0.030809114
5	0xbd9a74c6	-0.07541804
6	0xbd422670	-0.047399938
7	0x3d760a30	0.06006831
8	0xbdfc6533	-0.1232399
9	0x3cccab54	0.02498404
10	0xbda96365	-0.08270911
11	0xbcaca2b7	-0.021073682
12	0xbc0077a2	-0.007841023
13	0xbd3253c2	-0.04353691
14	0x3d7c4d66	0.06159725
15	0x3d342cff	0.043988224
16	0x3d333d93	0.043759894
17	0x3c7f418d	0.015579593
18	0xbb594562	-0.0033152928
19	0xbd526fef	-0.05137628
20	0xbd758eae	-0.059950523
21	0x3d5d3cd1	0.054013077
22	0x3da0516b	0.07828029
23	0xbd9e1a4e	-0.07719861
24	0xbd03bef0	-0.032164514
25	0xbd91429e	-0.07092784
26	0x3d8e0693	0.06934848
27	0xbd9902eb	-0.0747126
28	0x3da5e073	0.08099451
29	0x3dab4644	0.083630115
30	0xbc77c515	-0.015122672
31	0x3d868a29	0.06569321
32	0x3da4de81	0.08050252
33	0xbd530c51	-0.051525418
34	0x3dab203e	0.08355759
35	0xbc915b3f	-0.017743705
36	0xbda3de5b	-0.08001395
37	0x3d933871	0.071885
38	0xbd833abb	-0.06407686
39	0x3d9c44da	0.0763032
40	0xbd36e8d5	-0.04465564
41	0x3dafbe59	0.08581228
42	0xbbf883e6	-0.007584083
43	0xbd23ee5b	-0.040022235
44	0xbc844d9e	-0.016150292
45	0x3da88c5d	0.08229897
46	0x3cb70d44	0.022345193
47	0x3de69860	0.11259532
48	0xbd6ba138	-0.057526797
49	0x3cd070f5	0.025444487
50	0xbd48c452	-0.04901535
51	0x3d8ee3ee	0.06977068
52	0x3dee229a	0.116276935
53	0x3d0635d5	0.032766182
54	0xbd44ed56	-0.048077904
55	0x3d37122a	0.044695057
56	0x3c611627	0.013738192
57	0xbdda530a	-0.1066037
58	0x3dbc288c	0.09187421
59	0xbd90aacb	-0.07063826
60	0x3d27cf95	0.04096945
61	0x3d86ef3a	0.065885976
62	0xbc4e2f94	-0.012584586
63	0x3cac2910	0.021015674
64	0xbd36da58	-0.044641823
65	0x3d53c6a8	0.051703125
66	0xbc1f808d	-0.009735239
67	0x3d3fec24	0.04685606
68	0xbe0520f8	-0.13000858
69	0x3d2e2ccf	0.0425232
70	0xbc656094	-0.014000077
71	0xbd7ceffa	-0.061752297
72	0x3deb5564	0.11490896
73	0x3c69bf87	0.014266855
74	0xbce4be5f	-0.027922807
75	0xbda6d2c4	-0.08145669
76	0x3c70feb6	0.014709165
77	0xbd950c45	-0.07277731
78	0xbd9e6f12	-0.07736029
79	0x3db3795a	0.0876338
80	0xbd5bfb55	-0.053706486
81	0x3db23c2f	0.08702885
82	0x3d34f8b5	0.044182498
83	0x3dfe3191	0.12411798
84	0x3cb6bf68	0.022308066
85	0x3c0e09d9	0.00866934
86	0x3d7426eb	0.059607428
87	0xbd4381f3	-0.04773135
88	0xbd9f2dc1	-0.07772399
89	0x3dac2ab1	0.0840658
90	0xbc7139fc	-0.014723297
91	0x3dd09bd3	0.10185971
92	0xbdd3e77e	-0.10346888
93	0xbd5aab5f	-0.05338609
94	0xbd8f3d3c	-0.069941014
95	0x3d755e8e	0.059904628
96	0x3b70c9ff	0.0036741493
97	0x3d18a25e	0.03726422
98	0xbd48fa7f	-0.049067017
99	0x3dbe90e8	0.093049824
100	0x3dadd212	0.08487333
101	0xbd91ee0a	-0.071254805
102	0xbd880720	-0.06641984
103	0xbd289588	-0.04115823
104	0xbd874c0e	-0.06606303
105	0x3df12573	0.11774721
106	0x3cee1059	0.02906053
107	0x3de6ee34	0.112759024
108	0x3d2e3740	0.04253316
109	0xbd51acd2	-0.051190205
110	0x3da24206	0.07922749
111	0x3d701a6e	0.058618955
112	0x3db66932	0.08906783
113	0x3dc51a9a	0.096242145
114	0xbd67017e	-0.056397907
115	0x3c8e9fc5	0.017410168
116	0xbda63320	-0.0811522
117	0xbd6d21e6	-0.057893656
118	0xbcc02d63	-0.023459142
119	0x3dd4c62e	0.10389362
120	0x3c541add	0.012945858
121	0xbd8052f8	-0.06265825
122	0x3db1f37b	0.08689018
123	0xbdb1e2af	-0.086858146
124	0x3d6bd51d	0.057576288
125	0x3db820b7	0.08990615
126	0xbd86f7b7	-0.065902166
127	0x3dca9f7a	0.09893699
128	0xbcd3573d	-0.025798434
129	0x3dcb5584	0.0992842
130	0xbc63c59f	-0.013902097
131	0xbd450096	-0.048096262
132	0xbc0e31d0	-0.008678868
133	0xbc56bfdb	-0.013107265
134	0x3da8c47c	0.082406014
135	0xbd8ff7ef	-0.070297115
136	0x3e050955	0.12991841
137	0xbd953454	-0.072853714
138	0xbbf6a377	-0.0075268107
139	0xbd179e74	-0.037016347
140	0x3d7db022	0.06193555
141	0x3d35e34c	0.04440622
142	0x3cad2993	0.021137988
143	0x3d9c29a4	0.0762513
144	0xbc7e7b4b	-0.015532325
145	0x3d51c4af	0.051212963
146	0xbe008f44	-0.12554651
147	0x3c751519	0.014958643
148	0x3bac31b3	0.005254948
149	0xbdb50617	-0.08839052
150	0xbdbc27db	-0.09187289
151	0x3d539231	0.05165309
152	0xbde4d48d	-0.11173353
153	0xbcfcba9f	-0.030850707
154	0xbc938743	-0.018008834
155	0x3c852626	0.016253542
156	0x3ce596d1	0.028026016
157	0xbcbb39d9	-0.022854732
158	0x3d82f92c	0.06395182
159	0xbdc1f305	-0.094701804
160	0xbe21fd5b	-0.15819304
161	0xbd686a3a	-0.05674193
162	0x3d8c1aa4	0.06841019
163	0x3ce0e7af	0.027454225
164	0x3dad3a88	0.084584296
165	0x3dade450	0.08490813
166	0xbdcbdeaf	-0.09954583
167	0x3d872da1	0.066005
168	0xbd1b7286	-0.037951015
169	0x3c9615d8	0.018320963
170	0x3d14ccdb	0.036328178
171	0x3cf00e14	0.029303588
172	0xbd5909c4	-0.05298783
173	0x3d0d51ea	0.034501947
174	0xbcc42c75	-0.02394698
175	0xbd8a9339	-0.06766362
176	0xbdb7975d	-0.08964417
177	0x3dc31c54	0.095268875
178	0xbd6b8716	-0.057501875
179	0x3d1d68c9	0.03843001
180	0xbdc79fe8	-0.097472966
181	0x3d8b2e93	0.06795993
182	0xbbecd61b	-0.007227672
183	0xbd88e98d	-0.06685171
184	0x3d82aec1	0.06380988
185	0xbd1bec38	-0.038067073
186	0x3cb9e57f	0.02269244
187	0x3d236f00	0.03990078
188	0x3da85f4c	0.082213014
189	0x3d1dd420	0.038532376
190	0x3d9ebb11	0.07750524
191	0xbdf79342	-0.12088634
192	0x3cf32d2b	0.029684624
193	0x3a406d9e	0.0007340553
194	0xbd2183b1	-0.03943223
195	0x3d9b8942	0.07594539
196	0x3d9f1ce9	0.07769186
197	0xbe0f3877	-0.13986383
198	0xbc01ffdb	-0.007934536
199	0xbdb2614f	-0.087099664
200	0xbdf93e04	-0.12170032
201	0xbd9cbc89	-0.07653148
202	0xbdcac148	-0.09900147
203	0xbc32497a	-0.010881776
204	0xbdacf493	-0.08445086
205	0x3d488a7e	0.0489602
206	0xbd68df54	-0.056853607
207	0x3c9a53da	0.018838812
208	0x3d63f4db	0.055653434
209	0x3d58ddd1	0.052945916
210	0x3c8bb9a4	0.017056294
211	0xbdf1b225	-0.118015565
212	0xbcc3b08e	-0.023887899
213	0x3d02b184	0.031907573
214	0xbe022e56	-0.12712988
215	0xbc5b0580	-0.0133680105
216	0x3b039f51	0.0020083974
217	0x3d126ff4	0.035751298
218	0xbd3ca1c3	-0.046052705
219	0xbd624e84	-0.05525066
220	0xbcf60fd9	-0.030036854
221	0x3d7abcc3	0.061215173
222	0x3da3c08c	0.0799571
223	0x3dc923ad	0.09821258
224	0xbd9682ea	-0.073491886
225	0xbd5127ed	-0.051063467
226	0x3ca879d0	0.020565897
227	0xbda6553a	-0.081217244
228	0x3dc0f1b6	0.09421103
229	0x3cd02968	0.025410369
230	0xbc8700d5	-0.016479889
231	0xbd9c5fc3	-0.076354526
232	0xbd152854	-0.036415413
233	0x3ab0e479	0.0013495825
234	0xbdcc506d	-0.099762775
235	0xbc37ea6a	-0.011225322
236	0x3d202120	0.03909409
237	0x3d401916	0.046898924
238	0x3d496437	0.049167838
239	0xbd1a008e	-0.037598185
240	0xbd98013d	-0.07422111
241	0x3d83be5b	0.06432792
242	0x3be19316	0.006883989
243	0x3d277fec	0.04089348
244	0x3de126d0	0.10993731
245	0x3c9e9c90	0.019361764
246	0xbe0cff31	-0.13769223
247	0xbd2f1e5d	-0.042753566
248	0x3c89a07c	0.016800158
249	0xbca6508d	-0.020302081
250	0xbdae0e55	-0.08498827
251	0x3aa9c90e	0.0012953596
252	0x3d933a4a	0.07188852
253	0x3cb30b55	0.02185599
254	0xbba22162	-0.004947827
255	0xbd4dfdee	-0.050290994

network.4.bias f4 [5]
0	0xbd9faa9c	-0.07796213
1	0xbcc955ef	-0.02457711
2	0xbd4df99a	-0.050286867
3	0xbcb1c85c	-0.021701984
4	0xbd8f291f	-0.06990265
