IA2CC/model/testmodel/actor_2.pth (torch, 161096 bytes, 6 tensors)

network.0.weight f4 [128, 175]
000000 77 e5 ad bd cb 60 98 3d 63 ec 25 bc 5e 0c 44 bc
       -0.084910326 0.07440337 -0.01012716 -0.011965839
000010 84 c3 70 3d 90 ad 87 3d 06 3e 22 3d 01 b4 59 3c
       0.05878021 0.06624901 0.03960993 0.013287545
000020 a1 ac 83 bd 3b 10 8d 3c 23 a4 0c 3c a6 d8 fe bb
       -0.06429411 0.017219653 0.008584055 -0.0077772914
000030 5b ff 24 3d dd ab 1a bd d4 48 2c 3d 33 d1 6f bd
       0.04028259 -0.037761558 0.04206164 -0.058549117
000040 78 dd 81 bc 97 e0 b3 bc d1 8e 7c 3d a9 f9 19 3d
       -0.015852675 -0.021957679 0.061659638 0.03759161
000050 63 61 c4 3d 70 b9 d5 3c 95 2c 93 3d a1 06 8a bd
       0.095888875 0.0260894 0.07186238 -0.067395456
000060 79 9b 7a 3d 82 24 92 bc 9b 0f a6 3d 63 cb cf 3c
       0.061183427 -0.017839674 0.08108445 0.025365537
000070 8e f2 9f 3d b5 22 6c 3d 0c 4b 7b bc a1 eb b8 bb
       0.078099355 0.057650287 -0.015337717 -0.0056433235
000080 80 ee dd 3c 23 ae 4e 3c 44 7d a2 3d d1 f0 f2 3c
       0.027091265 0.01261476 0.07934049 0.029655846
000090 31 18 ac 3d e3 9c 90 3a ae dc c4 bc ba 30 a2 bd
       0.08403052 0.0011033084 -0.02403101 -0.0791945
0000a0 c4 75 33 3d 79 40 10 bd 00 03 d4 3d df bf 54 bd
       0.043813482 -0.035217736 0.10352135 -0.051940795
0000b0 7a 33 84 3d 6d 0c 01 3d fc e3 4b 3d 10 07 a7 bd
       0.06455131 0.03150599 0.04977797 -0.08155644
0000c0 8c d4 61 3d cc 78 73 3d 61 b4 12 3d 4e e6 13 3d
       0.05513434 0.059441373 0.035816554 0.036108308
0000d0 cc 60 eb 3c 68 a5 63 bd a1 32 f4 3b 9f 87 bf bd
       0.02873268 -0.055577666 0.0074523245 -0.093520395
0000e0 0b ca 99 3d d5 80 98 bd 43 39 f1 3b 3f a0 4e bd
       0.0750924 -0.07446448 0.0073615625 -0.05044579
0000f0 5a f0 0b bb c9 2a 18 bd cb 01 4e 3d e3 ff 72 3d
       -0.0021352977 -0.037150178 0.05029468 0.059326064
000100 d6 ff 9a 3d 25 ec 8a bd 62 a4 cb 3d b0 aa a4 bd
       0.07568328 -0.06783322 0.09943463 -0.080403686
000110 39 5c 92 3d c1 6e 1a bb b9 f3 d3 3d 87 90 7e 3c
       0.07146496 -0.002356455 0.10349221 0.015537388
000120 f3 6e 19 3d 40 83 9d 3c 7f f1 92 3d 98 a9 2d bd
       0.037459325 0.019227624 0.07174968 -0.042398065
000130 cf 5f 9f 3d a7 b7 e9 bd d7 54 c2 3d fb 07 4e 3c
       0.07781946 -0.11411982 0.09488838 0.012575145
000140 ff 57 82 3d 90 00 c6 3c 51 70 38 bd 80 fc eb 3c
       0.0636444 0.02417019 -0.04502899 0.028806925
000150 35 d9 d6 3c b7 3a 8d bc f3 73 58 3d 78 bd 74 bd
       0.02622662 -0.017239911 0.052844953 -0.059751004
000160 b1 8d 1c 3c e2 d6 4a 3d 10 0b 92 3d 00 2c 25 3d
       0.009555266 0.049521334 0.07131016 0.040325165
000170 65 13 e0 3d c1 0e a6 3c 90 a9 80 3d 4f 80 87 bd
       0.10941199 0.020270707 0.062823415 -0.0661627
000180 a8 2a dd 3c a6 f7 9d 3c be cb d3 bd e8 7e 5a 3d
       0.02699788 0.019283127 -0.10341595 0.053343683
000190 ff a2 e3 3c 90 b2 6f bd 8b 7c 7a bd 67 9c 1d bd
       0.027787684 -0.0585199 -0.06115393 -0.038479235
0001a0 00 cd 37 bd d6 f2 0c bd 79 c7 b0 3c 3c 00 92 3c
       -0.044873238 -0.034411274 0.021579491 0.017822377
0001b0 48 6b 34 3d 08 e8 40 bc 43 cb 7a 3d ad c2 4d bd
       0.044047624 -0.011774071 0.061229 -0.050234485
0001c0 1b 11 03 3d 17 10 c5 bd 99 84 1a 3d f9 b6 97 3d
       0.031998735 -0.096222095 0.03772411 0.07407946
0001d0 58 9b f8 bd e4 d3 49 bc b7 7f cc bd 92 2b 6a bd
       -0.121390045 -0.012318585 -0.09985297 -0.05717046
0001e0 34 d0 05 be 84 b7 ba bc 64 3b bc bd 79 ae 0f 3c
       -0.13067704 -0.022792585 -0.09191015 0.008769625
0001f0 1a f9 3b bd 10 be df 3c 06 36 b9 bd 48 c6 97 bd
       -0.04589186 0.027312309 -0.09043507 -0.07410866
000200 77 3f 04 3d 52 74 c1 3c 1b 2d 01 ba aa fb ea 3c
       0.032287087 0.023615036 -0.0004927681 0.028684456
000210 96 de 3b 3d a5 79 32 3d b3 9c 05 bd 8b 54 85 3d
       0.04586657 0.04357304 -0.032620143 0.06510266
000220 c5 00 9b bd ae 5e 11 3d 0c be cd 3b c0 77 a2 3d
       -0.07568506 0.035490684 0.006278759 0.07932997
000230 68 69 76 bd 3e 4c 05 3d c2 04 63 3c 61 90 86 bd
       -0.060159117 0.032543413 0.013856115 -0.06570507
000240 d2 a7 bd 3c cf f4 55 3b 9e c5 81 3d a2 34 32 3d
       0.023151312 0.0032647138 0.063365206 0.043507226
000250 62 70 ef bc 1e 67 be 3a 0c e2 75 3d c4 6e 97 3d
       -0.029228393 0.0014526581 0.06003003 0.07394174
000260 02 a8 e4 bd 50 76 9f 3d c7 de 8b bd 32 c3 87 3d
       -0.111648574 0.07786238 -0.06829601 0.066290274
000270 68 5d b1 bd 54 b3 0d bd f6 e1 40 bc 34 ae 10 3d
       -0.08660394 -0.03459485 -0.011772623 0.035322383
000280 0e 12 02 be 4c e9 d5 bc b2 c0 d2 3c ca 9c 88 bd
       -0.127022 -0.026112221 0.02572665 -0.0667053
000290 f9 20 36 bc 2d a2 4e bd 1f 3a 0a 3d 87 72 a0 bc
       -0.01111626 -0.05044763 0.033746835 -0.01958586
0002a0 15 bd 20 bb 7e 18 de 3c 2f ae 60 bb 78 4f 05 bd
       -0.0024526764 0.027111288 -0.003428351 -0.03254649
0002b0 88 3b 81 3d d7 2f a0 bc 47 fa 1f 3c 73 31 f1 bc
       0.06310183 -0.019554062 0.009764261 -0.029442525
0002c0 37 01 30 bd ab 10 0e bd 38 dd 2d 3c 92 fa 88 3d
       -0.04296991 -0.034683865 0.010611825 0.066884175
0002d0 2c 02 91 bb 78 67 0a 3a e3 3a 56 3c f2 19 2f bd
       -0.0044253077 0.00052797 0.013075563 -0.042749353
0002e0 32 1f 92 bd 61 9a d9 bc 67 af 1b bc cb 15 33 bd
       -0.07134856 -0.026562871 -0.009502268 -0.043721955
0002f0 7e 70 39 bd 9c 78 c5 3c b0 c9 8c 3c 8e d8 49 3c
       -0.045273297 0.024105363 0.017186016 0.012319697
000300 9c 72 49 3d 43 07 9a 3c 6b bd fa 3c bc 96 3c bc
       0.049181566 0.01880229 0.0306079 -0.011510547
000310 9f fe 1d 3d 89 ce 71 3d 4c 35 ba 3d 89 9d e4 bc
       0.038572904 0.059034858 0.09092197 -0.02790715
000320 d6 92 2c bc 43 ab 34 bd 89 8c 5e bb 16 c6 0e bd
       -0.010533055 -0.04410864 -0.0033958277 -0.03485688
000330 90 6e 7d bd c1 3d 7b bd 41 3f 9f 3d b6 f9 74 3d
       -0.06187302 -0.06133819 0.077757366 0.059808455
000340 34 4b e1 3c 10 2f 33 bc a9 0f 7f bd 63 a7 c8 bc
       0.02750168 -0.010936514 -0.062270794 -0.024493879
000350 f9 5e d8 bc 0d 58 09 bd ea ac ae 3d 08 3f 61 3c
       -0.026412474 -0.033531237 0.085290745 0.013747938
000360 2e 5d 86 3d e1 a9 d5 bd aa 39 1e bd ce d9 11 bd
       0.06560741 -0.104327925 -0.03862921 -0.035608105
000370 0c ca a0 3b 47 4d a0 bd 66 85 8d 3c 6c 5d 5c bd
       0.0049068984 -0.078272395 0.017275523 -0.05380003
000380 38 4e 9a 3d d4 eb 90 bc 9c 53 53 3d 79 66 44 bc
       0.0753445 -0.017690577 0.051593408 -0.011987322
000390 c4 67 f6 bc 9c b1 cc 3c 1f 43 8c 3d ce fb c1 bd
       -0.030078776 0.024987034 0.0684874 -0.09471856
0003a0 95 0c 2b 3d 1d aa c4 bd 1d 09 a4 3d a4 5e a4 bd
       0.041760046 -0.09602759 0.08009551 -0.08025864
0003b0 20 52 44 bb de 1d 4e 3b 38 6e 12 3d 68 7e c0 bc
       -0.0029956177 0.0031450908 0.035749644 -0.023497775
0003c0 ab 77 7d 3d 51 ec c6 bd ff b2 98 3c a9 a1 2f bd
       0.061881702 -0.097130425 0.01864004 -0.04287878
0003d0 1f 77 0b bd af 9a 05 be e2 b6 1e bd 1b 92 2f bc
       -0.03404915 -0.13047288 -0.03874863 -0.010715987
0003e0 84 6a 8a bc 02 a8 02 bb 59 6e 0c bd 9f 07 84 bd
       -0.016896494 -0.0019936566 -0.034284923 -0.06446766
0003f0 f9 d5 bf 3c 8b 2a ca bd 0f e6 84 bd 78 73 9b 3d
       0.02341746 -0.09871396 -0.06489193 0.07590383

network.0.bias f4 [128]
000000 3b e7 b5 39 17 98 74 3d 20 cf a8 3b ba f8 ba 3d
       0.0003469529 0.059715357 0.0051516443 0.09129472
000010 90 3c e4 3c ff 22 db bc 06 cd dd bc af 09 01 3c
       0.02786091 -0.026750086 -0.027075302 0.007875844
000020 4f 04 68 3d ee 26 4b bd f6 e8 db bc 83 4c 01 3c
       0.056644734 -0.049597673 -0.026844483 0.007891777
000030 b4 dc db bc 6b 0e 75 bd 8d 1b 8a 3d e4 b8 a1 3d
       -0.026838638 -0.059828203 0.06743536 0.07896593
000040 ed 7e 14 3d 69 d2 a7 3d 31 0c 27 bd fc 7f 3f ba
       0.03625386 0.081944294 -0.04078311 -0.0007305143
000050 e3 87 91 bd 9e ec 9b bd 54 0e fa 3b 6f a7 50 bd
       -0.071059965 -0.076134905 0.0076311026 -0.050940927
000060 51 43 5d 3d f8 03 27 bd f5 ed 42 bd 0a 95 e5 3c
       0.054019276 -0.04077527 -0.047590215 0.028025169
000070 a4 df 73 bd 22 1e 8d 3c 37 11 6f 3c 81 c4 67 bd
       -0.059539452 0.017226283 0.014591507 -0.056583885
000080 f8 8d 99 3d ff d1 0c 3d c6 22 12 3d d6 ca 26 3d
       0.074977815 0.034379955 0.035677694 0.040720783
000090 b4 a8 56 bd 65 f7 87 3d f2 06 4b 3d 35 58 82 3d
       -0.05240698 0.06638984 0.04956717 0.063644804
0000a0 cd 5c 81 bd 9a 9d 22 bb 40 67 1a 3d 6b f7 f4 3c
       -0.063165285 -0.0024813176 0.037696123 0.029903134
0000b0 4d 3d 6c 3c 8e d6 da 3a 80 08 5a 3d 00 ed a1 bc
       0.014418912 0.0016696022 0.053230762 -0.01976633
0000c0 e9 d5 30 3b fc 2a ff bc d8 cf 50 bd b6 78 e0 3c
       0.002698297 -0.031148426 -0.050979465 0.02740131
0000d0 e1 1a f4 bc e5 5b 87 bd 76 81 1a 3d 1e 99 a3 3d
       -0.029797973 -0.06609324 0.03772112 0.07988189
0000e0 fc b6 86 3d c6 a6 4c 3d 04 7b 00 bc f8 a1 87 3c
       0.0657787 0.049963735 -0.007841829 0.016556725
0000f0 66 c3 6d 3d f6 da 82 bd c2 e2 1d bd 3f ce f0 bc
       0.058047675 -0.0638942 -0.03854633 -0.02939522
000100 e5 92 26 bd 0e 49 6e bd fd d5 2b 3c 62 73 76 3d
       -0.040667433 -0.05817514 0.0104880305 0.06016863
000110 4b f3 1d bd b5 4e 18 bd 6c 08 51 3d 16 95 91 3d
       -0.0385621 -0.037184436 0.051033422 0.07108514
000120 5f f9 f8 3c a5 9b c3 b9 54 4d 78 3d 0d 66 69 bd
       0.030392347 -0.00037309263 0.06062062 -0.05698209
000130 d0 11 bc 3d 36 50 83 3c 1d a9 2a 3d f1 09 86 3c
       0.09183085 0.016029458 0.041665185 0.016362162
000140 de 6d 10 3d 39 c4 d6 3c 0e e5 86 bd 50 e4 57 bd
       0.035261028 0.026216613 -0.065866575 -0.05270797
000150 63 3f f1 3c b6 9d 34 bd 23 07 b5 3d 48 1d 42 bc
       0.02944917 -0.044095717 0.08839252 -0.0118478015
000160 d3 e0 5b bd c2 6d 06 3d f8 a2 73 bd de e7 84 bc
       -0.053681206 0.032819517 -0.05948159 -0.016223844
000170 8b d5 24 bd af 97 92 bc c9 c8 d7 bc 19 88 f4 3c
       -0.040242713 -0.017894594 -0.026340859 0.029850053
000180 a3 b6 a0 bc 3e 3b f9 3c b5 ee 66 3c a4 ee 28 bd
       -0.019618338 0.030423757 0.014094998 -0.04124321
000190 67 14 82 3c 3d a8 38 3d 08 6e 6f 3c 66 71 84 3c
       0.01587887 0.04508232 0.014613636 0.016167354
0001a0 71 93 88 bd e3 b2 07 bd ea 3b c3 3c a6 60 21 3d
       -0.06668747 -0.033129584 0.02383228 0.03939881
0001b0 43 92 ed 3c e7 87 e7 3b 2b 72 9f bd 78 b4 45 bd
       0.029000407 0.0070657614 -0.07785448 -0.04826781
0001c0 5c d9 47 bc 04 53 06 bc 82 2c 0c bd ec 43 ee 3c
       -0.012197819 -0.008198503 -0.034222133 0.029085122
0001d0 0b 2d 2d 3c d6 76 a2 3c 3f 41 e4 bc 5f 38 a5 3d
       0.010569821 0.019832056 -0.027863143 0.080673926
0001e0 d2 0f 10 bc 46 38 b4 3c ee b8 42 3d 0f 9a 09 bc
       -0.008792834 0.02199949 0.047539644 -0.008398547
0001f0 d1 09 af bb d4 5b 5a bc d2 9d 76 bc 32 5d 2b bd
       -0.0053417464 -0.013327558 -0.015052276 -0.041836925

network.2.weight f4 [128, 128]
000000 b8 db c4 bd c5 47 f5 3c 94 9b 06 3d 62 86 d8 bc
       -0.096122205 0.029941449 0.032863215 -0.026431266
000010 c8 2e de bc 0b 5f 1a 3d 57 71 b0 3c c1 9d 51 bd
       -0.027121916 0.037688296 0.02153842 -0.051175836
000020 81 b7 9a bc e4 4a 9e 3d b8 a7 66 3d ed 20 2a 3d
       -0.01888633 0.07729128 0.056312293 0.041535307
000030 f5 2b 09 3c f4 7b 9a 3d fe 7e a1 3d 2f b7 b7 bc
       0.008372297 0.075431734 0.0788555 -0.022426216
000040 92 ee f7 bc 55 cc 7a bc 63 8a 5d bd 60 03 cd bc
       -0.030265126 -0.015307506 -0.054087054 -0.025026023
000050 27 3a 86 3d d7 d6 88 bd 15 22 bc bc 6b e7 83 3d
       0.065540604 -0.066816024 -0.02296547 0.06440624
000060 85 5f 7d 3b b4 51 43 3c 90 1d fe 3c 89 6d 17 bd
       0.003866167 0.011921335 0.031019956 -0.036969695
000070 32 cb 83 bd 23 ec 36 bc 20 ea 1f bd dc 39 5d 3d
       -0.06435241 -0.011164698 -0.03904164 0.054010257
000080 56 4f 81 3d 20 c8 a3 3d e8 a6 a2 3d a9 99 0b 3d
       0.0631396 0.07997155 0.07941991 0.03408209
000090 bc 35 83 3d 75 df 24 bd b1 6b b2 3d eb 41 b3 3b
       0.064067334 -0.040252168 0.08711947 0.0054705045
0000a0 a2 79 72 bd 6f c3 9a bd 08 6a 71 bd 74 70 4a bd
       -0.05919803 -0.07556807 -0.05893901 -0.04942365
0000b0 51 85 9e 3d b9 6c 8a 3d dd 40 14 bd 45 83 09 bc
       0.07740272 0.067590185 -0.03619467 -0.0083931135
0000c0 c4 bb 35 bd 20 43 b4 3d 43 61 81 3d c7 ed 0d bd
       -0.04436852 0.088018656 0.06317379 -0.03465059
0000d0 25 df 4e 3c 30 11 a3 3d 5a 35 3d 3d 42 0b 91 3d
       0.012626444 0.07962263 0.04619346 0.070822254
0000e0 13 82 c3 bc 20 46 2f ba 35 b7 94 3c d1 be 34 bc
       -0.023865735 -0.00066861697 0.018153766 -0.011031822
0000f0 75 05 86 bc f5 ee 4c 3d a1 5a 36 bd 45 5e ac 3b
       -0.016360024 0.050032575 -0.044520024 0.0052602612
000100 e1 01 b8 3c a5 6c 08 bd 3a 07 df bc 80 ba 6b bd
       0.022461833 -0.033306736 -0.027225126 -0.057550907
000110 18 cf e7 bc f7 2f 03 ba 23 11 fa 3c 95 c7 8d 3d
       -0.028296992 -0.0005004401 0.03052575 0.06922833
000120 cb 2a 9b 3d 4d 42 9d 3b cc 6a 89 bb a3 0f d0 3c
       0.075765215 0.0047991634 -0.0041936394 0.025398081
000130 d5 0d 08 bd 82 25 cd 3b 69 70 a5 3d ee 1f a2 bd
       -0.033216316 0.006260575 0.08078081 -0.07916246
000140 44 99 8b bc ad fa ca 3d 56 59 b9 bc f4 7d 2b bd
       -0.017040856 0.09911094 -0.022625607 -0.041868165
000150 0c 63 20 bd 45 21 ea 3d 3f 60 91 3c 28 de b4 bc
       -0.03915696 0.11432127 0.017746089 -0.022078589
000160 55 df 92 3d 27 36 05 bc 9a 76 03 bb 1e 1d 9d 3c
       0.071715035 -0.008130587 -0.0020059706 0.019178923
000170 6e b9 94 3c af 7d 84 3d 0c 1a ce 3b 77 63 e9 3c
       0.018154826 0.06469285 0.006289726 0.028489811
000180 21 98 f2 3c f2 1c c2 bd c2 71 8d bd 03 13 27 bd
       0.029613556 -0.09478177 -0.06906463 -0.040789615
000190 f6 c0 b5 bc 38 b1 ea bc e4 d5 a5 3c bf 8f 6c bc
       -0.022186738 -0.028648958 0.020243593 -0.014438569
0001a0 1c d7 17 bd 0d ff 85 bd eb 85 22 3d 7d b8 24 bd
       -0.03707038 -0.06542788 0.039678495 -0.040215004
0001b0 5f ff b2 bd bb bb c1 3d 7d e5 9c 3d c2 c5 d9 3c
       -0.087401144 0.09459635 0.07660959 0.026583556
0001c0 ee 68 9f 3d 7a 71 a2 3d e4 d8 ed 3d 07 04 b0 3d
       0.077836856 0.079318 0.11613634 0.08594518
0001d0 75 2f 86 3d 6d 83 ba bc de 92 61 bb d3 bc 09 bd
       0.065520205 -0.022767747 -0.0034419815 -0.033627342
0001e0 40 82 c6 bc 3a 91 e7 bb 4b 7d 25 3d 4b 83 db bc
       -0.02423203 -0.007066873 0.04040269 -0.026796004
0001f0 cc bf cd 3c b7 86 32 3d 5b 66 64 bd 1e 69 91 3d
       0.02511587 0.043585505 -0.055761676 0.07100128
000200 0e 4f 71 bd 3a 3d 2a bd be d4 d9 bd 8a bc d7 3d
       -0.058913283 -0.041562296 -0.106362805 0.10534008
000210 37 5f f3 bc b1 c7 93 3d 83 fc 7e 3c de 85 18 3d
       -0.029708488 0.072158225 0.015563133 0.03723704
000220 13 79 8a bd d6 f2 b4 bc 04 fa 71 3d 2d b5 db bc
       -0.06761374 -0.02208845 0.059076324 -0.02681979
000230 c8 b7 30 bd 26 9b 1a 3c 1c 5c a2 bd 1c 83 7a bd
       -0.043144017 0.009436404 -0.07927725 -0.061160192
000240 3b c1 04 bd cc c0 ae 3b 72 45 f0 bb 05 c9 87 3c
       -0.03241084 0.005333042 -0.0073324973 0.016575346
000250 05 f1 96 3d ee 96 31 3b 30 06 9d 3d 43 e8 9f bd
       0.073701896 0.0027098018 0.07667196 -0.07807972
000260 89 1a c7 bd 1a b2 87 3d 8f 31 f5 3c 6b 77 82 bd
       -0.09721858 0.06625767 0.029930858 -0.063704334
000270 e4 15 26 bd 3b 6e b8 3d 39 14 7c 3d 67 74 45 3d
       -0.04054822 0.090054 0.061542723 0.048206713
000280 7e e6 40 3d d9 70 6d 3c 37 38 03 bc b4 fa fe bc
       0.047094814 0.014492237 -0.008009008 -0.031125404
000290 6c fa 1e bd 28 de 30 bd 3f 3c 67 3d de c0 ba bc
       -0.03881304 -0.043180615 0.05645394 -0.022797044
0002a0 b5 48 7b 3d df a2 24 bd 9b 43 7e bb 38 ec 89 3d
       0.061348636 -0.04019439 -0.003879762 0.06734508
0002b0 93 db 6a bd 99 6d 29 bc f7 7e 93 bd 89 16 c8 bd
       -0.05733831 -0.0103410715 -0.07201951 -0.09769923
0002c0 d7 63 d4 3c 49 30 a2 bd 85 57 48 bc 0f 74 90 3d
       0.025926514 -0.07919366 -0.0122278975 0.070533864
0002d0 2a de bc 3d 0e 78 cb bd f3 d5 57 bd 34 86 89 3d
       0.09222062 -0.09935008 -0.052694272 0.0671505
0002e0 ff 3a e0 39 8f 91 5f bd e5 cc 93 bd 76 c1 44 3d
       0.00042768565 -0.054582175 -0.07216815 0.04803606
0002f0 d3 7e 21 bd 90 50 34 3d 7d 28 85 3d 57 b7 91 3b
       -0.03942759 0.044022143 0.06501863 0.0044469046
000300 ea 5d f6 3b fe 4f 8b 3b e3 60 8b 3d ec c3 97 3d
       0.0075185196 0.004251479 0.06805589 0.07410416
000310 d1 37 82 3c 0c 72 4b bd 68 f5 c2 3d a8 ea 2e 3c
       0.015895756 -0.04966931 0.09519464 0.010676064
000320 fe b6 80 bc 52 e8 81 3d 0c c5 20 bd 69 4f 32 bd
       -0.015712257 0.0634314 -0.03925042 -0.043532763
000330 38 b5 5b 3c db fa ce 3d 83 91 03 3d 88 57 c1 3c
       0.013409905 0.10106441 0.032121193 0.023601308
000340 96 19 2c 3d d0 b5 a7 3c c1 d3 62 bc 3e 6b b8 3d
       0.04201659 0.020472437 -0.013844431 0.0900483
000350 0c 70 91 3d f7 9b ac 3d 9f 11 b3 bc 44 97 01 3c
       0.07101449 0.084281854 -0.021858988 0.0079096
000360 1d 45 4a 3d b9 f6 79 bd e7 68 2a bd 7e 0f c9 3c
       0.049382318 -0.06102631 -0.04160395 0.02454352
000370 57 ae c1 bd b0 5b a2 3d b2 8d 5b bd 14 60 9c bc
       -0.09457081 0.07927644 -0.053601928 -0.019088782
000380 07 07 9e 3d de 40 87 3d eb a6 6b bd cb bc ed bc
       0.07716184 0.06604169 -0.057532232 -0.029020688
000390 e0 aa c3 3c e7 a6 26 3d 19 0e a1 3c a6 27 ec bc
       0.02388519 0.040686514 0.019660043 -0.0288275
0003a0 5c 1d af bd 47 0d 8c 3d ca 29 4e 3c a0 42 ad 3d
       -0.08550522 0.0683847 0.0125832055 0.08459973
0003b0 3f d4 83 3d 0f e1 46 3d 2e 61 1f 3c c1 99 37 3a
       0.06436967 0.048554476 0.009727759 0.0007003807
0003c0 c5 da 97 3c 30 16 f8 bc f6 66 4a bc 4e 52 28 bc
       0.018536935 -0.030284017 -0.012353649 -0.010273529
0003d0 2f 6d 15 bd 30 40 09 3c 2a 5d 2e 3c 60 d1 85 3d
       -0.03648108 0.00837712 0.010642329 0.06534076
0003e0 26 64 19 3d ec ec 0d 3d 58 bf a4 3d e2 3b c4 ba
       0.037449025 0.034649774 0.080443084 -0.001497146
0003f0 8a 99 64 3d ae d3 12 bd 48 0b 87 bd 50 ad 37 3c
       0.05581049 -0.035846405 -0.065939486 0.0112107545

network.2.bias f4 [128]
000000 f3 c2 93 bd de 98 b5 3d ab c7 99 3a ca 4c 09 bc
       -0.07214918 0.08867048 0.0011732479 -0.008380124
000010 49 e0 7d bb aa f1 80 bd 45 5c 01 bd ad cb c4 3c
       -0.003873842 -0.06296094 -0.031582136 0.024022901
000020 bb f2 98 3d 8c b9 14 3d 7e f0 9f 3d 12 bf 7c bd
       0.07468172 0.036309764 0.07809542 -0.061705656
000030 58 5c 7f bb 44 e0 b0 bc bb 08 b2 ba 42 1d c7 3d
       -0.0038964953 -0.021591313 -0.0013582924 0.09722377
000040 eb 66 41 3d d9 54 70 bd ff 5c 1c bc d5 ca ee 3c
       0.04721729 -0.058674667 -0.009543656 0.029149452
000050 f4 49 2b bc d7 cd 18 3d e7 5d a6 3d cb bb 10 bc
       -0.0104546435 0.03730568 0.08123379 -0.008833836
000060 66 0f 46 bd cc c5 5c bd cb e5 04 bd 55 ce 6b 3c
       -0.04835453 -0.05389957 -0.03244571 0.014392455
000070 fe 96 99 3d 0e 4a 54 bd 6f ff 03 3b 0d 81 23 bd
       0.074995026 -0.051828437 0.0020141264 -0.039917994
000080 dc d0 55 bd 36 e9 b2 ba a6 e2 a2 3d 77 17 54 3c
       -0.052201137 -0.0013649825 0.07953386 0.012945048
000090 b5 c2 57 3d f1 16 bb 3a 10 5d 02 3d e2 bc 8a 3d
       0.05267592 0.0014273805 0.031827033 0.06774308
0000a0 b9 2b 2d 3b 8d 61 f1 bc 5f 80 91 3d 63 01 87 3c
       0.0026423766 -0.029465461 0.07104563 0.016480153
0000b0 15 6b 16 bd 34 7e 6e bd c2 88 7b 3d e6 02 3c bd
       -0.036723215 -0.058225825 0.06140972 -0.0459012
0000c0 4b 7a bc bc 03 38 55 3d 10 ee a6 3c 85 71 19 3c
       -0.023007533 0.05205537 0.020377189 0.009365444
0000d0 e2 f2 1e 3d e4 b9 b6 3c 34 29 bd 3d cb a0 da bc
       0.03880585 0.022305436 0.092363745 -0.026688
0000e0 ea 55 24 3c 59 a2 7e 3d 1d 54 d8 bb b8 bb 03 bd
       0.010030249 0.062166546 -0.006601824 -0.032161444
0000f0 0d 3a 65 3d 44 32 18 3d 0b 07 a1 3d 81 d9 a7 3d
       0.055963565 0.037157312 0.078626715 0.081957825
000100 86 4f d6 bc 9d 12 97 3d ab 73 ec 3c 39 d8 5c bc
       -0.026160967 0.07376597 0.028863749 -0.013479286
000110 45 a2 8d 3d 3a 30 b1 3c 56 24 7c 3d 69 f5 b1 bb
       0.06915716 0.021629442 0.06155809 -0.0054308665
000120 59 cb d1 3c 4e 3d 7b bd af b5 9d 3d eb 74 3b 3d
       0.025609659 -0.06133776 0.07700669 0.0457658
000130 d7 46 5d 3d 1d 1a 99 3b 9c 7c c8 3d 3a 4b aa bc
       0.054022636 0.0046723024 0.09789392 -0.020787824
000140 96 6f 9a 3d 5f ab d1 bc 00 0d bc bc ca 96 59 3d
       0.075408146 -0.025594411 -0.022955418 0.05312232
000150 f7 b1 96 3d 65 9d 86 3c aa d8 08 3c 21 96 3c 3c
       0.07358163 0.016432473 0.008352438 0.011510403
000160 08 b8 28 3d e8 60 8e 3d d5 48 75 bc 8c 9f 97 3d
       0.04119113 0.06952077 -0.014970978 0.07403478
000170 bc 3a 5a 3d 3a 25 9f 3d 45 00 02 bd 62 8d 4f 3d
       0.05327867 0.07770772 -0.03173854 0.050671943
000180 b1 57 81 bd 58 2a 91 bd cd c4 c1 bc 1c 9e 80 3d
       -0.06315554 -0.070881546 -0.023653412 0.06280157
000190 d8 49 a1 bc df 62 26 bd 43 d6 8a 3c 0f a4 c2 3c
       -0.019688532 -0.040621635 0.016947871 0.02375987
0001a0 ff e1 dd bc 87 38 8f 3d 8a 09 31 3a 47 a8 76 bd
       -0.027085302 0.069932036 0.00067534356 -0.060219076
0001b0 37 8a bf bc ed ee 9b 3d fc 69 ff 3c f8 f9 68 3d
       -0.023381336 0.07613931 0.031178467 0.056879014
0001c0 57 41 a0 bd f5 ec 8c bd 46 c9 b5 3d 9a 83 25 3d
       -0.078249626 -0.068811335 0.088762805 0.04040871
0001d0 52 c9 b2 bd 85 88 67 bc cd be a0 bd a9 88 43 3d
       -0.08729805 -0.01413167 -0.07848892 0.04773775
0001e0 37 78 a1 3d 39 19 1c 3c 8f 04 32 3d 9b dc 8d 3b
       0.07884257 0.009527498 0.04346138 0.0043292767
0001f0 4f e0 33 3d 21 ee 58 3d 3d 6e 32 3a e7 ad 75 bd
       0.04391509 0.052961472 0.0006806588 -0.0599803

network.4.weight f4 [5, 128]
000000 93 6b 55 bd c9 f9 a2 3d 7b 13 17 3d e0 5b a3 bb
       -0.052104544 0.07957799 0.036883812 -0.0049853176
000010 12 01 c3 bd c2 b8 d5 3d 09 d6 46 bd e9 fd 9e bd
       -0.095216885 0.104356304 -0.048543964 -0.07763273
000020 5a e5 ca 3d 91 46 0d bc 1a be a5 bd c4 7e ee bd
       0.099070266 -0.008622781 -0.080928996 -0.116452724
000030 10 20 7b bd 18 6a e3 bd 68 5e f9 bd 64 80 3b 3d
       -0.061309874 -0.1110422 -0.1217621 0.04577674
000040 0d 60 f0 bc a0 b5 a1 3d 7c 1e 80 bc 3e 08 bd 3d
       -0.029342676 0.0789597 -0.015639536 0.09230088
000050 36 f5 7c bd f4 9b c8 3d f5 e2 9a bd 65 32 d3 3c
       -0.06175729 0.09795371 -0.0756282 0.025780866
000060 3b 55 71 bd 4b 00 bf 3d a9 38 74 3d 99 c9 cf bd
       -0.058919173 0.09326228 0.059624348 -0.101458736
000070 b8 61 fd 3c 21 63 8a bd 47 d7 34 3c 3d 1f 9a bc
       0.030930385 -0.067571886 0.011037654 -0.018813724
000080 d6 66 9e 3d 46 c5 1f 3d a8 1d 4f bd 12 7c 08 be
       0.07734458 0.039006494 -0.05056539 -0.13328579
000090 bd 42 3d 3d fa 41 da 3d 66 1f 11 3c 15 4c 6d 3d
       0.046206225 0.10657115 0.008857584 0.057933886
0000a0 48 34 ab 3d c2 11 80 3d 08 a7 a0 3d e8 39 b3 3c
       0.08359581 0.06253387 0.07844359 0.021878198
0000b0 5c 4b 5f bd 06 3f 33 3d 0d f2 ce 3c 2d 81 f5 bd
       -0.054515228 0.043761276 0.025261903 -0.11987529
0000c0 64 2d 7c bc 5b f3 92 3d c8 86 05 be 9c 18 50 3c
       -0.015391681 0.071753226 -0.13039696 0.01270118
0000d0 00 64 0f bc 4a 0b 8d 3d 1c 34 b3 bd 0e fa be bc
       -0.008751869 0.06886919 -0.087501734 -0.023312595
0000e0 58 36 0f bc 45 5e 2d bd 45 0a c3 bc f4 34 f2 bd
       -0.008740984 -0.04232623 -0.023808608 -0.11826506
0000f0 57 70 9e bd 64 58 c6 bc 88 75 6c 3d 58 f6 cc 3d
       -0.07736271 -0.02421207 0.057729274 0.10007924
000100 72 b5 02 bd 21 82 82 3c 2e fc c3 bd c9 31 c2 bd
       -0.03191132 0.01593119 -0.09569584 -0.09482152
000110 da ee e0 bd c8 c7 cc 3c 96 6d 9e bd 41 15 a4 bd
       -0.10983057 0.024997607 -0.077357456 -0.08011866
000120 e4 1d cf bd 93 02 40 bd f4 fb a1 3d c4 d3 71 bd
       -0.10113123 -0.046877455 0.07909384 -0.059039846
000130 38 57 3c 3d 8e 5b c5 ba 83 8c a6 3d 5d 84 7f 3d
       0.045981616 -0.0015057193 0.08132269 0.06238209
000140 fe c4 96 bc 15 e1 f7 bd bb c6 d2 3d 27 cd 28 bd
       -0.01840448 -0.12103478 0.10291811 -0.041211274
000150 52 27 18 be d5 59 46 3c 6e 41 44 bd 49 7e ab bd
       -0.1485875 0.012106379 -0.04791396 -0.08373696
000160 7b 67 7b 3d f2 6c e4 ba 71 84 32 3d 5b a7 51 bd
       0.061377984 -0.0017427488 0.043583337 -0.051184993
000170 0e 54 03 3e 89 da 1d b9 32 a6 4f bc ed 1f e0 bc
       0.12825033 -0.00015054097 -0.012673901 -0.027358973
000180 02 3c 5e 3d 89 c9 c6 bd ed 8b 29 3c 24 df 8c bd
       0.054256447 -0.097064085 0.010348302 -0.06878498
000190 08 e0 d1 bc 9a 2e af bd 6c 88 fa 3d c4 32 86 bd
       -0.025619522 -0.085538104 0.12233052 -0.065526515
0001a0 75 fa f0 3c 5f 87 a1 bd 8f 45 2b bd d8 f9 69 3b
       0.029416302 -0.07887148 -0.041814383 0.0035701897
0001b0 76 e1 aa bd 67 e1 b4 3c d4 59 60 bd 21 83 06 bd
       -0.083437845 0.022080136 -0.054773167 -0.032839898
0001c0 e4 5c b4 3c 1e 7e 7b 3d fb 1b 83 bd 85 64 46 bd
       0.02201695 0.06139957 -0.06401821 -0.048435707
0001d0 1c 1f 37 3b 55 d3 5c 3d 86 12 c4 bc 3a 3d 8b bd
       0.0027942127 0.05391248 -0.023934614 -0.067987874
0001e0 54 c0 99 3d c5 a4 ff bc 30 10 c7 bd 8a d5 d2 3c
       0.07507387 -0.031206498 -0.097198844 0.025736589
0001f0 ae 8e d7 bd 2e cc 12 3b 48 fc 51 3d 37 4e 83 3d
       -0.10525261 0.0022399533 0.051265985 0.06411403
000200 d3 dd 43 3d 4c 7b d6 bc 7c 12 18 3e f7 ea 2d 3b
       0.04781897 -0.02618184 0.14850801 0.0026537755
000210 42 d6 43 bd d6 8a 94 bd 05 d2 d9 3d 77 9a f3 3d
       -0.047811754 -0.07253043 0.10635761 0.11894696
000220 e5 66 ae bd e6 d9 ae 3d 83 c7 82 bc d9 14 8c 3c
       -0.08515719 0.085376546 -0.015964275 0.017099785
000230 4c b1 f8 bb 48 e9 fe 3d 18 e9 a3 3d 37 b6 2f bd
       -0.007589495 0.124468386 0.080034435 -0.042898383
000240 2c f2 9f 3d b5 a0 13 bc 93 6a 02 bb d7 c5 09 3d
       0.078098625 -0.0090104835 -0.001989995 0.03363594
000250 d2 14 3b 3d a4 75 ae 3c dd 27 60 bd c1 45 c5 3c
       0.045674153 0.02129633 -0.054725517 0.024081113
000260 82 a5 ac bd 84 b4 e2 bc 91 2d 9d bd 63 8a 94 bd
       -0.084300056 -0.027673967 -0.07674707 -0.07252958
000270 fe da fd 3c ad c6 08 3d ea 19 3c bd 46 99 54 3d
       0.030988213 0.033392597 -0.04592315 0.051903985
000280 87 13 a9 3d 18 a7 90 bd 2b f7 bb 3d db d3 a8 3d
       0.08255678 -0.070631206 0.09178003 0.08243533
000290 8e 4c cf bd 43 8f 4d bd 84 2b 97 3c 7b 52 d3 bd
       -0.101220235 -0.050185453 0.018453367 -0.10318466
0002a0 7d 24 ee ba ed ed 40 bd 73 f2 9d bc 3f a3 a5 3d
       -0.0018168833 -0.047101904 -0.019280648 0.08087777
0002b0 18 c2 eb 3d c4 80 29 3d aa 1a ac bd 21 ed b6 3c
       0.1151163 0.041382566 -0.08403523 0.022329869
0002c0 88 7c 00 3d 43 3c 14 bd ce 97 af 3d a3 b7 e7 bc
       0.031368762 -0.036190283 0.08573876 -0.028285807
0002d0 f0 68 d4 bc 2c e6 b9 bc 9c 57 66 3d 46 b1 cc 3c
       -0.025928944 -0.022692762 0.056235895 0.024986874
0002e0 91 12 66 3b cf 24 96 bc b6 0b aa bd f0 80 bc 3d
       0.0035106281 -0.018328099 -0.08303015 0.092042804
0002f0 1c c7 54 bd 4a 5a 36 3c 97 3d b2 bb 3c eb d8 bd
       -0.051947698 0.011129925 -0.005439471 -0.105917424
000300 27 93 05 3e 13 33 7d 3d 36 bc a2 3d c9 78 04 3e
       0.13044415 0.061816286 0.07946055 0.12936701
000310 f9 28 88 bd 6d b4 7b bd 7c 5b cc bc 6b 14 36 3d
       -0.0664844 -0.061451364 -0.024945967 0.044453066
000320 91 6d 14 3d 0f 8e 91 bc 8b 71 00 bd 3f 8e 86 3d
       0.036237303 -0.017767934 -0.031358283 0.065701
000330 99 b0 a6 bc 97 41 bb 3c f6 e4 8a bd 5a 79 5d 3c
       -0.02034788 0.022858424 -0.06781952 0.013517702
000340 26 41 ea 3c c8 dc af bd 12 ce 8d 3d 44 00 a8 bd
       0.028595518 -0.085870326 0.069240704 -0.08203176
000350 d0 2e 0c 3d af 1b b7 bd f0 37 bd 3d a0 5f 2e 3d
       0.03422433 -0.08940827 0.09239185 0.042571664
000360 03 91 96 bd b3 ba 55 bc 3e fd d1 bb a4 2e 35 bd
       -0.073518775 -0.013045001 -0.0064083626 -0.044233933
000370 5f 13 09 be 03 5d f9 3d 9d 15 34 3b 08 3d 94 3d
       -0.13386296 0.12175944 0.0027478703 0.07238203
000380 b3 76 ac 3d 67 20 84 bd 2f c2 8b 3d 99 c6 cc 3d
       0.084210776 -0.06451493 0.06824147 0.09998817
000390 08 73 31 3d b6 f5 4f bd f9 f7 eb bd a5 a0 4f bd
       0.043322593 -0.050771438 -0.115219064 -0.050690312
0003a0 18 26 2b bd 5e e2 89 bd 0c 4f b8 bc f8 f5 11 3d
       -0.041784376 -0.06732629 -0.02249863 0.035634965
0003b0 80 37 14 bd 55 05 5b 3d 8b f1 10 bd 73 4a 94 3d
       -0.03618574 0.053471882 -0.035386603 0.072407626
0003c0 4a 6b 0d 3d 6f 72 92 bd d1 ed d6 bd 8f 4f 77 bb
       0.034526147 -0.07150733 -0.10494579 -0.003773663
0003d0 76 6b 92 bd bf 40 39 bd ed 12 90 3d 4a 29 97 bc
       -0.07149403 -0.045227762 0.0703486 -0.018452305
0003e0 6f 23 83 bd 83 35 46 bd 3c cb 2a 3d 9b 77 ea 3c
       -0.06403243 -0.048390877 0.041697726 0.028621485
0003f0 76 1e 1f bd 45 eb cd bd 97 8f 46 3c 45 fe b3 bd
       -0.03884741 -0.1005464 0.012119195 -0.087887324

network.4.bias f4 [5]
000000 7f b2 24 bd 0d b1 01 bd e1 4d 7c 3d af 01 b7 bd
       -0.04020929 -0.03166299 0.06159771 -0.08935868
000010 b9 c5 cc 3c
       0.024996625
