IA2CC/model/rewardweight/config1/actor_1.pth (torch, 161096 bytes, 6 tensors)

network.0.weight f4 [128, 175]
-0.057136312 -0.037593037 -0.07397674 0.0027423918 -0.008099969 -0.077742085 0.056756556 0.009083063
0.10339162 -0.07001445 0.11882213 -0.037643917 0.09181403 0.0345616 0.016148597 0.0049167364
0.054884944 -0.022598 0.051977534 -0.029265033 0.020248657 -0.031221446 0.052164912 -0.09220215
0.11078083 0.018636392 0.03624841 -0.017795412 0.09639779 0.060342927 0.05995585 -0.07189105
0.0035128822 -0.015039585 0.048866946 0.058588896 0.0046141357 0.013821141 0.053828422 0.06434826
-0.04914316 0.010862907 -0.013733849 -0.019564953 0.0055434676 -0.0061518955 0.03439591 -0.053758066
0.085948244 0.03972973 -0.03744177 -0.029779375 0.10238507 -0.06119565 -0.037372015 0.05128534
0.08048774 0.0038237919 0.0075616287 0.014376692 0.044331897 -0.0351557 -0.0381528 0.036180492
0.035315856 -0.027869038 0.03019547 0.064803734 -0.0061815763 0.021275483 0.009578759 0.024969792
-0.0026287052 0.04704029 0.017004699 0.067397155 0.02143849 -0.042550452 0.032645486 0.014508991
0.0664903 0.08443832 0.06456127 -0.05181082 0.0332295 -0.017250206 0.05040605 -0.02195249
0.011408456 0.07397318 -0.05092961 -0.03725103 0.016003396 -0.040321223 -0.052613538 0.06565279
0.035666168 0.08787357 -0.024867829 -0.038567685 -0.054377932 0.04257829 -0.0067850817 0.031068657
-0.05816906 0.084402375 0.03600457 -0.009155476 -0.041425977 -0.023397245 0.048404653 -0.050695196
-0.041093934 -0.0051656403 -0.048854113 0.004375175 -0.0727138 -0.02115686 -0.015937682 -0.053532016
-0.06530513 -0.06267096 -0.029715788 0.03071751 -0.040549126 0.040947184 0.0046313773 0.06954708
-0.017566757 0.010696371 0.055062063 0.03444166 -0.07265881 -0.0443327 0.017669963 -0.014264198
0.048911635 0.04762384 -0.038375884 0.03728958 -0.03789704 -0.022383789 -0.04833345 0.060265917
-0.045691144 0.06902367 0.01479614 0.079014726 0.060346927 -0.00010123823 0.008465023 0.061885584
-0.01769935 0.024278572 0.060626633 -0.047836047 -0.04261547 0.060600758 -0.002307053 -0.005470323
0.055758037 0.06762566 -0.012799614 0.079055384 -0.014302157 0.052603792 -0.01721495 0.077391654
0.031107444 0.027652381 -0.052116822 -0.038490254 -0.049463432 -0.018413018 0.07941665 0.06638447
-0.019636674 0.094837576 0.04626814 0.064208396 0.0015216742 0.021043995 -0.023956256 -0.037953477
-0.032311108 -0.057674024 -0.032709315 -0.038013503 0.03635864 0.014197213 0.06594067 -0.112164006
-0.013490811 -0.038793765 -0.06512398 0.041592583 -0.0016447059 -0.058372527 0.051002502 -0.010015921
0.018189218 -0.0458664 0.061674323 -0.071329124 -0.059859373 -0.018641863 -0.0575625 0.032832205
0.041496936 -0.05737145 0.06970339 -0.020014396 -0.035961557 -0.004703273 0.079395875 0.009693497
-0.037103742 -0.06676441 -0.0021709907 -0.11317236 -0.04749514 -0.09431792 0.06431995 -0.09456157
-0.036344502 -0.016846742 -0.015836868 0.03206565 0.07392125 0.025633106 0.07844113 -0.07525106
-0.015095309 0.003858296 0.027288252 -0.08913333 0.06870364 0.0064411466 -0.020042684 0.028381435
0.054031838 0.044156697 -0.02601197 0.037061866 -0.026860494 0.009331977 0.030907953 0.058801338
-0.007883295 0.03704602 -0.06485928 -0.024397677 0.04740105 0.04339005 0.020077532 -0.028557207
00000000: c407 6abd 28fb 19bd 1e81 97bd b3b9 333b
00000010: bbb5 04bc 3e37 9fbd 9079 683d 21d1 143c
00000020: fcbe d33d bc63 8fbd 0459 f33d 8230 1abd
00000030: ff08 bc3d 7790 0d3d 104a 843c 931c a13b
00000040: 09cf 603d 711f b9bc 65e6 543d 39bd efbc
00000050: 83e0 a53c 1ec4 ffbc e0aa 553d 7bd4 bcbd
00000060: 0fe1 e23d 59ab 983c 3679 143d afc7 91bc
00000070: 346c c53d 252a 773d 4494 753d 9d3b 93bd
00000080: 6238 663b 9768 76bc b528 483d e9fa 6f3d
00000090: 2d32 973b 1172 623c 317b 5c3d 05c9 833d
000000a0: 574a 49bd 56fa 313c f003 61bc ae46 a0bc
000000b0: faa5 b53b d795 c9bb bae2 0c3d 6b31 5cbd
000000c0: a205 b03d a4bb 223d 8b5c 19bd e0f3 f3bc
000000d0: 43af d13d 4aa8 7abd 6613 19bd 9410 523d
000000e0: c2d6 a43d 9598 7a3b 8ac7 f73b 378c 6b3c
000000f0: 5d95 353d 6cff 0fbd 1c46 1cbd ff31 143d
00000100: 5ca7 103d 9c4d e4bc 7e5c f73c d2b7 843d
00000110: d28e cabb ec49 ae3c 3af0 1c3c 738d cc3c
00000120: 5b46 2cbb 52ad 403d 704d 8b3c 8507 8a3d
00000130: c69f af3c 6249 2ebd 46b7 053d 1eb7 6d3c
00000140: 112c 883d ffed ac3d b338 843d 9537 54bd
00000150: a81b 083d 4e50 8dbc 9376 4e3d b5d5 b3bc
00000160: 88ea 3a3c 407f 973d 919b 50bd 8994 18bd
00000170: 8e19 833c de27 25bd 4b81 57bd f874 863d
00000180: b016 123d 0ff7 b33d 9eb7 cbbc 26f9 1dbd
00000190: 65bb 5ebd 9366 2e3d 6455 debb b283 fe3c
000001a0: ae42 6ebd 27db ac3d 8779 133d d900 16bc
000001b0: 49ae 29bd 94ab bfbc f543 463d c4a5 4fbd
000001c0: 1d52 28bd 8844 a9bb 401b 48bd a15d 8f3b
000001d0: f9ea 94bd 2751 adbc be8f 82bc 6344 5bbd
000001e0: b2be 85bd a259 80bd 866e f3bc 4aa3 fb3c
000001f0: d716 26bd 3cb8 273d cfc2 973b b36e 8e3d
00000200: 29e8 8fbc d53f 2f3c c288 613d b312 0d3d
00000210: 24ce 94bd 3596 35bd 99c0 903c 62b4 69bc
00000220: 9157 483d 3711 433d 0830 1dbd f5bc 183d
00000230: ed39 1bbd 355e b7bc 4cf9 45bd 65d9 763d
00000240: a326 3bbd 485c 8d3d 826b 723c 79d2 a13d
00000250: 572e 773d dc4f d4b8 e1b0 0a3c bd7b 7d3d
00000260: 3afe 90bc dbe3 c63c a253 783d bbef 43bd
00000270: 8f8d 2ebd 8038 783d ed31 17bb 6540 b3bb
00000280: 8a62 643d 527f 8a3d 79b5 51bc cae7 a13d
00000290: 9853 6abc 1377 573d 5e06 8dbc 847f 9e3d
000002a0: 0ad5 fe3c 3f87 e23c 7378 55bd f5a7 1dbd
000002b0: 2b9a 4abd e6d6 96bc 32a5 a23d 95f4 873d
000002c0: 17dd a0bc 343a c23d a983 3d3d b17f 833d
000002d0: ea72 c73a 7564 ac3c e93f c4bc 1b75 1bbd
000002e0: a758 04bd 993b 6cbd 34fa 05bd 0cb4 1bbd
000002f0: ccec 143d 6d9b 683c e70b 873d 3eb6 e5bd
00000300: 9008 5dbc 36e6 1ebd b95f 85bd fc5c 2a3d
00000310: 2c93 d7ba 0818 6fbd 00e8 503d d119 24bc
00000320: 8e01 953c 68de 3bbd 379e 7c3d 0115 92bd
00000330: 1a2f 75bd d2b6 98bc a8c6 6bbd 107b 063d
00000340: b1f8 293d 53fe 6abd a7c0 8e3d 3bf5 a3bc
00000350: 6d4c 13bd ea1d 9abb 4e9a a23d 79d1 1e3c
00000360: 18fa 17bd c7bb 88bd 2e47 0ebb e9c6 e7bd
00000370: 448a 42bd c129 c1bd 2eba 833d 7fa9 c1bd
00000380: f9dd 14bd 2e02 8abc 52bc 81bc 4557 033d
00000390: 0664 973d 85fc d13c bea5 a03d 3a1d 9abd
000003a0: 5152 77bc 77db 7c3b 9d8b df3c 898b b6bd
000003b0: 7eb4 8c3d 4110 d33b 8e30 a4bc 2f80 e83c
000003c0: 7d50 5d3d a7dd 343d 0e17 d5bc 2fce 173d
000003d0: 8a0a dcbc 26e5 183c ad32 fd3c acd9 703d
000003e0: f028 01bc 91bd 173d f1d4 84bd a3dd c7bc
000003f0: 9a27 423d c4b9 313d a379 a43c cef0 e9bc

network.0.bias f4 [128]
-0.034942392 0.041388653 0.03379921 -0.008206076 -0.004070729 0.041770153 -0.058147196 0.051275462
0.035436038 -0.063615724 -0.039693393 -0.020546967 0.019842936 0.016715616 0.03736039 -0.007488827
0.050325856 0.06960121 0.052990273 0.011115277 0.0810137 0.03952038 -0.04862265 0.049336318
-0.022598965 0.053076502 -0.041235052 0.03257734 -0.07726813 -0.015712112 0.011572926 0.07221826
-0.055795483 0.07460016 0.0047574025 0.061734904 -0.0324714 0.034756716 -0.00825805 -0.047273006
-0.063041106 0.0486979 -0.017232422 0.06504268 -0.056905996 0.06346317 -0.025598288 0.058398373
0.016444411 0.011000336 0.049666025 -0.054531824 0.0019069439 0.045272533 -0.05727298 0.06464722
-0.00656425 -0.01614896 0.056132417 0.04237358 -0.009483061 -0.05473227 0.061341386 0.0680162
-0.013194247 0.0151604805 0.038973413 -0.01495803 0.0005585592 -0.02971713 0.075928524 -0.045986544
0.0016198643 0.069424406 0.0029522928 0.042375628 0.074490465 -0.066743046 -0.04467986 -0.007840963
0.073313765 -0.07392533 -0.072470844 0.031810928 0.06544805 0.018591493 -0.016873976 -0.013636575
0.074886836 -0.057667114 -0.067368805 -0.0568444 0.053494133 0.048356447 0.074542716 0.08970778
0.037944082 -0.013588368 -0.015751032 0.000110326495 -0.057382222 -0.052832037 0.040570583 0.04363272
0.07713448 0.056717575 0.07628016 -0.037741374 0.0066788597 0.0737154 -0.024361894 0.06521049
0.049171507 -0.025553554 -0.04966999 0.07422485 0.049290523 0.014541713 -0.06560892 -0.047350876
0.044233877 -0.019344643 0.059917558 -0.056913104 0.0092179915 -0.018355036 -0.036423888 0.052017543
00000000: c11f 0fbd 2687 293d 0a71 0a3d c772 06bc
00000010: c063 85bb 2e17 2b3d c12b 6ebd 3806 523d
00000020: 6125 113d f648 82bd 8a95 22bd 1d52 a8bc
00000030: a78d a23c 30ef 883c 3507 193d d664 f5bb
00000040: 7c22 4e3d 148b 8e3d 540c 593d da1c 363c
00000050: 83ea a53d 1fe0 213d 8b28 47bd e114 4a3d
00000060: 7721 b9bc bf66 593d 16e6 28bd d16f 053d
00000070: c13e 9ebd b0b6 80bc 5f9c 3d3c 2be7 933d
00000080: ce89 64bd f8c7 983d fce3 9b3b bddd 7c3d
00000090: bb00 05bd 0f5d 0e3d c64c 07bc 57a1 41bd
000000a0: b21b 81bd 7377 473d 022b 8dbc 1935 853d
000000b0: 4316 69bd faf8 813d 80b3 d1bc 2233 6f3d
000000c0: 6eb6 863c c13a 343c 9a6e 4b3d c35c 5fbd
000000d0: 6bf2 f93a b16f 393d 1397 6abd c365 843d
000000e0: ec18 d7bb d34a 84bc 1beb 653d eb8f 2d3d
000000f0: d75e 1bbc f22e 60bd 1b41 7b3d 144c 8b3d
00000100: af2c 58bc aa63 783c 96a2 1f3d 8612 75bc
00000110: 466c 123a 5771 f3bc 6a80 9b3d 635c 3cbd
00000120: a051 d43a 622e 8e3d 417b 413b 1192 2d3d
00000130: 758e 983d 94b0 88bd 3b02 37bd 6277 00bc
00000140: 8725 963d 2a66 97bd 986b 94bd 2d4c 023d
00000150: a109 863d 304d 983c 4b3b 8abc f16b 5fbc
00000160: 455e 993d 5a34 6cbd a8f8 89bd acd5 68bd
00000170: aa1c 5b3d 6911 463d daa9 983d b6b8 b73d
00000180: 416b 1b3d bfa1 5ebc 4f08 81bc 165f e738
00000190: 9f09 6bbd 6866 58bd 572d 263d 39b8 323d
000001a0: aff8 9d3d b050 683d c638 9c3d b396 1abd
000001b0: 56da da3b 1af8 963d 9892 c7bc 148d 853d
000001c0: 1068 493d b055 d1bc c272 4bbd 3303 983d
000001d0: dce4 493d 5d40 6e3c f85d 86bd fef2 41bd
000001e0: 952e 353d a878 9ebc 1d6c 753d b71d 69bd
000001f0: 0f07 173c 4d5d 96bc 3731 15bd 5910 553d

network.2.weight f4 [128, 128]
-0.01462198 0.066199355 0.025412966 -0.07106309 -0.08814225 0.022790074 0.093686864 -0.04012056
0.025300642 0.0022794576 -0.059862453 -0.029607348 0.031469025 -0.06712742 0.043962963 0.015978666
0.002608434 -0.09162772 0.05195935 -0.011492724 0.0012038491 0.089264266 -0.02737964 -0.018556962
0.03944847 0.07311974 -0.0917443 -0.04792697 -0.036371537 -0.047899067 -0.0071450025 -0.04063415
0.0024418496 0.028516619 0.019251738 -0.077327535 -0.0029917257 -0.089594655 0.0025816057 -0.019510483
-0.09422132 0.015867304 0.08375911 -0.0040889108 -0.005740606 -0.04321208 -0.07491284 -0.09186539
0.042571764 0.043056432 0.0062095528 -0.06265387 0.05570473 -0.009866031 0.05806884 0.04333947
-0.07578409 -0.04272778 0.071135536 -0.0018996163 0.04068112 0.00084547617 -0.046128564 -0.083477974
-0.06275569 -0.07752335 0.069814734 0.031982567 0.052798446 0.07113576 0.06320774 0.048653528
0.059780736 -0.052883234 -0.089259356 -0.07757113 -0.019175354 0.055930197 0.07452659 -0.06749245
0.013518438 -0.034862522 -0.002860791 -0.016077505 0.089470774 0.03140545 0.075154334 0.00017681661
0.05301164 -0.05215959 0.039307665 0.008640217 0.06475162 -0.05971746 -0.060746852 -0.07130627
-0.0036258658 -0.021625217 0.06375847 0.002149111 0.06382036 -0.019974206 -0.058760222 0.050363697
0.048041333 0.062114205 0.027107913 0.028695896 -0.07731643 -0.0046033883 0.082034394 0.068958476
-0.04017441 0.052055515 0.018165486 0.042433582 0.052031733 0.011616573 -0.058297537 -0.07704125
-0.023168325 -0.028104242 -0.068157636 -0.053915415 -0.041811574 0.07311614 -0.04728855 0.068879016
-0.051913593 0.044039022 0.011814131 -0.07957011 0.06464366 0.03807479 0.082349546 0.018522607
-0.06626227 0.059718914 0.05724546 0.028247017 0.043806206 -0.0044388175 -0.06922022 0.009280082
0.011631321 -0.04225542 0.041982908 0.058884818 -0.023631522 -0.009412867 -0.038673237 0.012159452
0.058196902 -0.08148774 0.031181019 -0.013323773 -0.07149811 0.07085363 0.043699205 0.046921007
0.007783363 0.032758363 -0.08604511 0.073891014 -0.0047460855 -0.048752896 -0.022666642 -0.0871765
-0.04074493 0.008792047 -0.077190354 -0.05489489 0.048178557 0.049639117 0.06595134 0.09030617
-0.03172336 -0.012667578 -0.063960955 0.06146247 0.016063126 -0.06049327 0.016058587 0.0649219
0.005522454 0.05882261 -0.063110985 -0.06595666 -0.07622381 0.049651574 -0.086522326 0.057397034
-0.009715467 0.028315049 0.03977493 -0.06456957 0.049807176 -0.021213721 0.043111704 0.026045613
0.03702021 -0.011447271 0.026945578 0.0226165 0.07678078 0.046154734 -0.024723634 -0.0009775175
-0.065296896 0.00801333 0.049693692 -0.049714103 0.051658306 0.014054298 -0.043805864 0.041481845
-0.0034324352 -0.07745349 0.085862406 0.015197873 -0.082790166 -0.072821386 0.0037738988 -0.072800964
0.071980305 0.087362595 0.09491656 -0.058692947 -8.962243e-05 -0.030761527 0.06320508 -0.038835134
0.08111631 0.0089786025 0.017561067 0.061184123 0.06339022 -0.0828459 0.030207483 0.05599855
0.087074004 0.043988436 -0.026766842 0.07903451 -0.031238269 -0.029542537 0.03317795 -0.043724757
-0.05194622 -0.065364785 -0.07690379 -0.083302006 -0.026974063 0.06634982 -0.015609665 -0.014192972
00000000: 0791 6fbc 8793 873d da2e d03c 8689 91bd
00000010: ed83 b4bd 40b2 ba3c e6de bf3d 7555 24bd
00000020: 4b43 cf3c f462 153b 5532 75bd 1c8b f2bc
00000030: aae5 003d 1a7a 89bd 8212 343d b1e5 823c
00000040: 43f2 2a3b 50a7 bbbd 54d3 543d fa4b 3cbc
00000050: 79ca 9d3a 2fd0 b63d 444b e0bc c504 98bc
00000060: b894 213d cdbf 953d 70e4 bbbd 124f 44bd
00000070: 52fa 14bd d031 44bd a020 eabb ff6f 26bd
00000080: 7007 203b af9b e93c d2b5 9d3c e65d 9ebd
00000090: d410 44bb 677d b7bd 2830 293b 73d4 9fbc
000000a0: 1bf7 c0bd 26fc 813c e589 ab3d 45fc 85bb
000000b0: b21b bcbb 26ff 30bd e76b 99bd ec23 bcbd
000000c0: bb5f 2e3d f15b 303d 8179 cb3b ac50 80bd
000000d0: a52a 643d 22a5 21bc 98d9 6d3d ba84 313d
000000e0: b034 9bbd 5303 2fbd 82af 913d 8cfc f8ba
000000f0: 3fa1 263d f2a2 5d3a 4ef1 3cbd 80f6 aabd
00000100: 0e86 80bd 90c4 9ebd 07fb 8e3d 2700 033d
00000110: 2f43 583d a0af 913d 0f73 813d ec48 473d
00000120: a5dc 743d 179c 58bd 9ccd b6bd 9ddd 9ebd
00000130: a215 9dbc 1017 653d 66a1 983d 7b39 8abd
00000140: 707c 5d3c 01cc 0ebd 1c7c 3bbb f9b4 83bc
00000150: 743c b73d 00a3 003d 84ea 993d d967 3939
00000160: bc22 593d 4ba5 55bd 1301 213d b28f 0d3c
00000170: 7f9c 843d 4c9a 74bd b1d1 78bd 0609 92bd
00000180: ef9f 6dbb 5e27 b1bc cd93 823d 19d8 0c3b
00000190: 40b4 823d f2a0 a3bc 8fae 70bd 2a4a 4e3d
000001a0: fdc6 443d 776b 7e3d 6a11 de3c a813 eb3c
000001b0: 1458 9ebd 05d8 96bb a601 a83d 1a3a 8d3d
000001c0: ec8d 24bd 2a38 553d c9cf 943c d6ce 2d3d
000001d0: 3a1f 553d 7053 3e3c 66c9 6ebd cec7 9dbd
000001e0: 80cb bdbc de3a e6bc 3b96 8bbd 69d6 5cbd
000001f0: 9d42 2bbd eabd 953d a3b1 41bd 7110 8d3d
00000200: 59a3 54bd 4362 343d 0f90 413c a7f5 a2bd
00000210: e563 843d 50f4 1b3d e1a6 a83d b9bc 973c
00000220: 83b4 87bd d29b 743d 377a 6a3d 4a66 e73c
00000230: 236e 333d 8073 91bb 55c3 8dbd 7c0b 183c
00000240: 4c91 3e3c 0514 2dbd 45f6 2b3d 3531 713d
00000250: e596 c1bc 6d38 1abc d467 1ebd 7038 473c
00000260: e05f 6e3d 0be3 a6bd 566f ff3c f44b 5abc
00000270: 9a6d 92bd b51b 913d f0fd 323d 3e30 403d
00000280: 950b ff3b a22d 063d 6b38 b0bd 2c54 973d
00000290: 0d85 9bbb 1eb1 47bd 65af b9bc 9889 b2bd
000002a0: 28e4 26bd 850c 103c fa15 9ebd 77d9 60bd
000002b0: e156 453d 6352 4b3d 7f11 873d 71f2 b83d
000002c0: 5bf0 01bd ac8b 4fbc f6fd 82bd 12c0 7b3d
000002d0: d196 833c cbc7 77bd 4c8d 833c c6f5 843d
000002e0: b4f5 b43b faef 703d 5540 81bd 4914 87bd
000002f0: 3b1b 9cbd 735f 4b3d 9e32 b1bd 2719 6b3d
00000300: 9f2d 1fbc f6f4 e73c 09eb 223d 0d3d 84bd
00000310: 9c02 4c3d 66c8 adbc e695 303d 9c5d d53c
00000320: 81a2 173d 568d 3bbc f9bc dc3c 3d46 b93c
00000330: 3e3f 9d3d bf0c 3d3d 3889 cabc 0b20 80ba
00000340: 61ba 85bd 584a 033c 9d8b 4b3d 04a1 4bbd
00000350: a997 533d 0044 663c c76d 33bd dee8 293d
00000360: b5f2 60bb ef9f 9ebd a1d8 af3d 8000 793c
00000370: e48d a9bd 6123 95bd 8453 773b ac18 95bd
00000380: 696a 933d 29eb b23d 9d63 c23d 0468 70bd
00000390: adf3 bbb8 99ff fbbc aa71 813d 9711 1fbd
000003a0: 4f20 a63d fd1a 133c 3adc 8f3c 349c 7a3d
000003b0: bbd2 813d 1cab a9bd af75 f73c bc5e 653d
000003c0: db53 b23d 382d 343d 2346 dbbc d8dc a13d
000003d0: 66e7 ffbc 3103 f2bc 9ae5 073d bb18 33bd
000003e0: 8fc5 54bd f9dd 85bd bc7f 9dbd 3e9a aabd
000003f0: b6f8 dcbc 6ae2 873d aebf 7fbc a489 68bc

network.2.bias f4 [128]
0.0019430905 -0.07606872 -0.01864267 0.0020520007 0.010730281 0.068611786 0.06551854 -0.0045771413
-0.037021484 0.07006304 0.0028009003 -0.07403472 -0.033003543 0.0040194187 0.03482804 0.08753891
-0.052685283 -0.004315352 0.08801303 0.037348263 0.055336427 0.019385437 -0.04898215 0.096379444
0.043521974 0.0128411455 -0.033676 -0.013428951 -0.017113399 0.036621545 -0.07111276 0.055375017
-0.046284318 -0.06533983 0.01174024 -0.029076587 0.049938466 0.052691713 -0.008988755 0.013579808
-0.079522304 -0.046075433 0.051896054 -0.052219786 0.022279486 -0.07162937 -0.04818733 0.018899528
0.02113144 -0.012948358 -0.08825895 0.0675223 0.009773421 0.01586629 0.04005908 -0.01243835
-0.052268002 -0.060808506 0.017458834 -0.014440729 0.06717488 0.09168621 0.022541663 -0.0016971605
0.06704507 0.021303225 0.07832553 0.022319928 0.017701764 0.018273342 0.08785991 0.07751593
-0.079235666 0.027057149 -0.014660382 0.027616855 -0.001877411 -0.05540633 -0.0044420585 -0.010401339
-0.055560198 -0.006689311 0.03600484 -0.04313778 -0.07812109 0.044634227 -0.013784576 0.07619566
-0.045284137 -0.043629598 -0.063906655 0.052256137 -0.005334517 -0.051836397 0.025676863 0.003889119
-0.08143299 -0.026644833 -0.0017975525 -0.03226402 0.0854034 -0.02371327 -0.010733043 0.023802854
-0.0370605 -0.021443982 0.046893016 0.092427455 -0.05208682 -0.07563523 -0.076664515 0.06384619
-0.083416656 0.022978358 -0.04433023 -0.07865187 -0.079858676 0.016069122 -0.033914078 0.08700927
-0.008102014 -0.014512658 -0.023267867 0.0137796635 -0.015546434 0.033195242 0.07018721 -0.014070087
00000000: 4caf fe3a ebc9 9bbd 83b8 98bc dc7a 063b
00000010: 0fce 2f3c 5684 8c3d 962e 863d d8fb 95bb
00000020: d7a3 17bd 367d 8f3d 4f8f 373b 849f 97bd
00000030: b92e 07bd 54b5 833b d9a7 0e3d 9a47 b33d
00000040: 86cc 57bd cc67 8dbb 2d40 b43d 7efa 183d
00000050: 73a8 623d 35ce 9e3c 82a1 48bd 9662 c53d
00000060: 1944 323d ab63 523c d8ef 09bd 1a05 5cbc
00000070: 6631 8cbc 7900 163d 91a3 91bd ead0 623d
00000080: a094 3dbd e4d0 85bd 235a 403c 0632 eebc
00000090: 478c 4c3d 44d3 573d 9245 13bc d87d 5e3c
000000a0: 97dc a2bd 98b9 3cbd f590 543d 6ae4 55bd
000000b0: 7883 b63c 6bb2 92bd 1460 45bd 2fd3 9a3c
000000c0: d71b ad3c 5a25 54bc 1cc1 b4bd 2249 8a3d
000000d0: b320 203c 06fa 813c fd14 243d 39ca 4bbc
000000e0: f916 56bd 5712 79bd d405 8f3c cf98 6cbc
000000f0: fc92 893d fbc5 bb3d 4ba9 b83c 4273 deba
00000100: ed4e 893d 1a84 ae3c 2369 a03d 48d8 b63c
00000110: 4a03 913c fab1 953c e6ef b33d acc0 9e3d
00000120: 4f46 a2bd f4a6 dd3c 1932 70bc be3c e23c
00000130: 7613 f6ba bff1 62bd b08e 91bb 616a 2abc
00000140: 1793 63bd 0232 dbbb d079 133d 3eb1 30bd
00000150: f3fd 9fbd 61d2 363d b4d8 61bc 780c 9c3d
00000160: dc7b 39bd f3b4 32bd 7ee1 82bd 880a 563d
00000170: 2ccd aebb 6752 54bd 4958 d23c 97e0 7e3b
00000180: 57c6 a6bd 4446 dabc da9b ebba 4727 04bd
00000190: fae7 ae3d 5542 c2bc a5d9 2fbc 34fe c23c
000001a0: c0cc 17bd 4aab afbc e412 403d 9b4a bd3d
000001b0: fd58 55bd a5e6 9abd 4902 9dbd cbc1 823d
000001c0: 5ad6 aabd 1c3d bc3c 9e93 35bd 3b14 a1bd
000001d0: f28c a3bd 64a3 833c 7de9 0abd eb31 b23d
000001e0: 4fbe 04bc 80c6 6dbc 419c bebc 19c4 613c
000001f0: 78b6 7ebc bcf7 073d 50be 8f3d 3986 66bc

network.4.weight f4 [5, 128]
0.0050815986 -0.019828005 -0.004500905 -0.044175085 -0.0057756524 -0.022053882 0.083662786 -0.0895725
-0.015319881 -0.1376018 0.11202682 -0.08698154 0.009915274 0.02618829 -0.04696329 0.015037173
0.039199475 0.06520977 -0.08823299 0.038886543 -0.09870012 -0.0674744 -0.09222682 0.08437662
0.09972709 -0.02816115 0.07087408 -0.017466694 0.02441058 0.052880686 0.057107344 0.06607919
-0.05876319 0.05541449 0.044298895 -0.06378778 -0.039374527 -0.08674644 0.05884259 -0.0474153
0.08886478 0.09306118 -0.021465506 -0.0791021 0.030001167 0.072421975 0.085075855 -0.012028417
-0.08748985 0.034519922 -0.041397456 -0.023946205 0.018179893 0.10640285 -0.063075446 0.06674732
-0.094497986 0.025503762 0.04741928 -0.010322415 -0.01402901 0.059290055 0.023837185 -0.06247714
-0.06053254 0.0022815403 -0.064629115 0.09917184 0.03476682 -0.060562838 -0.07444203 -0.060091704
-0.06345244 0.07658089 0.0060260347 0.015182218 -0.045104623 0.055929355 -0.07515224 -0.050822105
0.08708848 0.096741624 0.036118865 -0.124804035 -0.0073398883 0.047371086 0.113226324 0.07138393
0.032495204 -0.027239442 -0.07053543 -0.06238758 -0.004579441 0.026954222 -0.05284124 -0.0066001527
0.1260769 0.081048824 -0.0057251207 -0.03283247 0.024674023 -0.05803707 0.0066791237 0.00069796876
-0.017454026 -0.07202908 0.022172354 0.076275386 0.10044122 0.036570247 -0.106884226 -0.068056
-0.078779854 0.0455105 -0.06630535 -0.00019763301 0.007007809 0.094320945 -0.07372754 0.03378619
-0.0039798003 -0.007994767 -0.037302915 -0.05553465 -0.046984926 0.12399723 0.020001424 -0.029301682
-0.08334272 0.05726542 0.119996384 0.057844684 -0.09733099 -0.009645643 0.052861873 0.07497829
-0.12522747 0.118659906 0.0034977135 0.0020482661 0.03717127 0.036662724 0.013743873 0.062295474
-0.09501622 -0.056006867 0.07126163 0.026209168 0.06394826 -0.04103868 -0.02792918 -0.04517117
-0.09946943 0.07485366 -0.06590715 -0.036144502 0.07086436 -0.0014645787 0.089716755 0.0035255663
0.027000146 0.059266225 -0.04046819 -0.088895895 -0.014375533 -0.005795692 0.054656513 -0.073987246
0.041319158 0.05563758 -0.09456576 -0.07397488 0.09835489 -0.066951625 -0.06655911 -0.052605473
-0.0017223345 -0.07252106 -0.05264194 0.09579912 -0.030286862 0.023245126 0.077135645 -0.07630049
-0.030797567 -0.10513134 -0.0920347 0.02535637 -0.11019196 -0.049177647 -0.026388632 -0.07934278
-0.021779988 0.082101956 0.04649037 -0.073563255 0.084929936 -0.0120157255 -0.049044743 0.10182913
-0.010853365 -0.0051748296 -0.066610225 0.055025917 -0.054637153 -0.03808654 -0.059456572 -0.020425703
-0.033501897 0.018395416 -0.049840737 0.06661759 -0.018432206 -0.04994676 0.0255015 0.0034970199
-0.011226699 0.0940068 0.042751215 -0.008775958 0.07582871 0.015939593 0.027070373 0.09767768
-0.029052142 -0.028238289 0.041612983 0.063690834 0.05878394 0.012409822 -0.03331372 -0.018639164
0.0035227633 -0.012925678 -0.022995476 -0.04767973 -0.10241625 -0.05430454 0.064714424 -0.029585186
0.013189084 -0.016389895 0.004715833 -0.010051906 -0.018981276 -0.058545187 0.05970095 -0.0018483779
-0.025733594 -0.10232117 -0.045064185 0.02238735 0.09332579 -0.073174335 -0.08860126 -0.07141721
00000000: 8a83 a63b 576e a2bc 547c 93bb eff0 34bd
00000010: af41 bdbb 58aa b4bc 6557 ab3d c971 b7bd
00000020: 3d00 7bbc 7ce7 0cbe 516e e53d 6123 b2bd
00000030: ac73 223c d388 d63c 945c 40bd 7a5e 763c
00000040: a18f 203d b38c 853d 7fb3 b4bd 7f47 1f3d
00000050: 4a23 cabd 0530 8abd 6ae1 bcbd a6cd ac3d
00000060: b73d cc3d 36b2 e6bc 6e26 913d 5016 8fbc
00000070: b2f8 c73c 6b99 583d 64e9 693d 8754 873d
00000080: acb1 70bd 4efa 623d c272 353d 2ba3 82bd
00000090: 2f47 21bd 1ea8 b1bd ed04 713d 8c36 42bd
000000a0: bdfe b53d dc96 be3d 6ed8 afbc 4800 a2bd
000000b0: 02c5 f53c f951 943d 403c ae3d d612 45bc
000000c0: e12d b3bd c364 0d3d 6190 29bd d52a c4bc
000000d0: 00ee 943c bde9 d93d b32d 81bd d2b2 883d
000000e0: 2988 c1bd 44ed d03c b83a 423d 591f 29bc
000000f0: efd9 65bc 21da 723d 3346 c33c 08e8 7fbd
00000100: f8f0 77bd e585 153b 455c 84bd 9b1a cb3d
00000110: a767 0e3d bd10 78bd 1075 98bd b822 76bd
00000120: 5af3 81bd 71d6 9c3d 0b76 c53b d6be 783c
00000130: a0bf 38bd 2e16 653d 6be9 99bd d72a 50bd
00000140: 725b b23d 7920 c63d 60f1 133d 4299 ffbd
00000150: 7283 f0bb 2f08 423d 34e3 e73d bd31 923d
00000160: b119 053d 4025 dfbc e174 90bd 1e8a 7fbd
00000170: 230f 96bb 1acf dc3c 0e70 58bd 1846 d8bb
00000180: 4e1a 013e edfc a53d cb99 bbbb 577b 06bd
00000190: 2d21 ca3c 47b8 6dbd 8ddc da3b e4f7 363a
000001a0: bffb 8ebc fb83 93bd cca2 b53c 4536 9c3d
000001b0: 20b4 cd3d afca 153d 1ee6 dabd f260 8bbd
000001c0: 5557 a1bd 3869 3a3d 19cb 87bd b53b 4fb9
000001d0: c3a1 e53b 572b c13d 77fe 96bd 6363 0a3d
000001e0: fc68 82bb 7cfc 02bc f1ca 18bd 4d78 63bd
000001f0: 4473 40bd 42f2 fd3d 07da a33c 150a f0bc
00000200: 97af aabd 258f 6a3d aac0 f53d 8cee 6c3d
00000210: 7855 c7bd c208 1ebc b185 583d 388e 993d
00000220: a13b 00be f703 f33d e539 653b 343c 063b
00000230: e740 183d a72b 163d fb2d 613c 8a29 7f3d
00000240: dd97 c2bd 7567 65bd 9ef1 913d 9cb4 d63c
00000250: 4ef7 823d 2d18 28bd bccb e4bc 6805 39bd
00000260: a1b6 cbbd e04c 993d 54fa 86bd 420c 14bd
00000270: 5521 913d 1bf7 bfba 6bbd b73d 300d 673b
00000280: 692f dd3c 24c1 723d f9c1 25bd 0d0f b6bd
00000290: 5b87 6bbc cae9 bdbb 82df 5f3d a086 97bd
000002a0: 473e 293d 3be4 633d b1ab c1bd 2480 97bd
000002b0: 4a6e c93d ef1d 89bd 2550 88bd d678 57bd
000002c0: f5bf e1ba ec85 94bd 139f 57bd 5432 c43d
000002d0: 271c f8bc 906c be3c 4bf9 9d3d 6e43 9cbd
000002e0: 2e4b fcbc 1a4f d7bd b07c bcbd 29b8 cf3c
000002f0: 53ac e1bd 806e 49bd f92c d8bc 787e a2bd
00000300: f26b b2bc 1225 a83d b06c 3e3d 55a8 96bd
00000310: bfef ad3d 9bdd 44bc 24e3 48bd ca8b d03d
00000320: 50d2 31bc 9e91 a9bb f16a 88bd db62 613d
00000330: 35cb 5fbd a200 1cbd bc88 73bd ce53 a7bc
00000340: 4939 09bd fcb1 963c cd25 4cbd ce6e 883d
00000350: 23ff 96bc f994 4cbd 86e8 d03c 422e 653b
00000360: 30f0 37bc a386 c03d e61b 2f3d 09c9 0fbc
00000370: 154c 9b3d c093 823c b0c2 dd3c 3c0b c83d
00000380: c2fe edbc fc53 e7bc 6072 2a3d 5770 823d
00000390: 6ec7 703d 9152 4b3c f873 08bd 29b1 98bc
000003a0: 29de 663b 39c6 53bc 0261 bcbc d24b 43bd
000003b0: 9cbf d1bd 706e 5ebd ff88 843d a25c f2bc
000003c0: 0717 583c 1a44 86bc 4687 9a3b c0b0 24bc
000003d0: 9f7e 9bbc 14cd 6fbd fc88 743d 4545 f2ba
000003e0: 42cf d2bc c38d d1bd 3995 38bd ad65 b73c
000003f0: 9721 bf3d 6ddc 95bd 9474 b5bd 3043 92bd

network.4.bias f4 [5]
-0.0066690557 0.013652671 0.06545609 -0.0154640665 -0.068895146
00000000: 1888 dabb 74af 5f3c d80d 863d ff5c 7dbc
00000010: e618 8dbd
