IA2CC/model/rewardweight/config1/actor_2.pth (torch, 161096 bytes, 6 tensors)

network.0.weight f4 [128, 175]
0	0xbd89cd88	-0.06728655
1	0xbba523b7	-0.005039658
2	0xbda79022	-0.08181788
3	0xbd6d276a	-0.057898916
4	0xbccdb2b1	-0.02510962
5	0xbd47f870	-0.048820913
6	0x3c96184b	0.01832213
7	0xbd8ea97f	-0.069659226
8	0x3d478a82	0.048716076
9	0xbc505867	-0.012716389
10	0x3ddfa9ce	0.109210595
11	0xbcf1de12	-0.029524837
12	0x3c0ac2cc	0.008469295
13	0x3d1a35b9	0.03764889
14	0x3c26d798	0.0101832375
15	0x3bc29dd1	0.0059392233
16	0xbc1dd65c	-0.009633627
17	0xbdb38f38	-0.08767551
18	0x3d6b719a	0.057481386
19	0xbcac3517	-0.021021409
20	0x3dac4af9	0.084127374
21	0xbdad37f9	-0.084579416
22	0x3d4001cd	0.046876717
23	0x3c0180f7	0.007904283
24	0x3d3d477b	0.046210747
25	0x3da4bd01	0.08043862
26	0xbbaeaf32	-0.0053309435
27	0x3cda94eb	0.026682338
28	0x3d3d7a98	0.046259493
29	0x3d9580c4	0.07299951
30	0x3b33b614	0.002742176
31	0x3b001478	0.001954345
32	0x3cc7b980	0.024380445
33	0x3d21f4bf	0.03954005
34	0xbca80e2d	-0.020514572
35	0x3cb79928	0.022411898
36	0x3dda0506	0.106454894
37	0xbafb3c29	-0.0019167709
38	0xbcf456a1	-0.029826464
39	0xbd838f90	-0.06423867
40	0x3dc9eef2	0.09860028
41	0xbd5f1ab2	-0.054468818
42	0x3bbcf33d	0.005766301
43	0x3dac11bf	0.08401822
44	0x3d14b210	0.036302626
45	0xbd0a60ae	-0.033783607
46	0x3db64084	0.08899024
47	0xbd76f8da	-0.060295917
48	0x3dc92614	0.09821716
49	0x3d28e716	0.041236006
50	0x3d8d8fee	0.06912218
51	0x3d961b9a	0.07329483
52	0xbb301cf1	-0.002687272
53	0x3c9cc46f	0.019136636
54	0x3da067a0	0.07832265
55	0x3d1ac972	0.03778977
56	0x3d86e8d8	0.0658738
57	0xbc03bfe3	-0.008041355
58	0x3d9d8546	0.076914355
59	0xbc166ed6	-0.009181699
60	0x3c3849dc	0.011248078
61	0x3d36c77f	0.044623848
62	0x3d044625	0.032293458
63	0x3dba7a60	0.091053724
64	0xbce80da6	-0.02832682
65	0xbd4d3ddb	-0.050107818
66	0xba513b8b	-0.000798159
67	0x3d1265b3	0.03574152
68	0xbd373700	-0.044730186
69	0xbb7f40a3	-0.0038948439
70	0x3cf00d89	0.029303329
71	0x3b90a820	0.0044145733
72	0xbb96812e	-0.004593036
73	0x3ba7ee93	0.005124876
74	0xbdd5ed7e	-0.10445689
75	0xbd5f6c5c	-0.0545467
76	0x3cce5015	0.02518467
77	0x3bf121e9	0.0073587787
78	0xbdd776a1	-0.105206735
79	0x3d8730ed	0.06601129
80	0xbd4c7c79	-0.049923394
81	0x3d7b1a71	0.061304513
82	0x3d00fed7	0.031493034
83	0x3d89f4b4	0.067361265
84	0xbcdb9e9c	-0.02680903
85	0x3c233bf5	0.009963025
86	0xbb9b7e77	-0.0047453004
87	0xbc6db37c	-0.014508124
88	0x3d2dcb2f	0.0424301
89	0xbc33d22c	-0.010975402
90	0xbd6208ea	-0.055184282
91	0xbd04ae9a	-0.032393076
92	0xbd9f6af1	-0.07784069
93	0x3da3701f	0.0798037
94	0x3d2fed62	0.042950995
95	0xbd2180ba	-0.039429404
96	0x3d3eea9f	0.04661047
97	0x3d8650d6	0.06558387
98	0x3d3fd5d2	0.046834774
99	0x3da57b3c	0.08080146
100	0xbcd6f51c	-0.026239924
101	0x3d5c8749	0.053839955
102	0x3d3a593d	0.04549526
103	0x3c2f1409	0.010685929
104	0xbc643c40	-0.01393038
105	0x3db50f37	0.088407926
106	0xbceb9b17	-0.028760476
107	0x3b6b39ef	0.0035892685
108	0xbd4b3f2e	-0.0496208
109	0xbb010282	-0.0019685333
110	0xbd955ff6	-0.07293694
111	0x3d65b888	0.056084186
112	0xbdb0f25d	-0.08639977
113	0x3c9965f4	0.018725373
114	0xbd0d0586	-0.034429096
115	0x3d56708c	0.052353427
116	0xbd88746f	-0.06662833
117	0x3da6e204	0.08148578
118	0xbbd1dd15	-0.006404529
119	0xb9dde41a	-0.00042322354
120	0xbd57fb7d	-0.052730072
121	0xbd80c515	-0.062875904
122	0x3caee7fd	0.021350855
123	0x3cfca03e	0.030838128
124	0xbd348932	-0.044076152
125	0x3d42256e	0.047398977
126	0xbd01b299	-0.031664465
127	0xba1a86f7	-0.0005894745
128	0xbd9b995a	-0.07597609
129	0x3d51f0b6	0.05125495
130	0x3d1ec90c	0.038765952
131	0x3d289c2b	0.04116456
132	0x3d836b1b	0.06416913
133	0x3b02af27	0.0019940825
134	0x3d27f6f6	0.041007005
135	0xbd551c32	-0.052028842
136	0x3d373a35	0.044733245
137	0xbc9568f1	-0.018238517
138	0x3d9f7100	0.07785225
139	0x3cb9f9cc	0.02270212
140	0x3c8f89e8	0.017521814
141	0x3d579782	0.052634723
142	0x3d185fbd	0.03720068
143	0x3d014ee8	0.03156939
144	0xbc1bd8d6	-0.009512147
145	0xbd27c2dd	-0.04095732
146	0x3d2e2b55	0.042521793
147	0x3d2168e4	0.039406672
148	0x3d94c58f	0.07264244
149	0xbba25146	-0.004953536
150	0xbd766986	-0.06015923
151	0x3d7eed11	0.062237803
152	0xbdaa4df2	-0.08315648
153	0xbd4a052a	-0.04932133
154	0x3cb13a68	0.021634296
155	0xbc06501b	-0.00819781
156	0xbccb7d4c	-0.02484002
157	0xbd559bd7	-0.052150574
158	0x3ceef902	0.02917147
159	0xbd038500	-0.03210926
160	0x3d991b6d	0.07475934
161	0xbcdc7aea	-0.026914079
162	0x3d8a246a	0.06745227
163	0x3d901c90	0.07036698
164	0x3cb1e581	0.021715881
165	0x3c91f626	0.017817568
166	0x3c3a000a	0.011352548
167	0xbcb9969a	-0.02265482
168	0xbd723a64	-0.059137717
169	0x3d89231f	0.06696152
170	0xbcbd8dc9	-0.023138897
171	0x3c6b6baf	0.0143689355
172	0xbd38fde5	-0.045164008
173	0xbcea31a5	-0.028588125
174	0x3d1d850f	0.038456973
175	0x3d19b7f8	0.037528962
176	0xbda4be79	-0.08044142
177	0xbca27535	-0.01983128
178	0x3cf63197	0.030052943
179	0xbdb40207	-0.08789449
180	0x3d2e59ad	0.04256599
181	0xbc0d1bd6	-0.008612594
182	0xbc29983a	-0.010351235
183	0xbd120f64	-0.03565921
184	0x3d9adc4a	0.07561548
185	0x3c627d51	0.013823823
186	0x3dd12d83	0.10213759
187	0xbd1c692a	-0.03818623
188	0xb99fc147	-0.00030470846
189	0xbbb7d12f	-0.0056096534
190	0x3d9e534e	0.07730733
191	0xbc06474e	-0.008195711
192	0x3d839f9d	0.06426928
193	0xbd407e36	-0.046995364
194	0x3c5578af	0.0130292615
195	0xbcd204e5	-0.0256371
196	0xbd3805b7	-0.044927325
197	0xbdb9de62	-0.09075619
198	0xbc1fc727	-0.009752071
199	0x3d11e50e	0.035618834
200	0x3d53426e	0.051577024
201	0xbc217e97	-0.0098568415
202	0x3ce76a71	0.028248997
203	0xbd13b644	-0.036062494
204	0x3d1f52bb	0.038897257
205	0xbd560aed	-0.052256513
206	0x3db2ea60	0.0873611
207	0x3cca8c2b	0.02472504
208	0xbd52969a	-0.051413156
209	0x3d527f07	0.051390674
210	0x3d9590b0	0.073029876
211	0xbd9dade0	-0.0769918
212	0x3cb4d60e	0.022074725
213	0xbd8be954	-0.06831613
214	0xbb9f9dc4	-0.004871102
215	0x3d33daa8	0.0439097
216	0x3d8f38c4	0.06993249
217	0xbd13fac4	-0.03612782
218	0xbd1c007e	-0.038086407
219	0x3d879e25	0.066219606
220	0xbcf7520d	-0.030190492
221	0xbd403ca7	-0.046932843
222	0x3cf3910d	0.029732252
223	0xbd6fa38a	-0.058505572
224	0xbb682e93	-0.003542815
225	0xbd134534	-0.03595467
226	0xbcbd3ea9	-0.023101168
227	0x3cc1a15d	0.023636514
228	0x3ce5214a	0.027969975
229	0x3d9644f0	0.073373675
230	0xbd22ea78	-0.039774388
231	0xbd12bfa6	-0.0358273
232	0x3d90b122	0.070650354
233	0x3d187177	0.037217584
234	0xbae5d596	-0.0017534967
235	0x3d61d883	0.055138122
236	0x3d45e63a	0.048315264
237	0x3dc70146	0.0971704
238	0xbd0a268f	-0.03372818
239	0x3d01f2ea	0.0317258
240	0xbc6d5eb1	-0.014487908
241	0xbd8d1f0e	-0.06890689
242	0xbd766fb6	-0.06016513
243	0x3da833d5	0.08213011
244	0xbc0a15f8	-0.008428089
245	0xbbd10820	-0.0063791424
246	0x3b976e8f	0.004621334
247	0x3d41f97d	0.04735707
248	0x3d472aae	0.048624687
249	0x3d2b0e3f	0.041761633
250	0xbcbe4fda	-0.023231436
251	0x3dafe773	0.08589067
252	0xbc25c10c	-0.010116827
253	0x3d9413d4	0.072303444
254	0xbca4dbe5	-0.020124385
255	0xbc2e5017	-0.010639212

network.0.bias f4 [128]
0	0x3d833741	0.06407023
1	0xbc295d88	-0.010337241
2	0xbca7d22a	-0.020485956
3	0xbd85ef9b	-0.06539842
4	0x3c3ef8eb	0.011656026
5	0x3d20eddb	0.039289337
6	0x3cfa7d0a	0.030577201
7	0x3d705b76	0.058680974
8	0x3c3ae3ed	0.011406881
9	0xbcc0eb77	-0.023549778
10	0xbd838bb9	-0.06423134
11	0xba482bd6	-0.00076359266
12	0x3d1916a9	0.037375126
13	0x3cc9fe5f	0.024657426
14	0xbca87b6e	-0.020566668
15	0x3adbdaa4	0.0016773534
16	0x3d9aa110	0.075502515
17	0x3d57321f	0.052538034
18	0xbd85f485	-0.06540779
19	0xbcd8f988	-0.026486173
20	0x3d78eedf	0.06077468
21	0xbd858331	-0.065191634
22	0x3d6bfdbb	0.057615023
23	0xbcde34be	-0.027124759
24	0x3d8328f8	0.064042985
25	0xbcce8be9	-0.025213199
26	0xbd7d2464	-0.061802283
27	0xbd379223	-0.0448171
28	0x3c934bc0	0.017980456
29	0xbcfe9bfa	-0.031080235
30	0xbbbebbc7	-0.0058207246
31	0xbd20a319	-0.039218042
32	0x3bb585ca	0.0055396305
33	0xbd832ad5	-0.06404654
34	0x3d6f9597	0.05849227
35	0x3d7c2031	0.061554138
36	0xbca6af7a	-0.020347346
37	0xbcb83674	-0.022486903
38	0x3c929f33	0.017898178
39	0xbd6a2661	-0.057165507
40	0xbd4303e4	-0.047611132
41	0x3caaaa08	0.02083303
42	0xbc770f9c	-0.015079405
43	0xbc9a8d9e	-0.018866356
44	0x3d75b8fa	0.05999086
45	0xbd03fee3	-0.0322255
46	0x3a5106a9	0.000797371
47	0xbcc44c8f	-0.023962287
48	0xbd89a574	-0.06721011
49	0xbc845ac1	-0.016156556
50	0x3c896661	0.01677245
51	0xbcba89dd	-0.022770816
52	0x3d9a34b3	0.07529583
53	0x3d787c9f	0.060665723
54	0x3d33b584	0.04387428
55	0xbd8e4c6a	-0.069481686
56	0xbcad5b4e	-0.021161702
57	0xbd10ea32	-0.035379596
58	0xbd88abfd	-0.06673429
59	0x3b41b044	0.0029554525
60	0xbc4460f8	-0.01198601
61	0x3c1a5e80	0.009421945
62	0xbc09ac8e	-0.008402957
63	0xbd3f4168	-0.046693236
64	0x3c84d2ad	0.01621374
65	0xbd028ad2	-0.03187067
66	0x3ca336a7	0.019923521
67	0x3d8992a5	0.06717423
68	0x3be4d926	0.006983894
69	0xbd1ba90a	-0.038003005
70	0x3d6cd69a	0.057821847
71	0x3d2837a5	0.04106869
72	0x3d0ab8c7	0.033867624
73	0xbd2c5ec4	-0.042082563
74	0x3d6fa125	0.05850329
75	0x3d7d553c	0.061848864
76	0x3d1aff77	0.037841287
77	0x3d8afe69	0.06786806
78	0xbd8ab1ec	-0.06772217
79	0xbceb5178	-0.02872537
80	0xbcca7b19	-0.0247169
81	0x3d0e47f1	0.034736577
82	0x3d87ab5d	0.06624482
83	0xbc51274f	-0.01276572
84	0xbd6a3cc7	-0.057186868
85	0xba3c1076	-0.0007174084
86	0xbca8b94b	-0.020596167
87	0xbd8f3c33	-0.06993904
88	0xbb9f255b	-0.004856748
89	0xbcbbf703	-0.022944933
90	0xbbd06a39	-0.006360319
91	0xbd358f70	-0.044326246
92	0xbd30c838	-0.043159693
93	0x3dbb6586	0.091502234
94	0x3d400fbc	0.046890005
95	0x3d4aff43	0.049559843
96	0xbd251e1d	-0.04031192
97	0xbc054828	-0.008134879
98	0xbd4d2a59	-0.050089214
99	0xbd57d087	-0.0526891
100	0x3d336aed	0.043803144
101	0xbb8dc226	-0.004326123
102	0xbd1094ad	-0.03529804
103	0x3d593f2d	0.053038765
104	0x3d5373da	0.051624157
105	0x3ccb2736	0.02479897
106	0xbd10be48	-0.035337716
107	0x3cd5f0ae	0.026115742
108	0xbd62e411	-0.055393282
109	0x3cd7fce3	0.026365703
110	0xbced06a7	-0.028933836
111	0xbd8b9b14	-0.06816688
112	0xbd47e9f3	-0.048807096
113	0x3d273740	0.040824175
114	0xba5cb01f	-0.0008418578
115	0xbd130ac0	-0.035898924
116	0xbd8117d1	-0.06303371
117	0xbd589ea6	-0.052885674
118	0x3ae62b31	0.001756048
119	0x3d49b71d	0.049246896
120	0xbd806f8e	-0.06271277
121	0x3da8bf92	0.08239664
122	0x3d2dc153	0.042420696
123	0xbd7204f6	-0.059086762
124	0x3c0c1388	0.0085495785
125	0xbc6a0c32	-0.014285134
126	0xbd00a641	-0.031408552
127	0xbc29ed80	-0.010371566

network.2.weight f4 [128, 128]
0	0xbd7b0a01	-0.061288837
1	0x3d8c86a0	0.06861615
2	0x3cede580	0.029040098
3	0x3dedd58b	0.11612996
4	0x3d3db8a9	0.046318684
5	0x3cc339c6	0.02383126
6	0xbcc11800	-0.023571014
7	0xbe009d82	-0.12560084
8	0xbdb5ce61	-0.08877254
9	0xbbbddcab	-0.005794128
10	0x3d44bda0	0.048032403
11	0xbd6a2a74	-0.057169393
12	0xbb9e0485	-0.004822316
13	0xbcd2e231	-0.025742622
14	0x3d2030a2	0.03910888
15	0xbc51ce99	-0.012805604
16	0xbc5b5454	-0.013386805
17	0xbd9c3725	-0.076277055
18	0xbd9bc45f	-0.07605814
19	0x3d0b3d9e	0.03399431
20	0xbdddf446	-0.10837607
21	0xbda3d7e8	-0.08000165
22	0x3d2e2c93	0.042522978
23	0xbbe86b13	-0.0070928424
24	0xbdbbe5bb	-0.09174677
25	0x3d2e34cb	0.042530816
26	0x3d9935d0	0.07480967
27	0xbb63cdd4	-0.0034760134
28	0x3d6a08f3	0.05713744
29	0xbcaf3f44	-0.021392472
30	0xbbd53597	-0.0065066325
31	0x3d8a7d7e	0.06762217
32	0xbd7ca404	-0.061679855
33	0xbbd6a73a	-0.0065506967
34	0x3b4df5f5	0.003142712
35	0xbdccf8d7	-0.100084
36	0xbd1c65f4	-0.038183168
37	0xbd0c64b6	-0.034275733
38	0xbd92e76c	-0.071730465
39	0x3d8b40b9	0.06799454
40	0x3d4cd79f	0.05001032
41	0x3da465f1	0.08027256
42	0x3d0ce745	0.034400243
43	0xbd064d43	-0.032788526
44	0xbd0a3656	-0.033743225
45	0x3db393ae	0.08768402
46	0x3d2c5405	0.042072315
47	0x3d9fda05	0.07805256
48	0xbda4eb8e	-0.08052741
49	0x3da86463	0.08222272
50	0xbcb9dd5b	-0.022688558
51	0xbd3ef647	-0.046621587
52	0xbc9509ea	-0.018193204
53	0x3dc49b68	0.09599954
54	0xbd98810a	-0.07446487
55	0xbd7fb26b	-0.062426012
56	0xbc4ce6ea	-0.012506226
57	0xbd146585	-0.03622963
58	0xbb9567dc	-0.0045595
59	0xbcaa7362	-0.020806972
60	0x3d06430f	0.032778796
61	0x3d082797	0.03324088
62	0x3bea3a29	0.0071480465
63	0xbcb170d1	-0.02166024
64	0xbd54e5f8	-0.051977128
65	0x3dca1448	0.098671496
66	0xbdbf66ec	-0.09345803
67	0x3d47c8ab	0.048775356
68	0x3d5c0079	0.05371139
69	0x3da3934f	0.07987081
70	0xbca78307	-0.02044822
71	0xbdece410	-0.11566937
72	0xbdae1e52	-0.08501877
73	0x3db1c028	0.08679229
74	0x3984a059	0.0002529647
75	0xbc1ace30	-0.009448573
76	0x3d8d0628	0.0688594
77	0x3b895387	0.0041908654
78	0x3c4aad1d	0.012370375
79	0xbd964954	-0.07338205
80	0xbdd0438e	-0.10169135
81	0xbca8510e	-0.020546462
82	0xbd66c877	-0.056343522
83	0xbd447f69	-0.04797307
84	0x3d0fd5d1	0.03511602
85	0xbd9a8a39	-0.07545895
86	0xbda81745	-0.08207563
87	0x3d9074d2	0.07053532
88	0x3d8d9908	0.06913954
89	0x3d21f75f	0.039542552
90	0xbdd944c8	-0.10608822
91	0xbced7a9f	-0.028989134
92	0x3dc80bc6	0.097678706
93	0xbd2348b1	-0.039864246
94	0xbda59c86	-0.08086495
95	0xbd38324f	-0.044969853
96	0xbdaac317	-0.08337992
97	0x3da3af6a	0.07992442
98	0x3d24520f	0.04011732
99	0xbd31c76e	-0.04340308
100	0x3d641528	0.05568424
101	0xbd5a1d37	-0.053250518
102	0x3d9b7bfe	0.07592009
103	0x3ddd0d04	0.10793498
104	0x3d661fd4	0.056182697
105	0x3d9fefb4	0.078093916
106	0xbd2d8f52	-0.04237301
107	0xbcefa53c	-0.029253595
108	0x3d484968	0.04889813
109	0x3d6d6ef4	0.05796714
110	0x3d5eac28	0.0543634
111	0x3cb55880	0.022136927
112	0xbc700d48	-0.014651604
113	0xbddda7f7	-0.108230524
114	0x3ba18cb3	0.0049301027
115	0x3d16bd58	0.036801666
116	0x3af9a503	0.001904637
117	0x3d546d55	0.05186208
118	0xbdd8c6a6	-0.10584764
119	0xbd4202a2	-0.047365792
120	0x3af5722a	0.001872604
121	0x3d9a76a4	0.0754216
122	0xbd9e7716	-0.077375576
123	0x3d35be62	0.044371016
124	0xba45e531	-0.0007549106
125	0xbbf665e2	-0.0075194696
126	0x3d9af79f	0.07566761
127	0xbdc5d286	-0.09659295
128	0x3d2b6175	0.04184099
129	0xbd0ff77a	-0.03514812
130	0xbd56dcf0	-0.052456796
131	0xbd558770	-0.052131116
132	0x3d44b9e0	0.048028827
133	0xbc03d491	-0.008046285
134	0x3d4bd396	0.04976233
135	0xbd3c5d58	-0.045987457
136	0x3d938e60	0.0720489
137	0xbd01f928	-0.031731755
138	0xbd9c207b	-0.07623383
139	0x3d6c04d9	0.05762181
140	0xbd9eb2a3	-0.07748916
141	0x3c5029ff	0.012705325
142	0x3cc30c6e	0.023809638
143	0xbc179f78	-0.009254329
144	0x3d93b099	0.07211418
145	0xbdb63130	-0.088961005
146	0xbd25acfa	-0.040448166
147	0x3d3ad9ca	0.045617856
148	0x3d739825	0.05947127
149	0x3d24c2a9	0.040224705
150	0xbc688332	-0.014191436
151	0xbdb7cfa1	-0.08975149
152	0x3d9c53e8	0.07633191
153	0xbda0d2f2	-0.078527346
154	0xbdbef28c	-0.09323606
155	0x3daf2a7f	0.08553027
156	0x3d271964	0.0407957
157	0xbda9806c	-0.08276448
158	0xbdc20dfe	-0.09475325
159	0x3c0c2eb1	0.008556054
160	0x3d964ddf	0.073390715
161	0xbd6d4de2	-0.057935603
162	0xbc89d8e6	-0.016827058
163	0x3cad478d	0.021152282
164	0xbd136a17	-0.035989847
165	0x3d703bb9	0.058650706
166	0xbcd1b4ff	-0.025599001
167	0x3d2393f5	0.039936025
168	0x3d56cc56	0.052440964
169	0xba8dafe3	-0.0010809865
170	0x3b4fe295	0.0031720747
171	0xbda6bd3d	-0.08141563
172	0xbd37ccca	-0.044873036
173	0xbd1fef64	-0.03904666
174	0xbd65ff08	-0.05615142
175	0x3d746353	0.059665035
176	0x3cbaeaf9	0.022817122
177	0xbcddd2ae	-0.027077999
178	0x3da2b5ed	0.07944856
179	0x3cbd04e9	0.02307363
180	0xbdb1b796	-0.08677594
181	0xbd999e30	-0.07500875
182	0x3d6a9a34	0.057275966
183	0xbda9feb1	-0.08300532
184	0xbd691669	-0.056906138
185	0x3d166bed	0.03672402
186	0x3d44d8a1	0.048058156
187	0xbd5871b8	-0.052842826
188	0x3d8dc834	0.06922951
189	0x3cc3d2d0	0.023904234
190	0xbd9c7b37	-0.07640689
191	0xbd371d6b	-0.04470579
192	0x3ca52a9f	0.020161925
193	0xbdc13404	-0.09433749
194	0xba9d7d2e	-0.0012015456
195	0x3d3af080	0.045639515
196	0x3d89fac2	0.067372814
197	0xbcd93ba9	-0.026517706
198	0x3cec44e2	0.02884144
199	0x3c2f41be	0.0106968265
200	0x3d762019	0.060089204
201	0xbcd20e03	-0.025641447
202	0x3a97f52a	0.001159345
203	0xbd2b7629	-0.041860733
204	0xbd7f4c42	-0.062328584
205	0xbdb81c53	-0.089897774
206	0xbd968c74	-0.07351008
207	0x3daadf36	0.08343355
208	0x3c348c06	0.011019712
209	0xbc869691	-0.016429218
210	0xbd889a17	-0.06670015
211	0x3cab4822	0.020908419
212	0x3d8e6144	0.06952146
213	0xbd2b52e3	-0.041827094
214	0x3b39c51a	0.0028346241
215	0xbd8edc32	-0.06975593
216	0xbc5729be	-0.013132511
217	0xbbedbad8	-0.0072549395
218	0x3c85758a	0.016291399
219	0x3d4c9574	0.049947217
220	0xbd38caca	-0.04511527
221	0xbc51df6e	-0.012809617
222	0x3d0d4fd8	0.034499973
223	0xbd8bcbe3	-0.06825998
224	0x3d91d825	0.071213044
225	0x3da206b3	0.07911434
226	0x3d5e1bf8	0.05422589
227	0xbc372752	-0.011178808
228	0xbdb308f0	-0.08741939
229	0xbda2da11	-0.07951749
230	0x3d9d420d	0.07678614
231	0x3d804b0a	0.062643126
232	0x3ce82bff	0.028341291
233	0xbda05f25	-0.078306474
234	0x3d85dd70	0.065363765
235	0xbd6be744	-0.0575936
236	0xbcec1003	-0.028816229
237	0x3d32dc02	0.043666847
238	0x3c963dea	0.01834007
239	0xbd5b0cc3	-0.053478967
240	0xbd07cc37	-0.03315374
241	0x3d63ba26	0.055597447
242	0x3d8e0fbe	0.06936596
243	0xbdc7ab8a	-0.09749515
244	0xbdad68ab	-0.084672295
245	0xbd0260ea	-0.031830706
246	0x3d608e67	0.054823305
247	0xbd8255d3	-0.06364026
248	0xbb532679	-0.0032218976
249	0x3d8e34f2	0.06943692
250	0x3da76224	0.08173016
251	0x3d5de6a4	0.054175034
252	0x3d1a528f	0.03767639
253	0xbd1d192e	-0.03835409
254	0xbdac12a0	-0.0840199
255	0x3cbdc40a	0.023164768

network.2.bias f4 [128]
0	0xbca1bc8e	-0.01974323
1	0xbc91ce0e	-0.01779845
2	0x3db34e89	0.08755214
3	0x3da78b8e	0.08180915
4	0x3b3caacc	0.0028788326
5	0xbd400d52	-0.046887703
6	0xbd5c72a0	-0.053820252
7	0x3d0516ef	0.032492574
8	0xba25e600	-0.0006328523
9	0xbd583fdb	-0.052795272
10	0xbd9e76e5	-0.07737521
11	0x3d515750	0.05110866
12	0x3d755555	0.059895832
13	0x3d060604	0.03272058
14	0x3d0bd752	0.034140892
15	0xbc6ca911	-0.014444605
16	0xbc20b90e	-0.0098097455
17	0xbc32eaf6	-0.010920277
18	0x3d88c3c6	0.06677966
19	0x3d751ff2	0.05984492
20	0x3d33819f	0.04382479
21	0xbce14cb8	-0.027502403
22	0xbcb5a425	-0.022172997
23	0x3c5da467	0.013527966
24	0x3d9546bd	0.07288883
25	0xbcfa6edc	-0.03057044
26	0x3d272bf7	0.040813413
27	0x3c6fee63	0.014644238
28	0x3c89b58d	0.016810203
29	0xbd614baf	-0.055003818
30	0x3ce875f0	0.02837655
31	0xbd9823f2	-0.07428731
32	0xbda76f34	-0.08175507
33	0x3dabbb75	0.08385364
34	0x3d919d9d	0.071101405
35	0xbd924ee3	-0.07143953
36	0x3d78d93d	0.06075405
37	0x3c2853e5	0.010273908
38	0x3d0c9806	0.03432467
39	0x3c971e28	0.018446997
40	0x3d94b5b7	0.07261222
41	0x3d277bc6	0.040889524
42	0x3d6ec97f	0.05829763
43	0xbd5a78c8	-0.053337842
44	0xbd881cd2	-0.06646122
45	0xbd517a4a	-0.051142015
46	0x3d1f186e	0.038841657
47	0xbce4b712	-0.027919326
48	0x3d9c6ab5	0.0763754
49	0x3b0f9a8d	0.0021912188
50	0xbcb64875	-0.022251347
51	0xbda4b5a9	-0.080424614
52	0xbc87a015	-0.016555825
53	0xbd8c0142	-0.068361774
54	0xbd9afd01	-0.07567788
55	0x3c244f9f	0.010028749
56	0x3da583f8	0.08081812
57	0x3d024fdb	0.031814437
58	0xbd518d6d	-0.051160265
59	0xbd2266d6	-0.039648853
60	0x3c750779	0.014955395
61	0xbd1dfc68	-0.03857079
62	0xbd84d02a	-0.06485017
63	0xbc7fdd17	-0.015616677
64	0xbd083696	-0.033255182
65	0x3d9d5e09	0.076839514
66	0x3d5f1a19	0.054468248
67	0x3bbbb6c5	0.005728575
68	0xbd3bd209	-0.045854602
69	0x3d9c04c3	0.07618096
70	0xbb72ea52	-0.0037065935
71	0xbda06977	-0.07832616
72	0xbd005b45	-0.03133704
73	0x3d38b56b	0.04509489
74	0xbbdc3612	-0.006720313
75	0xbd74a2f4	-0.059725717
76	0x380d3c96	3.3673445e-05
77	0x3d960c81	0.07326604
78	0xbae2f025	-0.0017314
79	0x3dcdc2ff	0.10046958
80	0x3b9f7875	0.0048666545
81	0xbcf4df57	-0.029891653
82	0x3bb5b56f	0.00554531
83	0xbcd55d46	-0.026045453
84	0x3d35c4db	0.04437719
85	0xbdaddb70	-0.0848912
86	0x3d474e20	0.04865849
87	0xbd299a7a	-0.041407086
88	0xbcdf067d	-0.027224774
89	0xbc60b7dd	-0.013715711
90	0xbd9ece57	-0.077542
91	0x3d324a6b	0.043528
92	0xbd6e5bd3	-0.05819304
93	0x3cb6968d	0.022288585
94	0xbd4e2ac2	-0.050333746
95	0xbd93f870	-0.0722512
96	0x3da53f48	0.080687106
97	0x3d744e74	0.05964513
98	0xba25939d	-0.00063162466
99	0xbd856c86	-0.0651484
100	0xbd439c81	-0.047756676
101	0xbab23e83	-0.0013598952
102	0xbd713562	-0.0588888
103	0xbcd9ab9e	-0.026571091
104	0x3da7f31b	0.082006656
105	0x3d4f2a0c	0.05057721
106	0x3dc0b9b8	0.09410423
107	0x3be40a3b	0.0069592274
108	0xbcc617a5	-0.024181196
109	0xbdaca4e4	-0.08429888
110	0xbd4ae782	-0.04953719
111	0xbd941b73	-0.07231798
112	0xbd2a9452	-0.041645356
113	0xbd92fc16	-0.07176988
114	0xbd86e377	-0.06586354
115	0xbdb30819	-0.08741779
116	0xbd9ba458	-0.075997055
117	0x3d2cd83a	0.042198397
118	0x3d88de9f	0.066830866
119	0xbd9d4745	-0.07679609
120	0x3d7e1ef2	0.06204123
121	0xbce3bafb	-0.02779912
122	0xbd35f0ef	-0.044419225
123	0xbd19dc14	-0.0375634
124	0x3aa8a571	0.0012866688
125	0x3d61103f	0.054947134
126	0x3d208380	0.03918791
127	0xbd75a3df	-0.059970733

network.4.weight f4 [5, 128]
0	0x3d991048	0.074738085
1	0x3cbdc871	0.023166867
2	0xbd95d428	-0.07315856
3	0xbb1abff4	-0.0023612948
4	0xbcfff2cf	-0.03124371
5	0x3c1f16b5	0.009710004
6	0x3d4160a1	0.047211293
7	0xbd3663b2	-0.04452867
8	0xbb713aea	-0.0036808797
9	0xbcf0b293	-0.029382026
10	0xbd950290	-0.072758794
11	0xbd6c444b	-0.057682317
12	0x3d991f22	0.07476641
13	0x3db4610e	0.08807574
14	0x3d11f3d1	0.035632912
15	0xbcf049fb	-0.029332152
16	0xbd4b38f1	-0.04961485
17	0x3ca046f4	0.019565083
18	0xbd8cacfb	-0.06868931
19	0x3cd67db9	0.026182996
20	0xbdba24c7	-0.09089046
21	0x3db75815	0.08952347
22	0xbd65095f	-0.05591714
23	0xbc52c9ee	-0.012865527
24	0xbd0f4933	-0.034981918
25	0xbca15c13	-0.019697225
26	0xbc2893f9	-0.010289186
27	0x3dd3102c	0.10305819
28	0x3d6e371d	0.05815803
29	0x3b31bf62	0.002712213
30	0x3ddba72a	0.107252434
31	0xbc8538a2	-0.016262356
32	0xbdb33203	-0.08749773
33	0xbd8b8836	-0.068130895
34	0xbd836713	-0.06416144
35	0x3c119eaa	0.008887926
36	0xbb6ae674	-0.0035842927
37	0x3d469d93	0.04849012
38	0x3dc4977d	0.095992066
39	0x3d9ed8c2	0.07756187
40	0x3d0ee3ed	0.034885336
41	0x3b96e223	0.0046045943
42	0x3d3d009b	0.046143156
43	0xbc6cba68	-0.01444874
44	0x3c0e95fa	0.008702749
45	0xbd91196d	-0.07084928
46	0x3da47aa1	0.08031202
47	0x3d461a53	0.04836495
48	0x3c36bc49	0.011153289
49	0xbda9e3fe	-0.08295439
50	0x3c5b6755	0.0133913355
51	0x3da3fb88	0.0800696
52	0x3dae1e92	0.085019246
53	0x3d905b70	0.0704869
54	0x3db2d234	0.08731499
55	0x3d9c3fce	0.07629357
56	0xbd5cdc2c	-0.05392091
57	0xbda8e1a7	-0.08246165
58	0x3dc347de	0.09535192
59	0x3d98068a	0.07423122
60	0x3d99e795	0.07514874
61	0xbd739545	-0.059468526
62	0xbdb689d4	-0.089130074
63	0x3d8a3cbb	0.06749865
64	0x3cb46322	0.022019926
65	0x3bb28b77	0.0054487544
66	0x3dabf58e	0.08396445
67	0x3d668b42	0.05628515
68	0x3d1e0028	0.038574368
69	0x3cf5a77f	0.029987095
70	0xbd3388a4	-0.043831483
71	0x3da3fda0	0.080073595
72	0xbdc1c83e	-0.09462021
73	0xbd9613dc	-0.073280066
74	0xbb00dab8	-0.0019661617
75	0xbd82e8a4	-0.06392029
76	0xbd235e97	-0.03988513
77	0x3db0acf0	0.08626735
78	0xbd211b03	-0.0393324
79	0x3ce9a7b4	0.02852235
80	0xbd8f3437	-0.06992381
81	0x3cf6659b	0.030077746
82	0xbd8be6ea	-0.06831153
83	0x3ca7f009	0.0205002
84	0x3d9f53e0	0.0777967
85	0x3c3d2564	0.011544559
86	0xbbd4385c	-0.006476445
87	0x3d1fd31e	0.039019696
88	0xbbefd683	-0.007319273
89	0xbab7d558	-0.0014025373
90	0xbd031878	-0.032005757
91	0xbcb0b84f	-0.02157226
92	0x3ce2c371	0.027681084
93	0xbce219e3	-0.027600234
94	0x3d935def	0.07195651
95	0xbd929e79	-0.071591325
96	0x3d93c18a	0.07214649
97	0xbd33c902	-0.043892868
98	0x3d6e6014	0.058197096
99	0x3d94912b	0.07254251
100	0x3d6ea17f	0.058259483
101	0x3d90b9b7	0.07066672
102	0xbd89a539	-0.06720967
103	0xbd8ee4ef	-0.06977259
104	0xbdadb746	-0.08482222
105	0xbaa40cb1	-0.0012515989
106	0x3d99270b	0.0747815
107	0xbc6b2e54	-0.014354307
108	0xbd8fc2bd	-0.07019565
109	0xbd7be826	-0.06150069
110	0x3d870aff	0.06593894
111	0xbd91de45	-0.07122473
112	0xbd32b93c	-0.043633685
113	0xbda94125	-0.082643785
114	0xbc5efb97	-0.013609788
115	0x3cc4acda	0.024008203
116	0x3ccfcafc	0.025365345
117	0x3d50f056	0.051010452
118	0xbd8078d7	-0.06273048
119	0xbd938534	-0.07203141
120	0xbd8def0c	-0.0693036
121	0xbdc7a54f	-0.09748327
122	0xbd306905	-0.043068904
123	0x3d9cfe75	0.07665721
124	0x3d030b69	0.031993303
125	0xbd8a2343	-0.06745007
126	0xbd262d01	-0.040570263
127	0xbd56f143	-0.05247618
128	0x3d76a138	0.060212344
129	0xbd51e2bb	-0.051241618
130	0x3d87708e	0.06613265
131	0xbd7a61f8	-0.061128587
132	0xbdc59a6e	-0.09648596
133	0xbbec1443	-0.007204564
134	0xbc768553	-0.015046435
135	0xbc480c13	-0.01220991
136	0x3b140adf	0.0022589487
137	0x3dfe5659	0.12418813
138	0xbd6a5a9c	-0.057215318
139	0xbdc4b79a	-0.09605332
140	0xbd982ecd	-0.074308015
141	0x3d0d24f2	0.034459062
142	0xbdabb950	-0.08384955
143	0x3d6a6ba1	0.05723155
144	0x3dede750	0.11616385
145	0x3d186965	0.037209887
146	0x3d7ee745	0.062232275
147	0xbd65477a	-0.05597637
148	0xbc137999	-0.009001159
149	0x3c7d96ef	0.01547788
150	0x3cf88519	0.030336903
151	0xbd5a7e5c	-0.053343162
152	0x3d724aff	0.059153553
153	0xbdd0b406	-0.10190587
154	0xbde087a0	-0.109633684
155	0xbd94c43b	-0.072639905
156	0x3ba9bf4d	0.0051802755
157	0xbd0d0edc	-0.034438
158	0x3a44b445	0.0007503669
159	0x3cc7c2f3	0.024384951
160	0x3db7316a	0.08944972
161	0x3dd7bf35	0.10534517
162	0x3c4039c9	0.011732527
163	0x3d4ef57d	0.050527085
164	0xbdb1e92c	-0.08687052
165	0xbcf7b938	-0.030239686
166	0x3c9cf525	0.019159863
167	0x3ce262ab	0.02763494
168	0x3d77571e	0.060385816
169	0x3dcf69c2	0.101275936
170	0xbdae3765	-0.085066594
171	0x3dea513b	0.11441275
172	0xbdd312de	-0.10306333
173	0x3de81fde	0.11334203
174	0x3d8bcd2a	0.06826241
175	0x3cd6c2f3	0.026216006
176	0x3d9fb84f	0.07798826
177	0x3daec9da	0.08534594
178	0x3dec3cae	0.11535011
179	0xbd92c6ce	-0.07166825
180	0xbd08b93a	-0.03337977
181	0xbd22173f	-0.03957295
182	0x3b2833df	0.0025665683
183	0x3d457a02	0.04821206
184	0xbd08fb32	-0.033442684
185	0x3d44160c	0.047872588
186	0xbd8da125	-0.069155015
187	0x3c1b469e	0.009477286
188	0xbd9416e1	-0.07230926
189	0xbd92ac08	-0.071617186
190	0xbd5f5178	-0.054521054
191	0x3d41aa75	0.0472817
192	0xbd949bcf	-0.07256281
193	0xb608e5d8	-2.0399366e-06
194	0xbc7e7148	-0.015529938
195	0xbd33d71d	-0.04390632
196	0xbc985d9d	-0.018599326
197	0x3d9babfd	0.076011635
198	0xbda92126	-0.08258276
199	0x3d8e9b6d	0.06963239
200	0x3dbbe650	0.09174788
201	0x3d90f0bc	0.070771664
202	0x3d938534	0.07203141
203	0x3c8ee053	0.01744095
204	0x3d49b57d	0.049245346
205	0x3be21c50	0.006900348
206	0x3da6221e	0.08111976
207	0x3e11a617	0.14223514
208	0x3dc22b87	0.094809584
209	0x3cc47042	0.02397931
210	0x3dee3b02	0.116323486
211	0x3dd3e9c3	0.10347321
212	0x3c33d917	0.010977051
213	0x3d8c7868	0.06858903
214	0xbcc43d8f	-0.023955135
215	0x3d7c5aa8	0.061609894
216	0xbd63beec	-0.055602
217	0x3daf2e29	0.08553726
218	0xbcbc7c25	-0.023008415
219	0x3d4fa056	0.050690018
220	0x3dc6d6f6	0.09708969
221	0xbd4f0e98	-0.050551027
222	0xbd313b2f	-0.043269332
223	0x3c6470fb	0.013942952
224	0x3d2d97a1	0.042380933
225	0x3c8f96a6	0.01752789
226	0xbc5e6fad	-0.01357643
227	0x3b80b362	0.003927634
228	0xbd653389	-0.05595735
229	0x3d77853c	0.060429797
230	0x3cdd9392	0.027047906
231	0xbd51b0df	-0.051194068
232	0x3d7fad01	0.06242085
233	0x3c22800b	0.009918223
234	0xbdb5aebf	-0.08871221
235	0x3dd9e51c	0.10639402
236	0xbd4be197	-0.049775686
237	0xbd9a729d	-0.07541392
238	0x3d583be8	0.052791506
239	0x3ce87170	0.028374404
240	0x3dbf3518	0.09336299
241	0xbd214e60	-0.039381385
242	0xbd9491b3	-0.072543524
243	0x3d114933	0.0354702
244	0x3d87d802	0.06632997
245	0x3d44251c	0.047886953
246	0x3cf84ea8	0.030310944
247	0x3c823470	0.015894145
248	0xbd5d52e0	-0.054034114
249	0xbd5ecb7d	-0.05439328
250	0x3ce28636	0.027651887
251	0xbb7c343a	-0.0038483278
252	0xbd260adf	-0.04053771
253	0xbaeba972	-0.0017979576
254	0xbd7d32f5	-0.061816175
255	0x3c1c0f89	0.009525188

network.4.bias f4 [5]
0	0x3d415ec7	0.047209527
1	0xbd7f4be8	-0.06232825
2	0xbc391d9c	-0.011298563
3	0x3be1acff	0.006887078
4	0xbcc7e45b	-0.02440088
