IA2CC/model/rewardweight/config1/actor_0.pth (torch, 161096 bytes, 6 tensors)

network.0.weight f4 [128, 175]
-0.03739338 -0.018217953 -0.013132494 0.058188397 0.0049458845 -0.055510245 -0.04667354 0.05846714
-0.075750135 0.06590748 -0.039497897 0.005830315 0.058940616 -0.05703442 -0.0016328437 -0.056123335
0.045585018 0.04659202 0.05636575 0.07362634 -0.00902719 -0.009932005 -0.05368717 -0.036468595
0.06639024 -0.002285456 0.016251618 -0.025980499 -0.026165126 -0.010427342 -0.025934983 -0.018660378
0.027979067 -0.0708338 0.07267105 -0.0022602424 0.045408927 0.070196465 0.01193609 0.012969325
-0.07103013 -0.05572548 -0.011329218 -0.010744813 -0.021084826 0.07044649 -0.0028973569 -0.070748106
0.020644205 0.021845547 -0.012946778 -0.064535975 0.013476982 0.038078442 0.059813708 -0.011726341
-0.0038379373 -0.05516371 0.018828467 -0.017948002 -0.035516128 0.06418916 -0.03023305 -0.07147849
0.0468066 0.06601091 0.02921131 0.030509645 -0.05521151 -0.07216883 -0.011841551 -0.076182984
-0.021842556 0.023675585 0.07056235 -0.009886135 0.06859106 0.02282693 -0.030521125 -0.044546157
-0.057454754 -0.071359135 0.014143265 -0.07029005 0.0032092915 0.011538914 -0.062315095 -0.027075922
0.04546633 -0.03133977 0.04914963 -0.048713982 0.0034344336 0.010935719 -0.03626293 -0.066871345
0.030776128 0.001253158 0.0031147623 -0.074039534 -0.0013547976 -0.055779107 0.062883675 -0.042649794
-0.06659609 -0.024097998 -0.00467302 0.016639683 0.030608714 -0.061596833 0.066132694 0.07029824
-0.006626263 0.05990275 0.06080367 -0.0077178827 -0.0367934 0.045662478 0.053243037 0.04070078
-0.019734481 -0.042984188 -0.008011176 0.053553984 0.022320032 -0.025344307 0.043018594 0.010282899
-0.01927617 -0.014274496 -0.0042472505 -0.06229525 0.07415023 -0.022896644 -0.0043524066 0.013383876
0.07050074 0.031935938 0.06975313 0.039137695 -0.07143601 0.024570407 -0.0403122 -0.07519406
0.031229995 -0.01731635 -0.044239204 0.04158887 -0.05861269 -0.054741863 0.016690925 0.035197902
-0.059523523 -0.022504514 -0.021339318 0.027754586 0.0033713346 0.051168006 0.045941435 0.010869387
0.05844334 0.0010964045 0.065903716 -0.041479956 0.053374704 0.034874212 -0.06265868 -0.066749685
-0.026824739 0.00452105 -0.0724663 0.023294847 -0.005826641 0.050157737 -0.03707709 0.05769786
0.09363766 0.02290131 -0.015368315 0.052965425 -0.018232623 -0.054712467 0.062016327 -0.056464937
-0.041038048 0.06864788 0.082144044 -0.07541715 -0.06457169 0.032185495 0.0033741829 0.030481737
-0.037885442 0.021613527 0.03650083 -0.030026771 -0.07126106 -0.066371426 -0.0036210387 -0.06311664
0.017635949 -0.06895705 0.007693657 -0.08331524 0.029785702 -0.0007561602 -0.041194014 0.046080284
0.06982275 0.0019108622 0.006406089 -0.016899016 -0.00083961093 0.0055489517 0.037151158 0.012716832
-0.019471934 -0.037766244 0.038162306 -0.0772985 -0.00310079 -0.008060206 -0.03883698 -0.065354355
0.049766403 0.026356984 -0.05078783 0.072252676 0.0066289376 0.072208904 0.014702621 0.029492024
0.025832424 0.052569214 -0.045389943 -0.06499006 -0.03717195 -0.095095985 0.00067863625 -0.08573433
-0.011886271 0.02422239 0.005367055 0.063667916 -0.06547753 0.04863978 -0.004475598 0.07994805
-0.0038483257 -0.062320456 0.013122099 -0.09357796 -0.020920185 -0.05091861 -0.04522232 -0.039261024
00000000: cd29 19bd d13d 95bc ac29 57bc f556 6e3d
00000010: 1611 a23b b65e 63bd c12c 3fbd 3d7b 6f3d
00000020: e322 9bbd 80fa 863d 8cc8 21bd 3a0c bf3b
00000030: b76b 713d ed9c 69bd 2505 d6ba 95e1 65bd
00000040: 5bb7 3a3d 46d7 3e3d c6df 663d 68c9 963d
00000050: c7e6 13bc d9b9 22bc 14e7 5bbd 1860 15bd
00000060: 9bf7 873d 97c7 15bb 1d22 853c 0ed5 d4bc
00000070: 3f58 d6bc 71d7 2abc 9a75 d4bc a6dd 98bc
00000080: 5b34 e53c 5011 91bd 8fd4 943d 9320 14bb
00000090: b6fe 393d 2ac3 8f3d 978f 433c 4b7d 543c
000000a0: 3f78 91bd 6740 64bd 2f9e 39bc 030b 30bc
000000b0: 16ba acbc 4046 903d 95e1 3dbb 62e4 90bd
000000c0: 091e a93c 6ff5 b23c b91e 54bc 702b 84bd
000000d0: 8fce 5c3c 24f8 1b3d 38ff 743d d71f 40bc
000000e0: e785 7bbb 58f3 61bd 283e 9a3c b007 93bc
000000f0: 5c79 11bd 9b75 833d 4dab f7bc 5163 92bd
00000100: 47b8 3f3d ba30 873d 8f4c ef3c 5def f93c
00000110: 7725 62bd 40cd 93bd 1103 42bc d305 9cbd
00000120: 29ef b2bc 4df3 c13c fe82 903d 75f9 21bc
00000130: 7879 8c3d 8bff ba3c 7007 fabc 0876 36bd
00000140: ad55 6bbd bd24 92bd 27b9 673c 3bf4 8fbd
00000150: fa52 523b b70d 3d3c 1d3e 7fbd 53ce ddbc
00000160: e73a 3a3d 215e 00bd 1f51 493d 5088 47bd
00000170: 3c14 613b bb2b 333c 7088 14bd d8f3 88bd
00000180: 381e fc3c 0141 a43a 0a21 4c3b 0aa2 97bd
00000190: 7793 b1ba a278 64bd 28c9 803d 8db1 2ebd
000001a0: 8863 88bd 2a69 c5bc 2220 99bb f24f 883c
000001b0: 20bf fa3c f64c 7cbd 9470 873d 86f8 8f3d
000001c0: 1f21 d9bb 965c 753d 450d 793d 4be6 fcbb
000001d0: adb4 16bd 9408 3b3d 5f15 5a3d dcb5 263d
000001e0: 35aa a1bc 3010 30bd 4f41 03bc 6c5b 5b3d
000001f0: 80d8 b63c dd9e cfbc 4434 303d 9b79 283c
00000200: 0fe9 9dbc 93df 69bc 852c 8bbb 4e29 7fbd
00000210: 13dc 973d be91 bbbc a29e 8ebb 0b48 5b3c
00000220: b162 903d 42cf 023d bbda 8e3d d94e 203d
00000230: 0b4d 92bd e147 c93c 681e 25bd 58ff 99bd
00000240: 0cd6 ff3c 05db 8dbc 2b34 35bd 1759 2a3d
00000250: dc13 70bd 0139 60bd 68bb 883c ad2b 103d
00000260: f0ce 73bd 635b b8bc cbcf aebc 965d e33c
00000270: 9cf1 5c3b 8b95 513d 162d 3c3d 8315 323c
00000280: 4962 6f3d 3bb5 8f3a 87f8 863d e3e6 29bd
00000290: 6f9f 5a3d 43d8 0e3d 3253 80bd 0fb4 88bd
000002a0: 8ebf dbbc 5125 943b 3669 94bd d6d4 be3c
000002b0: 68ed bebb 3372 4d3d 26de 17bd 9754 6c3d
000002c0: 1ac5 bf3d 879b bb3c 63cb 7bbc 46f2 583d
000002d0: 955c 95bc 2e1a 60bd d504 7e3d c747 67bd
000002e0: 8317 28bd 4297 8c3d 233b a83d 4f74 9abd
000002f0: 2a3e 84bd f0d4 033d 6521 5d3b d6b4 f93c
00000300: c42d 1bbd da0e b13c e581 153d b4fa f5bc
00000310: 52f1 91bd beed 87bd f34e 6dbb 4c43 81bd
00000320: 4479 903c 5b39 8dbd 131b fc3b 2ea1 aabd
00000330: 2501 f43c 0d39 46ba 0ebb 28bd aebe 3c3d
00000340: 3bff 8e3d e575 fa3a 2bea d13b ce6f 8abc
00000350: 5619 5cba fbd3 b53b d02b 183d 425a 503c
00000360: 9b83 9fbc c7b0 1abd 1450 1c3d ad4e 9ebd
00000370: a036 4bbb f40e 04bc 8613 1fbd 81d8 85bd
00000380: dbd7 4b3d 9aea d73c e606 50bd 36f9 933d
00000390: 8f37 d93b 43e2 933d 43e3 703c 4299 f13c
000003a0: 859e d33c d152 573d ceea 39bd 8219 85bd
000003b0: 9d41 18bd afc1 c2bd 82e6 313a 7b95 afbd
000003c0: a2be 42bc 096e c63c 1fde af3b 5364 823d
000003d0: 1519 86bd 823a 473d 0aa8 92bb cebb a33d
000003e0: 3134 7cbb bc43 7fbd 13fe 563c cda5 bfbd
000003f0: cf60 abbc 0890 50bd 0a3b 39bd 2bd0 20bd

network.0.bias f4 [128]
-0.0279273 -0.06292993 0.038884774 -0.027948705 -0.04252493 -0.054760214 -0.06173629 -0.049127627
0.036013633 0.003640216 -0.046348948 -0.052425496 0.06766634 0.017228253 0.061163913 -0.010360935
-0.034243714 -0.054958977 -0.011462677 -0.027652925 0.06884977 -0.038706854 -0.049079515 0.015067797
-0.02166753 0.011625686 0.055177096 -0.03078929 0.08267581 -0.01238701 -0.06271733 -0.024926065
-0.040805317 -0.01270486 0.01896368 0.058210384 0.05923879 0.06623768 -0.05593876 0.05243227
-0.04694626 -0.037154306 -0.010279224 -0.047357284 0.052384686 -0.044009086 0.004498739 -0.0057863314
-0.0028998633 0.049059004 -0.0091833575 0.040977105 0.081463076 -0.06304683 -0.018308308 -0.060839094
-0.010010505 0.04705608 0.07099409 0.024629585 0.074294336 -0.0698131 0.030538173 -0.02204651
0.015577659 -0.043155283 0.015939198 0.060286134 0.03576663 0.050285544 -0.021348994 0.028574727
-0.05462011 0.015190737 0.059098847 0.019295234 -0.06814014 -0.048149064 -0.011851898 0.020286491
-0.06243309 0.0155191505 -0.035665102 -0.018554285 -0.028838852 -0.058341973 0.024203554 -0.057146385
-0.043848936 -0.030365918 -0.06832429 -0.059577197 -0.02018231 -0.042465035 0.046760097 -0.024879135
0.05598125 -0.04738179 0.07580777 0.041905936 -0.00953577 0.062266868 0.0050416654 -0.048035182
-0.00793001 0.013327004 0.0440953 -0.016106902 -0.049345925 0.0538125 0.030322583 -0.05859265
0.038468257 -0.0020898446 -0.0067433678 0.015987055 -0.047646355 -0.052878037 0.06607344 -0.029502206
0.0039125592 -0.015547307 0.018426025 0.032005563 0.06945352 0.040532902 0.02179177 0.005435062
00000000: cbc7 e4bc 68e1 80bd a445 1f3d aff4 e4bc
00000010: 9f2e 2ebd 3f4c 60bd 31df 7cbd 0d3a 49bd
00000020: 0883 133d b190 6e3b 65d8 3dbd 1ebc 56bd
00000030: a694 8a3d 4422 8d3c 0387 7a3d e9c0 29bc
00000040: 2343 0cbd aa1c 61bd f4cd 3bbc 6388 e2bc
00000050: 1c01 8d3d 148b 1ebd 9a07 49bd ecde 763c
00000060: 1b80 b1bc a979 3e3c 6101 623d d239 fcbc
00000070: ef51 a93d e3f2 4abc f271 80bd bf31 ccbc
00000080: 7a23 27bd 0c28 50bc b859 9b3c 036e 6e3d
00000090: 60a4 723d 9fa7 873d 0b20 65bd 38c3 563d
000000a0: b94a 40bd 1d2f 18bd 316a 28bc b6f9 41bd
000000b0: 5391 563d df42 34bd 286a 933b 449b bdbb
000000c0: a20b 3ebb 18f2 483d cb75 16bc 9cd7 273d
000000d0: 1dd6 a63d b21e 81bd 4efb 95bc 6a32 79bd
000000e0: 1a03 24bc e0bd 403d 5965 913d fcc3 c93c
000000f0: a127 983d 2cfa 8ebd 312b fa3c e29a b4bc
00000100: 7039 7f3c 98c3 30bd ec92 823c 98ee 763d
00000110: 0880 123d 37f8 4d3d 16e4 aebc 8c15 ea3c
00000120: 56b9 5fbd 92e2 783c a211 723d 0a11 9e3c
00000130: 0f8d 8bbd f437 45bd 772e 42bc db2f a63c
00000140: d7b9 7fbd 0944 7e3c 9215 12bd 28ff 97bc
00000150: 753f ecbc fef7 6ebd 8846 c63c 5412 6abd
00000160: f19a 33bd f2c1 f8bc 9bed 8bbd 3807 74bd
00000170: 5f55 a5bc d1ef 2dbd 8487 3f3d 54cf cbbc
00000180: 984c 653d 6813 42bd 1b41 9b3d 8fa5 2b3d
00000190: eb3b 1cbc 8b0b 7f3d 8e34 a53b 8ac0 44bd
000001a0: dfec 01bc 8259 5a3c 469d 343d 9ff2 83bc
000001b0: f41e 4abd 7f6a 5c3d 1167 f83c d9fe 6fbd
000001c0: e490 1d3d c6f5 08bb 78f7 dcbb 49f7 823c
000001d0: d328 43bd a496 58bd 8351 873d 9cae f1bc
000001e0: ed34 803b 22ba 7ebc 2df2 963c 4418 033d
000001f0: a63d 8e3d d405 263d a784 b23c 9b18 b23b

network.2.weight f4 [128, 128]
0.016508393 0.031043395 0.07180395 0.10203501 -0.08530033 0.029258398 0.008971155 -0.0016070111
-0.021684373 0.049819022 -0.011049242 -0.05512861 -0.026290845 0.090159334 0.07244022 -0.054824658
0.013705755 0.057697687 0.04298218 -0.021276418 -0.013906645 0.024149088 -0.015772864 -0.018053295
0.05647713 -0.057208635 0.07130669 -0.08464856 -0.025488896 0.034896325 -0.060059488 0.010623161
0.0655855 0.0045712525 -0.049634933 0.026340283 0.071634 -0.023400627 0.020653743 -0.07071492
-0.016940374 0.018140119 -0.045716062 -0.0871343 0.03900532 0.08631559 -0.06282755 0.022769447
-0.046756897 0.054589737 -0.053446017 -0.05143385 -0.006135508 -0.008162581 -0.064759694 0.06433467
-0.0076781986 -0.004981831 0.055439893 0.096049346 0.07678637 -0.05312036 0.004901489 -0.0025258746
0.01755923 0.030659592 -0.041355625 0.043524317 -0.019794287 0.030403107 -0.026727453 0.045817897
-0.02090718 0.08872904 -0.027803529 0.059858866 -0.07225482 0.0014463861 -0.030354992 -0.0048090327
-0.012055571 -0.004452137 -0.025780521 0.0181058 0.03284175 -0.044250052 -0.04080515 0.016141308
0.058382344 -0.0057812487 -0.047312792 -0.0716034 -0.026779644 0.016325485 -0.012746582 0.023484187
0.028286006 0.013189104 0.042063903 0.10654946 0.012707803 -0.012360757 0.07053834 -0.019203125
-0.011860016 0.11595816 0.018897736 -0.05123177 0.020056447 -0.00058366335 -0.057872865 -0.047137845
0.024710948 -0.054975025 -0.005675402 -0.008309768 -0.028704641 0.09068814 0.0122849345 0.019313456
-0.043765284 0.028954046 0.056319296 0.084115185 -0.08675999 0.018157395 0.005764708 -0.0888332
0.052839555 -0.05361404 0.04344295 -0.05937447 0.031314723 0.011724076 -0.06693794 0.051941954
0.07942301 -0.053242095 0.023388792 -0.07815157 -0.017233891 -0.11043658 0.08139955 -0.04405182
-0.022978675 0.048175577 -0.065648995 -0.044811398 -0.05118021 -0.010022154 0.0190555 -0.030071493
-0.089459896 -0.024828276 0.09388217 -0.051541246 0.04831553 0.022034552 0.04959572 -0.03591713
0.07604237 -0.016609916 -0.012745107 -0.08625375 -0.07488176 -0.02311902 -0.027792254 0.06645794
0.009478788 -0.06197775 -0.06825775 0.07990172 -0.04393497 -0.06999374 0.035310794 -0.074679665
0.060118385 0.053847622 -0.044294436 -0.05908001 -0.068108134 0.0031980968 0.06531523 0.018539408
-0.096854314 -0.01912378 -0.06614647 -0.048090678 0.005087828 0.062545955 0.058639754 -0.0793555
-0.021760715 0.07084871 0.046204463 0.050906725 -0.046006825 0.072467506 -0.06101678 0.041557632
0.07440687 -0.057968564 0.069142796 -0.08587684 -0.08392335 0.04155262 0.03047594 0.06285068
0.04700589 0.0050061224 0.0685111 0.025277503 -0.0061091566 0.08363304 -0.0368609 0.026536176
-0.019705167 0.10012497 -0.055060755 -0.03961127 -0.0072366167 0.013168073 0.049353246 0.018526752
0.05147442 0.014773713 0.017098527 -0.053369936 0.011097762 -0.043330215 -0.037578765 0.06305162
0.046863277 -0.06676975 -0.09007025 -0.0063856486 0.08147731 -0.06402348 -0.054041494 -0.046802007
0.062313747 0.044451497 -0.011308288 -0.088335104 -0.0640209 0.0058006225 -0.027168972 -0.07909455
0.10592988 -0.006045433 -0.09354719 -0.08950069 0.0551369 -0.018210197 -0.024254471 0.08073477
00000000: 9c3c 873c b84e fe3c f30d 933d bbf7 d03d
00000010: f0b1 aebd 4faf ef3c c0fb 123c 58a2 d2ba
00000020: 6da3 b1bc 080f 4c3d e107 35bc 8ace 61bd
00000030: e65f d7bc 75a5 b83d 8a5b 943d d28f 60bd
00000040: 1a8e 603c 6954 6c3d 150e 303d e24b aebc
00000050: b2d8 63bc 4fd4 c53c 1836 81bc 81e4 93bc
00000060: 9054 673d 9a53 6abd 3e09 923d 395c adbd
00000070: 17ce d0bc 73ef 0e3d f000 76bd c40c 2e3c
00000080: b151 863d 72ca 953b 004e 4bbd 94c7 d73c
00000090: d9b4 923d acb2 bfbc 0a32 a93c fcd2 90bd
000000a0: 8ac6 8abc 969a 943c c440 3bbd 7873 b2bd
000000b0: 0bc4 1f3d 3ac6 b03d bbab 80bd fe86 ba3c
000000c0: 2984 3fbd 7d99 5f3d 36ea 5abd 4dac 52bd
000000d0: 5f0c c9bb 59bc 05bc bba0 84bd e5c1 833d
000000e0: 6699 fbbb a13e a3bb f114 633d 85b5 c43d
000000f0: 2c42 9d3d bc94 59bd ab9c a03b 2589 25bb
00000100: 60d8 8f3c d329 fb3c 8464 29bd 8e46 323d
00000110: a127 a2bc f00f f93c 88f3 dabc 8cab 3b3d
00000120: 8945 abbc 92b7 b53d 3ac4 e3bc 922e 753d
00000130: 56fa 93bd aa94 bd3a 08ab f8bc 1795 9dbb
00000140: bb84 45bc 3be3 91bb ac31 d3bc 9d52 943c
00000150: 1285 063d 8b3f 35bd 4d23 27bd c73a 843c
00000160: 5322 6f3d a170 bdbb 0fcb 41bd cea4 92bd
00000170: fc60 dbbc 06bd 853c 0ad7 50bc e961 c03c
00000180: 0eb8 e73c 1d17 583c 334b 2c3d 9a36 da3d
00000190: 6434 503c c684 4abc 6876 903d df4f 9dbc
000001a0: 8350 42bc 797b ed3d 6dcf 9a3c 68d8 51bd
000001b0: 6b4d a43c fc00 19ba 190c 6dbd 9d13 41bd
000001c0: 9d6e ca3c 7e2d 61bd b9f8 b9bb b125 08bc
000001d0: ff25 ebbc b4ba b93d c046 493c 4137 9e3c
000001e0: 3a43 33bd 0931 ed3c 10af 663d 9544 ac3d
000001f0: 39af b1bd d1be 943c e0e5 bc3b 2eee b5bd
00000200: 4a6e 583d 659a 5bbd 3cf1 313d a532 73bd
00000210: de43 003d 5716 403c c216 89bd 16c1 543d
00000220: 88a8 a23d 6214 5abd da99 bf3c ee0d a0bd
00000230: 172e 8dbc 932c e2bd cfb4 a63d ae6f 34bd
00000240: c63d bcbc c153 453d fb72 86bd 288c 37bd
00000250: 57a2 51bd f633 24bc 481a 9c3c 7e58 f6bc
00000260: c036 b7bd ab64 cbbc 4c45 c03d ea1c 53bd
00000270: 81e6 453d ce81 b43c e224 4b3d d71d 13bd
00000280: 1abc 9b3d 8511 88bc dad0 50bc cea5 b0bd
00000290: 9c5b 99bd 1964 bdbc 95ac e3bc 1a1b 883d
000002a0: eb4c 1b3c 62dc 7dbd b8ca 8bbd 83a3 a33d
000002b0: 28f5 33bd e158 8fbd 0da2 103d a7f1 98bd
000002c0: b23e 763d 538f 5c3d 156e 35bd e1fd 71bd
000002d0: 477c 8bbd 2997 513b fec3 853d f5df 973c
000002e0: 8e5b c6bd 79a9 9cbc cd77 87bd bbfa 44bd
000002f0: cbb7 a63b 1818 803d 3d30 703d 2385 a2bd
00000300: 8743 b2bc 2119 913d e440 3d3d 9283 503d
00000310: a771 3cbd d869 943d bbec 79bd 5638 2a3d
00000320: a162 983d 7270 6dbd bd9a 8d3d 32e0 afbd
00000330: 01e0 abbd 1433 2a3d aea8 f93c dbb7 803d
00000340: 4089 403d 660a a43b 8c4f 8c3d c412 cf3c
00000350: 522f c8bb cd47 ab3d 75fb 16bd 6562 d93c
00000360: bb6c a1bc 520e cd3d 6387 61bd 6d3f 22bd
00000370: 2421 edbb e7be 573c a126 4a3d 6ac5 973c
00000380: d7d6 523d 720d 723c 3612 8c3c 6f9a 5abd
00000390: 63d3 353c 067b 31bd 31ec 19bd 3521 813d
000003a0: b5f3 3f3d 94be 88bd c076 b8bd b43e d1bb
000003b0: 93dd a63d be1e 83bd 9d5a 5dbd 76b3 3fbd
000003c0: b33c 7f3d c612 363d 6646 39bc 09e9 b4bd
000003d0: 641d 83bd 2613 be3b 7791 debc 53fc a1bd
000003e0: c4f1 d83d c518 c6bb ab95 bfbd 234c b7bd
000003f0: 3bd7 613d 8d2d 95bc 50b1 c6bc 4558 a53d

network.2.bias f4 [128]
-0.034680128 0.06223835 -0.013722179 0.071923666 -0.08884503 0.019731298 0.069916405 0.07519408
0.0017529076 0.036785465 0.08195791 0.009540246 0.03317091 -0.011309035 0.053254172 -0.024814546
-0.08905728 -0.08411887 0.010797704 -3.609366e-07 0.08431044 -0.011935638 -0.059578016 0.021988146
0.05369254 -0.045949873 -0.015076613 -0.0032701993 -0.00050248683 -0.090052105 0.020045321 -0.06953885
0.04281653 0.06842289 -0.050764408 -0.03511185 -0.07699066 0.09193342 0.052336518 0.07444563
0.025833633 -0.0012462669 0.048569918 0.0019411785 -0.059040476 -0.015882326 -0.06254331 -0.07700242
0.083050825 -0.028655153 0.008051864 0.07117357 0.02149127 -0.019828772 0.0055202823 0.042637736
0.061440222 0.009767291 0.0028864518 -0.04526736 0.08379211 0.034448724 -0.004273075 0.032199524
0.026563916 0.027174253 0.06873659 -0.07941115 0.09138646 -0.03777416 0.07140078 0.059959654
0.033273514 -0.04087579 0.048402533 0.0347036 0.021511195 -0.044785336 -0.015152773 -0.09510813
-0.007904962 -0.02048676 -0.04719875 0.09008571 -0.031404596 -0.051071152 -0.029065996 0.05112912
0.07353659 -0.055963464 -0.031609923 0.017919187 -0.060434654 -0.043704547 0.008206383 -0.046125934
0.068850495 -0.019300502 -0.004375974 -0.023530917 0.014667223 -0.0817308 -0.059497878 0.022582969
0.08885894 0.06306529 -0.041747753 -0.0179815 0.017809615 0.01848949 0.07237238 0.026534319
-0.020456938 -0.052770767 0.013299921 0.0408262 -0.09163318 0.0012230573 0.03457431 0.06696547
-0.04697462 -0.048278876 0.088266045 0.05872454 0.041582834 0.07955722 0.0954252 -0.013522102
00000000: c00c 0ebd a4ed 7e3d fed2 60bc b74c 933d
00000010: 62f4 b5bd 88a3 a13c 5530 8f3d 5bff 993d
00000020: d2c1 e53a 5bac 163d 8cd9 a73d b14e 1c3c
00000030: 38de 073d 8849 39bc 0c21 5a3d e047 cbbc
00000040: aa63 b6bd 8446 acbd dae8 303c c0c6 c1b4
00000050: f4aa ac3d b28d 43bc 1408 74bd 7c20 b43c
00000060: b5ec 5b3d ef35 3cbd e603 77bc d750 56bb
00000070: 52b9 03ba 3d6d b8bd 1636 a43c 626a 8ebd
00000080: 6360 2f3d 4d21 8c3d 57ee 4fbd 71d1 0fbd
00000090: 47ad 9dbd 9747 bc3d d15e 563d f376 983d
000000a0: 0ea1 d33c c759 a3ba 40f1 463d 246f fe3a
000000b0: 6dd4 71bd a71b 82bc b516 80bd 72b3 9dbd
000000c0: 8d16 aa3d 36be eabc f7eb 033c 73c3 913d
000000d0: 760e b03c f36f a2bc 7ce3 b43b e8a4 2e3d
000000e0: bea8 7b3d fd06 203c a02a 3d3b 446a 39bd
000000f0: 339b ab3d 1b1a 0d3d 2705 8cbb a6e3 033d
00000100: 929c d93c 8a9c de3c c5c5 8c3d 50a2 a2bd
00000110: d328 bb3d 14b9 1abd 923a 923d 4198 753d
00000120: cf49 083d 5f6d 27bd bc41 463d 5d25 0e3d
00000130: 3f38 b03c d470 37bd 5643 78bc 0dc8 c2bd
00000140: d083 01bc dad3 a7bc 7a53 41bd db7e b83d
00000150: 1ba2 00bd fc2f 51bd d01b eebc c56c 513d
00000160: 5a9a 963d f239 65bd 6879 01bd 42cb 923c
00000170: 548a 77bd 8a03 33bd 1174 063c 8cee 3cbd
00000180: 7d01 8d3d 161c 9ebc 5564 8fbb e9c3 c0bc
00000190: cb4e 703c 7a62 a7bd 0cb4 73bd ebff b83c
000001a0: adfb b53d 6028 813d b1ff 2abd f04d 93bc
000001b0: 78e5 913c 4577 973c f837 943d 805e d93c
000001c0: 4f95 a7bc 2926 58bd e9e7 593c 6039 273d
000001d0: 2daa bbbd fe4e a03a cb9d 0d3d 3125 893d
000001e0: 7668 40bd 12c0 45bd d4c4 b43d 2589 703d
000001f0: c352 2a3d e5ee a23d 4a6e c33d ce8b 5dbc

network.4.weight f4 [5, 128]
-0.09819023 0.06706376 0.09101246 0.036677703 -0.11014385 0.044302985 -0.11379249 0.051543824
-0.07062868 0.09821623 0.019428145 0.054726075 -0.057089504 -0.045654945 0.05799955 0.09801984
0.07882641 0.010006916 0.012449248 -0.0059438073 -0.04224606 -0.069136575 -0.05840179 -0.06284133
-0.0009902946 -0.08770086 -0.001333029 -0.015372006 0.09727403 -0.05792019 -0.060995292 -0.096592486
0.024700934 0.05759913 -0.029808037 0.072182626 -0.087330155 -0.005394084 0.0050885268 -0.046120282
-0.011289763 0.04291659 -0.056388017 -0.045742184 -0.014843741 0.07882982 0.044215035 0.13176653
0.095553674 0.061332926 -0.097504795 0.048085716 0.038134944 -0.09498874 0.039752122 -0.07545626
0.07534909 0.09036818 -0.081781395 -0.06998774 -0.0883043 0.03706435 0.044714335 -0.01694431
-0.080916375 -0.07240922 -0.021518743 -0.056092557 -0.06521992 -0.09149523 -0.06369861 0.028835008
-0.10657856 0.07088248 -0.030800382 -0.09561756 0.020869283 0.036911502 -0.03758781 -0.07823576
0.05252721 0.039554324 0.09407787 0.014098911 -0.027273262 -0.051550873 -0.04584908 -0.006206403
0.066150986 -0.061933525 0.037302073 -0.052818988 -0.07347862 0.019402014 0.009831674 0.034344457
-0.08843443 0.08345631 0.08766722 -0.014682177 0.07617543 0.02094434 -0.059640303 0.08931456
0.0007656771 -0.011898861 0.017716007 0.04194421 -0.09825949 -0.049040668 -0.021294726 -0.11642145
0.07131508 0.07689187 0.079267286 0.030396445 0.055175927 -0.042822577 -0.035378497 -0.113592714
-0.021382814 -0.0355321 0.12551345 0.0685966 0.08296283 -0.011043789 -0.0134295225 -0.11874879
-0.06414757 0.052883185 -0.07269341 -0.06692515 0.088326976 -0.027899269 0.074826404 0.051494192
-0.08347374 0.0096780285 -0.04276243 -0.018124178 -0.09120152 -0.018323863 0.06286534 0.03536782
0.03959199 0.083043486 -0.038546108 -0.03956278 0.058033675 -0.05352561 0.054560594 0.005480889
0.07755919 -0.012981932 -0.052891374 -0.07253535 0.042751577 -0.007427726 -0.06025859 0.031174151
0.002240179 0.018930577 0.07870719 0.004276537 0.07488514 0.024007665 0.07479024 0.033416
0.070686005 -0.040299464 0.08367464 0.06344349 -0.002986964 -0.024273247 0.026074324 -0.070979275
-0.09400114 -0.090437904 -0.01275011 -0.034317322 0.043628193 0.02326882 -0.03430366 -0.041525345
0.054503392 -0.027065568 -0.088185504 -0.05250919 0.07789403 -0.056870002 -0.05588622 0.020711992
-0.07663434 0.062272895 0.08115625 -0.017651362 0.013186105 -0.0052166274 -0.059175536 0.06309516
0.063418806 -0.019944848 -0.055303678 0.033106558 0.011016538 -0.05210576 0.035534848 0.0187685
0.05972601 -0.0046586627 0.023127418 -0.05471179 0.06945169 0.07580605 0.028976705 -0.009532141
0.003763344 -0.060943294 -0.028981395 0.06570965 0.050307088 -0.08380331 -0.038424026 0.023887439
0.00088482024 0.06032066 0.022913003 -0.0033939413 -0.04626973 0.02737462 -0.070565104 -0.0031028136
-0.072891295 -0.04084827 0.078266256 -0.10283085 -0.03000093 -0.02406645 0.02639065 0.06205947
0.04630169 -0.026151987 -0.08202036 0.0071712295 -0.08390877 0.09910477 -0.052851293 0.03690608
0.025942216 0.06375568 -0.09535842 -0.012929139 -0.08361375 0.0733056 -0.06483139 0.057859447
00000000: f617 c9bd b958 893d be64 ba3d 5c3b 163d
00000010: 1993 e1bd 0c77 353d 090c e9bd 9e1f 533d
00000020: c5a5 90bd 9725 c93d c627 9f3c 7328 603d
00000030: afd6 69bd ae00 3bbd f090 6d3d a0be c83d
00000040: be6f a13d 0cf4 233c eef7 4b3c 45c4 c2bb
00000050: 340a 2dbd 7a97 8dbd b736 6fbd f5b2 80bd
00000060: c6cc 81ba 829c b3bd 08b9 aeba deda 7bbc
00000070: 9b37 c73d b93d 6dbd 33d6 79bd 48d2 c5bd
00000080: 9d59 ca3c 11ed 6b3d fc2f f4bc 7cd4 933d
00000090: 27da b2bd dbc0 b0bb a8bd a63b 9fe8 3cbd
000000a0: b3f8 38bc 4ec9 2f3d 1ff7 66bd 285c 3bbd
000000b0: 2a33 73bc 8771 a13d d31a 353d ceed 063e
000000c0: a5b1 c33d 3c38 7b3d 98b0 c7bd 87f5 443d
000000d0: 6333 1c3d 7589 c2bd 1fd3 223d d088 9abd
000000e0: a050 9a3d f412 b93d 017d a7bd bb55 8fbd
000000f0: e3d8 b4bd cad0 173d 6126 373d cbce 8abc
00000100: 7cb7 a5bd 494b 94bd 1348 b0bc 4fc1 65bd
00000110: 0592 85bd da61 bbbd 6b74 82bd 6537 ec3c
00000120: dc45 dabd d52a 913d 1551 fcbc 24d3 c3bd
00000130: 0ff6 aa3c 8430 173d adf5 19bd 123a a0bd
00000140: c626 573d b703 223d e6ab c03d 1eff 663c
00000150: 2d6c dfbc 0227 53bd 3fcc 3bbd 155f cbbb
00000160: 2b7a 873d 02ae 7dbd 0fca 183d b958 58bd
00000170: f57b 96bd f9f0 9e3c 0815 213c c6ac 0c3d
00000180: 1c1d b5bd 24eb aa3d df8a b33d 848d 70bc
00000190: dd01 9c3d 7793 ab3c 6449 74bd 8dea b63d
000001a0: b8b7 483a 71f3 42bc 2921 913c b1cd 2b3d
000001b0: 463c c9bd dede 48bd 4772 aebc 5f6e eebd
000001c0: a40d 923d 7c79 9d3d e356 a23d f701 f93c
000001d0: 2700 623d ba66 2fbd 0be9 10bd 4ca3 e8bd
000001e0: 032b afbc 1b8a 11bd 9986 003e 607c 8c3d
000001f0: 6be8 a93d 02f1 34bc 8007 5cbc 9132 f3bd
00000200: cd5f 83bd 0a9c 583d 48e0 94bd 0e10 89bd
00000210: c6e4 b43d 028d e4bc 963e 993d 93eb 523d
00000220: 48f4 aabd 9890 1e3c a827 2fbd 2879 94bc
00000230: ddc7 babd ed1b 96bc 8bbf 803d d9dd 103d
00000240: 362b 223d b412 aa3d 86e2 1dbd 950c 22bd
00000250: b8b4 6d3d ac3d 5bbd ee7a 5f3d 0899 b33b
00000260: 5ad7 9e3d 2bb2 54bc a0a4 58bd 6a8d 94bd
00000270: 471c 2f3d 4864 f3bb b6d1 76bd ef60 ff3c
00000280: f8cf 123b 4c14 9b3c 3c31 a13d 3122 8c3b
00000290: 615d 993d b9ab c43c a02b 993d 37df 083d
000002a0: d3c3 903d 0d11 25bd 9c5d ab3d a9ee 813d
000002b0: f1c0 43bb b0d8 c6bc d299 d53c 955d 91bd
000002c0: ab83 c0bd 8237 b9bd d6e5 50bc 5290 0cbd
000002d0: 7ab3 323d 419e be3c ff81 0cbd 7b16 2abd
000002e0: f33e 5f3d 9cb8 ddbc 9a9a b4bd e013 57bd
000002f0: e886 9f3d 85f0 68bd f3e8 64bd 32ac a93c
00000300: 77f2 9cbd dd11 7f3d 3f35 a63d 9799 90bc
00000310: 880a 583c 3ef0 aabb 0c62 72bd 0938 813d
00000320: b8e1 813d 6163 a3bc 1c86 62bd be9a 073d
00000330: b67e 343c d96c 55bd fd8c 113d 66c0 993c
00000340: 43a3 743d b2a7 98bb b675 bd3c 7819 60bd
00000350: b03c 8e3d 3440 9b3d 8e60 ed3c b22c 1cbc
00000360: 6fa2 763b ad9f 79bd 646a edbc c892 863d
00000370: ce0e 4e3d 12a1 abbd 8362 1dbd 97af c33c
00000380: 48f3 673a cc12 773d 0db4 bb3c e36c 5ebb
00000390: 5485 3dbd bd40 e03c 7084 90bd 9358 4bbb
000003a0: 0848 95bd 8450 27bd 0f4a a03d fb98 d2bd
000003b0: 83c4 f5bc 0127 c5bc 3431 d83c 1232 7e3d
000003c0: d7a6 3d3d b13c d6bc 4afa a7bd a2fc ea3b
000003d0: 5cd8 abbd 71f7 ca3d 997a 58bd d42a 173d
000003e0: c584 d43c 5792 823d 464b c3bd bdd4 53bc
000003f0: b03d abbd 3f21 963d 52c6 84bd 07fe 6c3d

network.4.bias f4 [5]
0.05411502 -0.07515439 0.03577818 0.03595283 -0.052537534
00000000: b6a7 5d3d 8bea 99bd 248c 123d 4643 133d
00000010: 9931 57bd
