IA2CC/model/rewardweight/config1/actor_3.pth (torch, 161096 bytes, 6 tensors)

network.0.weight f4 [128, 175]
00000000: 63cb 563d ebc1 27bd 4735 c3bc eb8d c7bb
00000010: c505 483d d6ba e63c 6bc9 8ebd 7338 473c
00000020: fb9a 9c3d 321f 883d efc4 a13d 6b53 7bbd
00000030: 35c2 3e3d 3703 f03c 49d7 10bd d486 4b3d
00000040: c927 01bd 5dae 91bd e446 943d 7256 08bb
00000050: 03c5 a4bd 5103 5ebd 2f35 4fbd 57c8 613d
00000060: c897 123b 6652 0f3d b1c7 d83c 20ec 493b
00000070: ef67 fdbc a389 02bd 9157 a43d 9e90 ad3c
00000080: d73d 663d 86bb 7c3d ad8a 9f3d ecde 4fbd
00000090: d261 333c 1c7b 073d 7bc9 99bd 8941 f3bc
000000a0: e445 7fbb dbf2 21bd a6c4 9ebc a212 093d
000000b0: 20cc 52bc 4750 42bd 77e3 00bc 170e 803d
000000c0: cb3f 013c 8bfe ee3c 8151 f73c 97fe 4d3d
000000d0: 6afe 23bd 2d05 7e3d e8d4 96bd a7a5 aebc
000000e0: fb0d b7bd 6a60 203d 74ae 07bd b0f6 223d
000000f0: 6348 65bd 0375 363d c8d2 83bd ea0f 643d
00000100: 7da4 35bd 6465 453b f036 3a3b a167 32bd
00000110: c7ec be3b 91f6 31bd 2f0c 933b ad2e 183d
00000120: 3604 a0bd 5ba6 a53d 9121 bfbd 844b f33c
00000130: e40d 81bd 4502 5bbb dff1 62bd b21d 81bc
00000140: e073 003c fb33 32bd 0c2e 823d 1b0d 15bc
00000150: bd32 193d e4b9 0d3b 3a82 e73c 0f4f 3bbd
00000160: fad4 b8bc 4e26 28bc e60a febc e056 b73d
00000170: fc95 aabd 840f 21bb e60e 85bd fde1 d63d
00000180: 91aa d0bb 86ec 22bc 390f 1fbd e2d8 7b3d
00000190: 831d 783d 8c4b 513d fe61 8d3d 3f9e 903c
000001a0: c36f 103d 518c 843d ecfb ae3c b54d 893d
000001b0: c2ef 623d 954a c7bb b2fd 5fbd 2dc0 7e3b
000001c0: c9d7 683d 7d99 873c 929d 10bd c83d 84bd
000001d0: 4716 4c3d 797a 0f3d 007e 973c 4a35 ab3c
000001e0: 16df 633d 7bf8 e53b f643 773d 00c8 1dbd
000001f0: 54ed 5d3d 2503 18bd a861 313d 667c a9bc
00000200: a627 8fbd b84c 863d d1e5 b0bb 36d4 0e3d
00000210: eb89 b3bd 877e 103c 3c81 20bd e6cd 16bc
00000220: 2e1a 7f3c ca56 9cba 4f14 a6bb 335b 823d
00000230: 635d 583d 1dbe 3e3c fa0b 233d 85ea 8a3d
00000240: ce25 2c3c 89fa 143d bc53 053d def5 213d
00000250: 4306 533d ba86 953d b695 efbc b9c9 2cbd
00000260: dc3e 393d 47de b2bd 52a1 c23d 0745 103d
00000270: 4a34 1e3c c03a a6bd 9eae cc3c b89a 5a3d
00000280: cd29 d03d 8ffc b5bc 3a32 cf3d ebff 773d
00000290: ae10 823c 671a da3c 8d65 423c 483b 24bd
000002a0: ec98 67bd f829 803d 10e5 9d3c c0c0 a1bd
000002b0: 7702 843d b44f 353d 083f 213d 0f5c fb3c
000002c0: b734 b23c 5f6d 84bd 3a9c 04bc c129 143d
000002d0: 0db4 2a3d 8d6f c03c 91e5 4f3d 9b67 f5bb
000002e0: 069f 7a3c 8201 5a3b 44f4 c33c d095 283d
000002f0: def9 dd3c 941f 713c abc8 71bd f25f 68bd
00000300: e0a8 c03c 8422 d0bc 6c39 433d 0116 2e3d
00000310: ab72 9d3d 80d4 fdbc dfa9 073d c426 223d
00000320: 39ce 0dbd d64e 7abc 9072 82bd 0724 373d
00000330: 1ee8 6f3c e438 20bb 268a 463d 9e02 733d
00000340: 732f 04bd 6f13 22bd 2465 89bd 0579 603d
00000350: 3ba3 403d 0983 45bd 2006 3cbd 8618 bd3c
00000360: b12f 993d 84a1 d5bc 57e2 38bc 103d 36bd
00000370: e9c7 913d 607f 02bd 6406 7b3d 54d7 343d
00000380: 2a92 5abc 1975 01bd 9b70 a3bc 71e7 a53c
00000390: 91f4 533d e010 92bd 9193 2d3d 1bcb c13c
000003a0: 0c36 afbc 7677 153c 5a48 5f3d cd72 d0bd
000003b0: 9fa3 2dbd e643 c23c 38d4 673d 6ff3 ad3d
000003c0: 1091 55bd f135 7c3d 726a 99bd 38e2 933d
000003d0: fdcb 0f3d 361e 5cbd a061 f53c cecc 34bd
000003e0: 9fb1 aa3d 76d4 fcbc dc42 803b 5322 4b3d
000003f0: 56c4 733d 15b7 9ebc ded4 68bc 48ef 67bc
0.05244006 -0.04095642 -0.023829116 -0.006089916 0.048833627 0.028165262 -0.06972011 0.012159455
0.07646748 0.06646575 0.0789889 -0.06135885 0.04657193 0.029298408 -0.035361562 0.04968913
-0.031532083 -0.07113335 0.07240084 -0.0020803479 -0.080453895 -0.05420238 -0.05058783 0.0551227
0.00223683 0.03499069 0.026462408 0.0030810907 -0.030933348 -0.03186954 0.080245145 0.021187123
0.05621132 0.061702274 0.07790122 -0.050749704 0.010948615 0.03307639 -0.075091325 -0.029694336
-0.003895157 -0.039538246 -0.019380879 0.033465035 -0.01286605 -0.04743984 -0.007866732 0.062526874
0.007888745 0.02917411 0.030190231 0.050291624 -0.04003755 0.062016655 -0.073648274 -0.021319224
-0.089382134 0.039154448 -0.033125356 0.03978604 -0.055977236 0.044545185 -0.06436688 0.05567924
-0.04434632 0.0030120248 0.0028414093 -0.04355586 0.005826566 -0.043448035 0.0044875364 0.03715389
-0.07813303 0.080883704 -0.09332574 0.029699095 -0.063014776 -0.00334181 -0.055406447 -0.01576123
0.007840127 -0.043506604 0.06356439 -0.009097363 0.037401903 0.0021625692 0.028260339 -0.045729693
-0.022562493 -0.010263039 -0.031011056 0.08952117 -0.083293885 -0.0024575898 -0.06496982 0.104923226
-0.0063679894 -0.009944087 -0.038832877 0.061486132 0.06057502 0.051097438 0.06903456 0.017653583
0.035262834 0.06472076 0.02136036 0.067042746 0.055404432 -0.006081889 -0.054685302 0.003887187
0.056846414 0.016552681 -0.03530652 -0.06457096 0.049825933 0.03502891 0.018492699 0.020899434
0.055632673 0.0070181466 0.060367547 -0.038520813 0.05418141 -0.037112374 0.043306023 -0.0206892
-0.06989984 0.06557602 -0.00539849 0.03487035 -0.0876654 0.008819229 -0.039185748 -0.009204363
0.015570207 -0.0011927721 -0.005068339 0.06365051 0.052823436 0.011642006 0.039806344 0.06783012
0.01050706 0.03637174 0.03255056 0.039541118 0.051519644 0.07301088 -0.029246192 -0.042184565
0.045225963 -0.08733802 0.09503426 0.03522208 0.009656021 -0.081166744 0.024985608 0.053370208
0.10164223 -0.022215156 0.10117002 0.060546797 0.015877094 0.026623918 0.011865032 -0.040095598
-0.056542322 0.06258005 0.019274265 -0.07898092 0.06445783 0.044265464 0.039366752 0.030683545
0.021753652 -0.064661734 -0.008093888 0.036172632 0.041675616 0.023490692 0.05075604 -0.0074891574
0.015296703 0.003326506 0.023920186 0.041158497 0.027096685 0.0147170015 -0.059029263 -0.056732126
0.023518026 -0.025407083 0.047662184 0.042501453 0.07687887 -0.030985117 0.033120986 0.03958775
-0.034620497 -0.015277585 -0.06369507 0.044712093 0.014642743 -0.0024447972 0.048471592 0.059328668
-0.032271814 -0.039569315 -0.06708744 0.054802913 0.04703067 -0.048220668 -0.04590428 0.023082983
0.074797995 -0.026077993 -0.011284432 -0.044491827 0.07118208 -0.031859756 0.06128539 0.044150665
-0.013340512 -0.031605814 -0.019951155 0.020251961 0.05174691 -0.07132125 0.04237706 0.023656419
-0.021388076 0.00912272 0.05451236 -0.101781465 -0.04239237 0.023714017 0.056598872 0.08493697
-0.052140296 0.06157488 -0.07491006 0.07220882 0.035106648 -0.05373975 0.029953778 -0.04414063
0.0833466 -0.030863028 0.0039142203 0.04959328 0.059513412 -0.01937441 -0.014210908 -0.01415617

network.0.bias f4 [128]
00000000: f936 203d a7bf 123d bdcb d03a 38c7 29bc
00000010: 5036 8ebc defd ce3b c7b0 07bd 0e8a 573d
00000020: fd1a 7abd 3c76 e9bc 266e b83d b27d 15bc
00000030: e919 23bd 32c1 f0bc c36a 5d3d 7775 323d
00000040: 8089 323d 0019 f03b 3405 82bd 3cc5 e23c
00000050: cef1 0f3c f8b3 863d 31f1 c53c 16ef 76bc
00000060: f09c e2bb c765 b7bc 2915 3f3d 48d9 02bd
00000070: dba8 a93d a19e 233d 82c8 96bc c347 323d
00000080: 6b29 933d dfca d73c 22d7 0dbd 76d3 81bd
00000090: d39f 0d3c fc21 f3bb e1ed f7bc 8011 b73d
000000a0: 7560 e63c ca3b 3bbd 4edc 263d baa8 9dbd
000000b0: 2368 89bc cc8e 293b bc35 8f3c d106 40bd
000000c0: 8671 4b3d 762c 6d3d bca3 7d3d 4e39 32bc
000000d0: 27c5 323c 17a2 593d 2b74 93bd 84b5 903d
000000e0: a727 72bd 3b35 8ebd f6b3 28bc 3439 663d
000000f0: 1377 1b3d 52e6 82bd 46fd 773d 6cfb 1b3d
00000100: ab2c 9cbc 82da 9dbc 6c2f 263c 74c2 3d3d
00000110: 720a 4bbc c1e9 0ebd ccaa 9e3d a74f 113d
00000120: 5e11 7a3d fca2 83bd daac 1d3d b1fc f1bb
00000130: 19a4 5cbc 8d19 403d 5b63 883d 969b d83c
00000140: 906f ec3c ce76 69bd b529 f3bc 2ff5 eabc
00000150: 5474 3d3c 41fb 6fbb 155d a63c 9e74 893c
00000160: 5b09 b63b cc44 5cbd 8969 093d 114b 05bd
00000170: 43b3 463d 40fe 883c 321d 9abd 793e 853c
00000180: dc63 543b 9427 ad3c 19da 853b 7052 bcbb
00000190: 5761 acbc 3e21 9e3d f0eb 11bd 7a85 fd3c
000001a0: 194f 9c3d e698 a3bc 6686 8abc 20b2 1abd
000001b0: 815a 8cbd edf5 9cbd 1842 f9bc 567e 883d
000001c0: 2bac 8d3d ae0a 153c b331 543d efbf 6d3c
000001d0: 8095 c9bc c28f b13b dda4 dabb 23c7 863d
000001e0: 6817 193c 2b90 9fbc 7a35 0939 ad49 283b
000001f0: 3e75 57bc 9114 053d 1680 1cbb 851c 5a3c
0.039114926 0.035827305 0.0015929859 -0.010362439 -0.017359883 0.0063168844 -0.033127572 0.052621894
-0.061060894 -0.028498761 0.09005384 -0.009124206 -0.03981963 -0.029388998 0.054056894 0.043569054
0.04358816 0.007327199 -0.06348649 0.02768194 0.008785678 0.06577295 0.02416286 -0.015071651
-0.006915681 -0.022387398 0.04665104 -0.031945497 0.0828416 0.039946202 -0.018406156 0.04352547
0.07185634 0.026341854 -0.034628995 -0.06339161 0.008644062 -0.0074198227 -0.030264797 0.08938885
0.028122166 -0.045711316 0.040737443 -0.07698198 -0.01677329 0.0025872467 0.017481677 -0.0468815
0.04966881 0.05790373 0.061923727 -0.01087792 0.010911263 0.053133097 -0.07199892 0.07065871
-0.059119847 -0.06943747 -0.010296812 0.056206897 0.037955355 -0.06391586 0.060544275 0.03808157
-0.019064268 -0.019269232 0.010143142 0.046328023 -0.012392627 -0.034890894 0.07747421 0.035476353
0.06105172 -0.06427571 0.038494922 -0.0073848595 -0.013466858 0.046899367 0.066595756 0.026441377
0.02886179 -0.056998067 -0.029682973 -0.028681366 0.011563379 -0.0036618265 0.020308057 0.01677924
0.0055553145 -0.053776547 0.03354791 -0.032542292 0.0485108 0.016722798 -0.075251 0.01626514
0.0032408154 0.021137036 0.004084837 -0.005747132 -0.021042509 0.07721184 -0.0356254 0.030947436
0.07632274 -0.019970369 -0.01690979 -0.03776753 -0.068532 -0.07664094 -0.030427024 0.06664722
0.06917604 0.0090967845 0.05180521 0.014511093 -0.02460742 0.0054187486 -0.0066724853 0.06580951
0.009343959 -0.019477924 0.0001308526 0.002567868 -0.013150511 0.032490317 -0.0023880056 0.013312464

network.2.weight f4 [128, 128]
00000000: 5e0c 523d 1771 12bc 8fa3 73bd 0fca 72bc
00000010: 41fc d33d bbd9 4d3d 6106 2f3d 76ba 483d
00000020: 8bb0 2abc 74cc 8d3c 25a7 3f3d 5707 bdbc
00000030: 05e6 973c 1fff f13c 82ca 5abd d402 083d
00000040: 74c5 823d 384d 27bd 960d 01bd db59 f9ba
00000050: a080 5c3d cfc7 f8bc a3cd 3e3d 9f23 7f3d
00000060: 86b6 9bbb 4624 913d befc 433d b0e7 a83c
00000070: 8737 b13d f7e1 1cbc 9736 04bd 0968 f0bc
00000080: 4f9c 29bd be17 553d 3ab9 76bd 1d08 9a3c
00000090: 66e0 de3c 7e8b abbd c92d ddb9 91ed febc
000000a0: cbf2 c33c 056c 13bd 2584 3ebc 409f 51bc
000000b0: 584d a63b 9c53 a2bc 4a85 683d 35b3 553c
000000c0: 0cd8 533d 7ea7 3bbd 576e 0d3c 0121 e1bc
000000d0: 9249 163d 784e 18bb 9548 513c 0477 6bbc
000000e0: b5b0 3abd 3697 87bc 55f9 363d d9ac 80bc
000000f0: 119a 623d fd1c f4bc 233a 9bbb e729 613d
00000100: 950b 89bd b106 3fbd 9364 a13d 86e0 5ebd
00000110: 4c4e 1d3d 5b1a 14bd e7fd 1fbc b30f 48bc
00000120: 20dd 32bd 30e7 273d b5a9 0ebd 8ff5 f63d
00000130: 3bfd 583d 84c0 aabd 72c5 41bc 1fdd 773d
00000140: 3b2c 79bd 1568 a2bc d599 8ebc 3b36 a83d
00000150: 7dd5 9abb 5394 983d 6be3 8ebd eaca c63d
00000160: fc09 233d 459c 44bd 18a1 803d c35a 4ebd
00000170: 052a 363d 03d6 03bd 12ed 7c3d e46b 143d
00000180: 1b87 14bd 198e 8ebd c19d 0a3b c02b aebd
00000190: 78e8 123c cbca 12bd d630 993c 1f79 2d3d
000001a0: c5ad b7bd 8b15 2e3d 09d3 5bbd c83f dabc
000001b0: d935 fdbc ac2a 13bc fb20 2b3d 8f16 113d
000001c0: 60ce a93d 812a 553d 57ba a4bc deaa 343d
000001d0: 63f5 5dbd 23ad afbd a553 9abd 6201 4d3d
000001e0: 8ee8 573d 5fa1 09bd e803 82bd b755 063d
000001f0: 467e 55bc 16c0 843d e813 d73c 47ab 983c
00000200: af50 5f3d ca85 503c d2a8 0f3d aaae 88bd
00000210: 129d 67bd f470 06bd 9dc9 26bd dc06 91ba
00000220: 6300 713d 8766 a13d 06d6 2a3c 6d00 7ebd
00000230: e433 17bd 1ef5 a53c c174 18bd c151 97bd
00000240: 4b66 77bd e444 413d 98ec 8fbd 7b49 5f3d
00000250: 5842 39bd 491f 87bc a476 0dbd 46f1 6abd
00000260: 8b27 93bd bb64 2a3a 281f 07bd a100 79bc
00000270: abc6 f23b 1799 6e3d 3e33 933d 81a0 513d
00000280: 85bd 473d 9df1 1a3d 8377 73bd 81eb e93c
00000290: 90b4 9ebd 8297 04bd 081d 093d ad93 93bb
000002a0: 1393 b3bd e90d b63a 0d94 afbd ee42 febc
000002b0: 6aec 103c 28ca e23c 12ab 1b3c 4b18 95bb
000002c0: 631c 9ebc a5d2 83bd 2ecc 86bd cd32 013d
000002d0: ef6b 7a3d 7472 84bd 3a08 d9bc b2b4 9939
000002e0: bb46 433d 516a 57bc 9344 0c3d fb76 b2bd
000002f0: 3a37 abbc 7a72 fb3b be8a 70bd c068 aabd
00000300: ea2e 053c 7bbb 103d b9ec 073a 3000 bfbc
00000310: 1a6b 8dbd 583e 08bd 2c20 8bbc 0a36 37bb
00000320: 051b 15bc c63f 29bd ca83 09bc 1174 a43d
00000330: 7bcd 523d 43d6 9fbd 44f5 8e3d ded8 a3bc
00000340: 7847 923b 4444 01bd 4080 5dbc e513 1c3d
00000350: 3e87 aebd 6961 d83b 1a22 82bc a3fc 85bd
00000360: 5b80 50bc 0d81 643d bc52 b5bd 6a21 9dbd
00000370: e387 9bbd 1815 ab3b 9124 82bd 79d2 9f3d
00000380: 1d8e 7f3d df4c 77bb e6c9 84bc 6b78 b6bc
00000390: d93b 7bbd 6107 003d 8593 953d 6eea 893c
000003a0: 6954 973c b53a 1bbd f282 29bd 9ecb f73c
000003b0: 06d7 b9bd 3d52 b23d cb79 96ba 35fc 873d
000003c0: fded 76bd ee34 8abd 9d3c 773c 6dac a33d
000003d0: d46e 98bc 944f 3dbc a8e9 363d dfcd 31bd
000003e0: 0ee9 95bd 811a adbd 8bfd 223d 1832 93bc
000003f0: 6e3b 82bd 939f 9d3d 5e03 c4bc b9bd 3c3d
0.051281326 -0.0089380955 -0.059482154 -0.014818682 0.10350848 0.050256472 0.042730693 0.049005948
-0.010418068 0.017309405 0.04679026 -0.023074789 0.018542299 0.029540597 -0.053415783 0.033205822
0.063853174 -0.040845126 -0.031507097 -0.0019023971 0.053833604 -0.030368714 0.04658283 0.06228983
-0.004751983 0.07086997 0.047848456 0.02061829 0.08653169 -0.009575359 -0.032278623 -0.029346483
-0.041408833 0.052024595 -0.06023524 0.018802697 0.02720661 -0.083762154 -0.00042186517 -0.03111914
0.023919484 -0.035991687 -0.011628185 -0.012794316 0.005075138 -0.019815259 0.05676774 0.013043215
0.05171971 -0.04581403 0.008632264 -0.027481558 0.036691256 -0.002324013 0.012773653 -0.014371637
-0.045578677 -0.016551595 0.044671375 -0.01570742 0.05532271 -0.029798979 -0.004737155 0.0549716
-0.06691662 -0.04663724 0.07880511 -0.05441334 0.038404748 -0.036157947 -0.009765125 -0.012210774
-0.043667912 0.040991962 -0.034829814 0.12058555 0.052975874 -0.08337501 -0.01182686 0.060513612
-0.060833197 -0.01982502 -0.017407337 0.08213469 -0.004725157 0.074501656 -0.0697697 0.097066715
0.039804444 -0.048000593 0.06280726 -0.050379526 0.044473667 -0.03218652 0.061749525 0.036235705
-0.03626166 -0.06960697 0.0021151158 -0.085044384 0.008966558 -0.03583793 0.018700045 0.04235184
-0.08968691 0.042501014 -0.053668056 -0.026641741 -0.030909466 -0.008982342 0.0417795 0.035421904
0.08291316 0.052042488 -0.020108385 0.044108264 -0.054189097 -0.08577945 -0.07535485 0.050050147
0.052712016 -0.03360116 -0.06348401 0.032796588 -0.013030594 0.0648195 0.02625461 0.018636359
0.054520305 0.01272721 0.03507311 -0.066739395 -0.05654628 -0.032822564 -0.040719617 -0.0011064666
0.05883826 0.07880884 0.010427004 -0.062012125 -0.03691472 0.020258483 -0.03722072 -0.0738864
-0.06040029 0.04718484 -0.070275486 0.054513436 -0.045229286 -0.01649441 -0.034536973 -0.057359003
-0.071852766 0.00064999954 -0.032988697 -0.015197904 0.007408937 0.058251467 0.07187508 0.05117846
0.048764724 0.037828077 -0.059440147 0.02855468 -0.07749283 -0.03237105 0.033474952 -0.0045036883
-0.087682866 0.0013889644 -0.0857316 -0.031037774 0.008845428 0.027684286 0.009501236 -0.004550015
-0.019300645 -0.06436662 -0.06581913 0.031542588 0.06113809 -0.06467143 -0.02649318 0.00029317063
0.047674876 -0.013147906 0.034245085 -0.087141 -0.020900358 0.007673559 -0.058726065 -0.08320761
0.008128861 0.035335045 0.0005185116 -0.02331552 -0.069051936 -0.03326258 -0.016983114 -0.0027955794
-0.00910068 -0.041320585 -0.008393237 0.080299504 0.051465493 -0.07804539 0.069803745 -0.020000871
0.004464086 -0.031559244 -0.013519347 0.03810491 -0.08521889 0.006603409 -0.015885402 -0.06542327
-0.012725915 0.055787135 -0.08853671 -0.07672389 -0.07594278 0.0052210204 -0.06354631 0.07803816
0.06239139 -0.0037735028 -0.016209554 -0.022274217 -0.061336372 0.031257037 0.07303528 0.016835418
0.018472867 -0.037897784 -0.041384645 0.03024846 -0.090742156 0.08707092 -0.0011480389 0.066399015
-0.060285557 -0.06748377 0.015090135 0.07991872 -0.018607534 -0.011554617 0.044656426 -0.043409225
-0.07319842 -0.08452321 0.03979258 -0.017968222 -0.063589916 0.07696452 -0.023927387 0.04607937

network.2.bias f4 [128]
00000000: 6886 82bd f95d 183d 496b a6bd d269 a73c
00000010: ee9e 88bd cc7a 92bd d7e2 67bd b66a 88bd
00000020: 5739 783c fe00 343d 36b1 5abd ceda 803b
00000030: 8e75 5d3d 7869 4fbd 9a14 4fbd 0a2b bb3d
00000040: c734 993d 48bf 96bd 9226 063c ab43 87bd
00000050: d6c5 863c 993e 623d 99d6 4bbd 58b5 763d
00000060: 5c1a b43d 06fb abbd a0dc 2c3c 5947 7d3d
00000070: 3ae7 803b 5b2e a9bc 27db aabc f3b9 ea3b
00000080: 3de8 c33d 96e4 3f3d 3760 78bd 7bba 5dbd
00000090: 2526 3a3d 8cde bfbd 0907 063d 2e85 253d
000000a0: e14b 833d 90be 30bc c45f 68bd e3f7 21bc
000000b0: 3f19 463d 13ce 42bd 35f7 fc3c a16a a03d
000000c0: 4346 a23d 8b90 0f3c 8b8b 183d ca68 963d
000000d0: 2f34 9bbc 39ec 4f3d 83cd f3bc 5efa d63b
000000e0: 3aab 263d 8e1e b6bb 10c3 fe3b 8192 073d
000000f0: dbd8 6c3d 9772 21bd 9a27 2fbd bd4a 9a3d
00000100: a3e5 a5bd 1a4e d3bc 7d02 eb3c 4c64 3abb
00000110: c59f 9d3d 6b74 0e3d 3e3d 603d 88b3 26bd
00000120: abdb afbd 4e83 423d c7b1 863d 1a4b c13c
00000130: 913b 72bd 8e41 893d 9719 99bd b4d6 3dbc
00000140: f64c 623d ed3a 3abd 29da 07bc e7b6 263d
00000150: 5567 c6bc 100b 683d f2cc 83bd 88d3 21bc
00000160: ae96 aa3c 6529 b7bc 6372 1bbd 9ade c9bc
00000170: 32ef b6bd 97fd 323d 6c35 353d 5cfb 863d
00000180: 31fd f6bc 1aa3 acbd 74f9 5bbb ac47 a13d
00000190: e557 1d3d 8da3 32bd 08db f2bc b559 85bd
000001a0: 8508 37bc 8f72 843d 322b 16bd 49fa c03c
000001b0: c667 1a3c 708c dabc 9f1a c63c 2691 83bc
000001c0: 1280 c23a 7df3 96bd bbdf 973d e279 dfbc
000001d0: 9796 4b3d b79a 893d 1de4 9e3d 5d2c 2ebd
000001e0: 9638 58bd 1bfa 1abd 3930 5d3c 7a06 87bd
000001f0: 40a1 61bd 5765 a2bc 4295 72bd 9b3c fa3c
-0.06373292 0.037198994 -0.08125932 0.020436201 -0.066709384 -0.07152328 -0.056612816 -0.066609785
0.01515039 0.04394626 -0.053391658 0.0039323336 0.054067187 -0.050637692 -0.050556757 0.091390684
0.074807696 -0.07360703 0.008187907 -0.066047035 0.016451757 0.05523548 -0.049765203 0.060231537
0.0879409 -0.08397488 0.010550648 0.06183562 0.0039338144 -0.020651987 -0.020856453 0.00716328
0.0956578 0.046848856 -0.060638633 -0.05413292 0.045446534 -0.09368619 0.032721553 0.040410213
0.06410957 -0.010787621 -0.056731954 -0.009885761 0.04836392 -0.04755981 0.030879596 0.07832838
0.079235576 0.008762489 0.037242454 0.07344206 -0.018945782 0.05076239 -0.029761082 0.006560608
0.040690638 -0.0055578416 0.007774718 0.0330987 0.057823997 -0.039415922 -0.042762376 0.075337864
-0.0810044 -0.025794078 0.02868771 -0.002844113 0.07696489 0.034778994 0.054745905 -0.040698558
-0.0858682 0.047488503 0.06576877 0.023595382 -0.05913884 0.06701957 -0.07475584 -0.011586834
0.055249177 -0.045466352 -0.0082917595 0.040701773 -0.024219194 0.056651175 -0.064355746 -0.009877093
0.020823803 -0.022358606 -0.037950885 -0.024642278 -0.08932342 0.043698873 0.0442404 0.06590912
-0.030150028 -0.08429547 -0.0033565434 0.078749985 0.0384139 -0.043613005 -0.029645458 -0.06511251
-0.011171465 0.06467163 -0.036662288 0.023556845 0.009424156 -0.026678294 0.024182616 -0.016060423
0.0014839193 -0.073706605 0.0741572 -0.027279798 0.04970416 0.06718963 0.07758353 -0.042522777
-0.05278834 -0.037836175 0.013500267 -0.06593032 -0.05508542 -0.019823713 -0.059224375 0.030546477

network.4.weight f4 [5, 128]
00000000: 8263 76bd 0eeb a7bc 7cc4 95bc 346d 9c3b
00000010: edd8 a9bd 6dab b23d a1b5 7a3d 4e7d 3b3d
00000020: 1c0c a8bc 60da 143d fe3c b6bd d57b b23d
00000030: 066a 58bc 0b59 45bd b408 6fbd 7fce 0fb8
00000040: b3d9 67bd d464 de3b aae8 df3c 16c3 2ebd
00000050: 0fd0 263d cf65 ba3d d796 8dbd 31e9 893a
00000060: 684e 543d 2cba 933d 9220 a8bd 1d7e a8bd
00000070: d462 71bd 4a06 92bd 5879 e5bc 6cea b73d
00000080: 81ce a2bd 67e2 92bd d0ea 08bd f9ef 38bc
00000090: 7ebb 00bd e2e8 b13d 56f6 68bd a4f7 253d
000000a0: bec3 173d c51f a2bd 3ebe 49bd 50aa e8bc
000000b0: a443 3b3d f20f cbbd c705 c639 db43 d8bc
000000c0: 4d95 96bd 6b40 04bd ca0d 993d 9128 2bbd
000000d0: ce44 bdbd 5a72 abbd 90cb e8bb c63b 03bd
000000e0: 2db0 223d 7a06 d2bd ee59 bcbd 3625 10bd
000000f0: f790 c03d 287b ccbc 754d 843d 8433 843d
00000100: e656 6cbd c733 bfba fb6b f13b 0c48 0c3c
00000110: e219 4ebd dafd d9bd 26eb acbc 2cd2 513d
00000120: 5689 dc3c cbda 473d d717 a0bc 46cd 80bd
00000130: 6c69 91bd b4eb 3a3c 660d b63d 13b8 7a3c
00000140: 1456 453c a8cc e73a 4db9 89bd ed71 aa3d
00000150: 4a11 603d 9e45 3b3d b475 c63a ddfd d0bb
00000160: ba4a 00bd 8427 11ba a172 b33c 9000 a23d
00000170: e792 ea3b 3eba 313d 0e73 2abd cbe1 a8bd
00000180: e0ed 7b3d 3fd1 00bc af4f 78bd 8c5c 3c3d
00000190: c2d9 98bd 0dcb 94bd e083 cd3c 4701 033b
000001a0: d3ed e83c 4d16 7b3d bb2b a03c 8bf2 8b3d
000001b0: ae62 79bd afa6 17bd f617 10bc 76be 543d
000001c0: 1ac2 9b3c 7319 7abc 83df d8bd 12b4 4a3d
000001d0: 7c56 b1bd da3a 86bd 2e99 eb3c cb0e 4f3d
000001e0: 3c50 32bd b206 aabb ca6a df3d 3595 63bd
000001f0: 6449 b9bd 664f 00bd e580 ba3d 9492 733a
00000200: 1b32 1a3c 7b18 25bd f2bb 9ebd e5ba d2bd
00000210: 1274 703d 7646 e0bd 1813 5e3d 5523 783d
00000220: 4831 a0ba 9540 783d 21fc 83bd 297e 9c3d
00000230: 96f0 a8bd 913a 863d 9a2e f03c a930 76bc
00000240: 356f 76bc 52da 08bd a268 8f3d c91e aa3d
00000250: 3eb3 67bd 04e7 22bd b766 183c f348 9c3a
00000260: e4e3 95bd 4251 7f3d 3046 9f3d 1812 6fbd
00000270: 887a dfbd b8a3 823c bdc8 d6bc 5a1d 50bd
00000280: d08d ef3c 6132 af3d 799c bf3d d544 e2bb
00000290: 5b41 60bd be9f 05bd 5201 eabd b74d 40bd
000002a0: 5492 673d 2fd8 06be 43f8 ac3c c18c 82bd
000002b0: 778b 1dbd 33a1 5c3d 5730 86bc 1e42 dc3d
000002c0: 03c6 3abd 3e05 203d ca0e 34bd 2d66 a33d
000002d0: fa88 a03c 88b9 163d 0f0b 41bd 1695 ddbd
000002e0: 52e5 73bc 64ee f1bb a69a 8d3c edb3 ab3d
000002f0: 8c11 193d d2bc c2bd ec21 ab3d 3930 31bc
00000300: f93d af3d 3a64 9b3d 1606 a5bd 24e6 8e3c
00000310: 281e c83d 9675 ecbc 1584 1c3d aee1 f5bd
00000320: 5ff7 573d 1a1b 30bd 076e 853d 49e6 953d
00000330: 3200 f63d 0e5e c5bd fdb4 bd3d 8a66 ad3d
00000340: efc6 703d cea1 e6bb 8bcd a8bd 61e5 ccbd
00000350: 9af4 7d3d e471 30bc 1016 aabc 897d 90bd
00000360: d5f3 c33d b7ef bdbd 6fb9 44bb b3ae 093d
00000370: d86e 22bd 721d 91bc b2a9 ccbd f192 83bd
00000380: adc2 e23d 2e79 2bbc 8cb3 333d 505e 18bd
00000390: c80e 80bc 363f 353d 6117 6bbd 193c 543b
000003a0: d4e7 e0bc c6c2 ccbd bc5e 2bbd 3745 00be
000003b0: 63be 46bd b0f9 81bc 2c1b 80bd 8c8d 15bc
000003c0: 5181 acbd 6de9 203d 08a7 123d cda5 1e3d
000003d0: 57a8 0bbd c488 0c3d 3f25 9f3d b7a7 cb3c
000003e0: c38b 81bc 6a68 933d 5e1f 00bc 7897 90bc
000003f0: cb1d 9dbd 445a 1dbe 67b0 c2bc 1b0b ef3c
-0.06015349 -0.020497825 -0.018282168 0.00477376 -0.082933284 0.08724103 0.06120837 0.045773797
-0.020513587 0.03634107 -0.08898352 0.08715025 -0.013208872 -0.04818062 -0.05835791 -3.428617e-05
-0.0566041 0.006786922 0.027332623 -0.042666517 0.040725764 0.0910145 -0.06913536 0.0010521767
0.051832587 0.07213244 -0.08209337 -0.08227179 -0.05893214 -0.07130106 -0.028011963 0.08980259
-0.07949544 -0.07172089 -0.03342706 -0.011287683 -0.031428806 0.08686997 -0.05687555 0.04051937
0.03705191 -0.07916216 -0.049253695 -0.028401524 0.045718804 -0.09915151 0.00037769807 -0.026399544
-0.073526956 -0.032287996 0.07473333 -0.041786734 -0.09241639 -0.0837142 -0.0071043447 -0.032039426
0.039718796 -0.102551416 -0.0919684 -0.035191737 0.0940265 -0.02496107 0.06460086 0.06455138
-0.05770006 -0.0014587574 0.0073676086 0.008562099 -0.050317653 -0.106441215 -0.021108221 0.051225826
0.026920956 0.04879264 -0.019542618 -0.06289153 -0.07100186 0.011408735 0.08889274 0.015302676
0.012044448 0.0017684894 -0.067247964 0.08322511 0.054703988 0.04572069 0.001514128 -0.006377919
-0.031321265 -0.00055371993 0.021905245 0.079102635 0.0071586254 0.043390505 -0.04161363 -0.082461916
0.061506152 -0.007862388 -0.060622867 0.045986697 -0.07463409 -0.07265291 0.025087297 0.0019989775
0.028433716 0.061300565 0.019552102 0.06833371 -0.060885124 -0.037024196 -0.008794775 0.05193945
0.019013453 -0.015264857 -0.105895065 0.049488135 -0.08659074 -0.06554194 0.028759565 0.050551217
-0.04353355 -0.0051887864 0.1090904 -0.055562217 -0.09047201 -0.03132572 0.09106616 0.0009291556
0.00941136 -0.04030655 -0.077506915 -0.102895536 0.058704443 -0.10950939 0.054217428 0.06058057
-0.0012221718 0.060608465 -0.06444574 0.07641251 -0.08249013 0.065541394 0.029319096 -0.01502625
-0.015041162 -0.03341133 0.07002379 0.08306653 -0.056567423 -0.039771095 0.009301833 0.0011923596
-0.07318857 0.062333353 0.07777059 -0.058366865 -0.10912043 0.015947208 -0.026218766 -0.05080924
0.029242426 0.08554531 0.09356017 -0.006905178 -0.054749828 -0.032623045 -0.11426033 -0.046949115
0.056536034 -0.13168405 0.021114474 -0.06374503 -0.038463082 0.05386467 -0.016380472 0.10754798
-0.045598995 0.0390675 -0.043959416 0.07978473 0.019596566 0.03679803 -0.047129687 -0.108194515
-0.014886217 -0.0073831547 0.017285656 0.083839275 0.03737025 -0.09508671 0.083560795 -0.01081472
0.08556742 0.07587476 -0.080578014 0.017443724 0.09771377 -0.028864663 0.0382119 -0.120059356
0.052726146 -0.042994596 0.06515127 0.07319314 0.12011756 -0.0963708 0.092630364 0.084668234
0.058783468 -0.0070383316 -0.08242329 -0.10004688 0.06200085 -0.010769341 -0.020762473 -0.07055194
0.09567992 -0.092742376 -0.0030017754 0.03361387 -0.03965649 -0.017714236 -0.09993304 -0.06424511
0.11072288 -0.010465903 0.0438724 -0.03719932 -0.015632048 0.044249736 -0.057395343 0.0032384454
-0.027454294 -0.099980876 -0.041838393 -0.12526403 -0.04852141 -0.01586613 -0.062551826 -0.009127986
-0.08423103 0.039285112 0.035803825 0.03873234 -0.03409609 0.034310117 0.07770776 0.024860246
-0.015813714 0.0719765 -0.0078199785 -0.01765035 -0.07671698 -0.15366465 -0.023765756 0.0291801

network.4.bias f4 [5]
00000000: 75ec f9bc c28a e63c 4dd6 413d 6c09 6a3d
00000010: 0b49 4e3d
-0.03050826 0.028142337 0.047323514 0.05713789 0.050362628
